name: "CnnMixture" 

layers { 
 name: "data" 
 type: DATA 
 top:  "data" 
 top:  "label" 
 data_param { 
   source: "/home/ge9/WACV2016/dataset/train/clef_flower/lmdb/clef_flower_train_lmdb" 
   backend: LMDB 
   batch_size: 20 
 } 
 transform_param { 
    crop_size: 226 
    mean_file: "/home/ge9/WACV2016/dataset/models/ImageNet/imagenet_mean.binaryproto" 
    mirror: true 
  } 
  include: { phase: TRAIN } 
} 

layers { 
 name: "data" 
 type: DATA 
 top:  "data" 
 top:  "label" 
 data_param { 
   source: "/home/ge9/WACV2016/dataset/test/clef_flower/lmdb/clef_flower_test_lmdb" 
   backend: LMDB 
   batch_size: 20 
 } 
 transform_param { 
    crop_size: 226 
    mean_file: "/home/ge9/WACV2016/dataset/models/ImageNet/imagenet_mean.binaryproto" 
    mirror: false 
  } 
  include: { phase: TEST } 
} 

layers {

  bottom: "data"

  top: "conv1/7x7_s2-se1"

  name: "conv1/7x7_s2-se1"

  type: CONVOLUTION

  blobs_lr: 1

  blobs_lr: 2

  weight_decay: 1

  weight_decay: 0

  convolution_param {

    num_output: 64

    pad: 3

    kernel_size: 7

    stride: 2

    weight_filler {

      type: "xavier"

      std: 0.1

    }

    bias_filler {

      type: "constant"

      value: 0.2

    }

  }

}

layers {

  bottom: "conv1/7x7_s2-se1"

  top: "conv1/7x7_s2-se1"

  name: "conv1/relu_7x7-se1"

  type: RELU

}

layers {

  bottom: "conv1/7x7_s2-se1"

  top: "pool1/3x3_s2-se1"

  name: "pool1/3x3_s2-se1"

  type: POOLING

  pooling_param {

    pool: MAX

    kernel_size: 3

    stride: 2

  }

}

layers {

  bottom: "pool1/3x3_s2-se1"

  top: "pool1/norm1-se1"

  name: "pool1/norm1-se1"

  type: LRN

  lrn_param {

    local_size: 5

    alpha: 0.0001

    beta: 0.75

  }

}

layers {

  bottom: "pool1/norm1-se1"

  top: "conv2/3x3_reduce-se1"

  name: "conv2/3x3_reduce-se1"

  type: CONVOLUTION

  blobs_lr: 1

  blobs_lr: 2

  weight_decay: 1

  weight_decay: 0

  convolution_param {

    num_output: 64

    kernel_size: 1

    weight_filler {

      type: "xavier"

      std: 0.1

    }

    bias_filler {

      type: "constant"

      value: 0.2

    }

  }

}

layers {

  bottom: "conv2/3x3_reduce-se1"

  top: "conv2/3x3_reduce-se1"

  name: "conv2/relu_3x3_reduce-se1"

  type: RELU

}

layers {

  bottom: "conv2/3x3_reduce-se1"

  top: "conv2/3x3-se1"

  name: "conv2/3x3-se1"

  type: CONVOLUTION

  blobs_lr: 1

  blobs_lr: 2

  weight_decay: 1

  weight_decay: 0

  convolution_param {

    num_output: 192

    pad: 1

    kernel_size: 3

    weight_filler {

      type: "xavier"

      std: 0.03

    }

    bias_filler {

      type: "constant"

      value: 0.2

    }

  }

}

layers {

  bottom: "conv2/3x3-se1"

  top: "conv2/3x3-se1"

  name: "conv2/relu_3x3-se1"

  type: RELU

}

layers {

  bottom: "conv2/3x3-se1"

  top: "conv2/norm2-se1"

  name: "conv2/norm2-se1"

  type: LRN

  lrn_param {

    local_size: 5

    alpha: 0.0001

    beta: 0.75

  }

}

layers {

  bottom: "conv2/norm2-se1"

  top: "pool2/3x3_s2-se1"

  name: "pool2/3x3_s2-se1"

  type: POOLING

  pooling_param {

    pool: MAX

    kernel_size: 3

    stride: 2

  }

}

layers {

  bottom: "pool2/3x3_s2-se1"

  top: "inception_3a/1x1-se1"

  name: "inception_3a/1x1-se1"

  type: CONVOLUTION

  blobs_lr: 1

  blobs_lr: 2

  weight_decay: 1

  weight_decay: 0

  convolution_param {

    num_output: 64

    kernel_size: 1

    weight_filler {

      type: "xavier"

      std: 0.03

    }

    bias_filler {

      type: "constant"

      value: 0.2

    }

  }

}

layers {

  bottom: "inception_3a/1x1-se1"

  top: "inception_3a/1x1-se1"

  name: "inception_3a/relu_1x1-se1"

  type: RELU

}

layers {

  bottom: "pool2/3x3_s2-se1"

  top: "inception_3a/3x3_reduce-se1"

  name: "inception_3a/3x3_reduce-se1"

  type: CONVOLUTION

  blobs_lr: 1

  blobs_lr: 2

  weight_decay: 1

  weight_decay: 0

  convolution_param {

    num_output: 96

    kernel_size: 1

    weight_filler {

      type: "xavier"

      std: 0.09

    }

    bias_filler {

      type: "constant"

      value: 0.2

    }

  }

}

layers {

  bottom: "inception_3a/3x3_reduce-se1"

  top: "inception_3a/3x3_reduce-se1"

  name: "inception_3a/relu_3x3_reduce-se1"

  type: RELU

}

layers {

  bottom: "inception_3a/3x3_reduce-se1"

  top: "inception_3a/3x3-se1"

  name: "inception_3a/3x3-se1"

  type: CONVOLUTION

  blobs_lr: 1

  blobs_lr: 2

  weight_decay: 1

  weight_decay: 0

  convolution_param {

    num_output: 128

    pad: 1

    kernel_size: 3

    weight_filler {

      type: "xavier"

      std: 0.03

    }

    bias_filler {

      type: "constant"

      value: 0.2

    }

  }

}

layers {

  bottom: "inception_3a/3x3-se1"

  top: "inception_3a/3x3-se1"

  name: "inception_3a/relu_3x3-se1"

  type: RELU

}

layers {

  bottom: "pool2/3x3_s2-se1"

  top: "inception_3a/5x5_reduce-se1"

  name: "inception_3a/5x5_reduce-se1"

  type: CONVOLUTION

  blobs_lr: 1

  blobs_lr: 2

  weight_decay: 1

  weight_decay: 0

  convolution_param {

    num_output: 16

    kernel_size: 1

    weight_filler {

      type: "xavier"

      std: 0.2

    }

    bias_filler {

      type: "constant"

      value: 0.2

    }

  }

}

layers {

  bottom: "inception_3a/5x5_reduce-se1"

  top: "inception_3a/5x5_reduce-se1"

  name: "inception_3a/relu_5x5_reduce-se1"

  type: RELU

}

layers {

  bottom: "inception_3a/5x5_reduce-se1"

  top: "inception_3a/5x5-se1"

  name: "inception_3a/5x5-se1"

  type: CONVOLUTION

  blobs_lr: 1

  blobs_lr: 2

  weight_decay: 1

  weight_decay: 0

  convolution_param {

    num_output: 32

    pad: 2

    kernel_size: 5

    weight_filler {

      type: "xavier"

      std: 0.03

    }

    bias_filler {

      type: "constant"

      value: 0.2

    }

  }

}

layers {

  bottom: "inception_3a/5x5-se1"

  top: "inception_3a/5x5-se1"

  name: "inception_3a/relu_5x5-se1"

  type: RELU

}

layers {

  bottom: "pool2/3x3_s2-se1"

  top: "inception_3a/pool-se1"

  name: "inception_3a/pool-se1"

  type: POOLING

  pooling_param {

    pool: MAX

    kernel_size: 3

    stride: 1

    pad: 1

  }

}

layers {

  bottom: "inception_3a/pool-se1"

  top: "inception_3a/pool_proj-se1"

  name: "inception_3a/pool_proj-se1"

  type: CONVOLUTION

  blobs_lr: 1

  blobs_lr: 2

  weight_decay: 1

  weight_decay: 0

  convolution_param {

    num_output: 32

    kernel_size: 1

    weight_filler {

      type: "xavier"

      std: 0.1

    }

    bias_filler {

      type: "constant"

      value: 0.2

    }

  }

}

layers {

  bottom: "inception_3a/pool_proj-se1"

  top: "inception_3a/pool_proj-se1"

  name: "inception_3a/relu_pool_proj-se1"

  type: RELU

}

layers {

  bottom: "inception_3a/1x1-se1"

  bottom: "inception_3a/3x3-se1"

  bottom: "inception_3a/5x5-se1"

  bottom: "inception_3a/pool_proj-se1"

  top: "inception_3a/output-se1"

  name: "inception_3a/output-se1"

  type: CONCAT

}

layers {

  bottom: "inception_3a/output-se1"

  top: "inception_3b/1x1-se1"

  name: "inception_3b/1x1-se1"

  type: CONVOLUTION

  blobs_lr: 1

  blobs_lr: 2

  weight_decay: 1

  weight_decay: 0

  convolution_param {

    num_output: 128

    kernel_size: 1

    weight_filler {

      type: "xavier"

      std: 0.03

    }

    bias_filler {

      type: "constant"

      value: 0.2

    }

  }

}

layers {

  bottom: "inception_3b/1x1-se1"

  top: "inception_3b/1x1-se1"

  name: "inception_3b/relu_1x1-se1"

  type: RELU

}

layers {

  bottom: "inception_3a/output-se1"

  top: "inception_3b/3x3_reduce-se1"

  name: "inception_3b/3x3_reduce-se1"

  type: CONVOLUTION

  blobs_lr: 1

  blobs_lr: 2

  weight_decay: 1

  weight_decay: 0

  convolution_param {

    num_output: 128

    kernel_size: 1

    weight_filler {

      type: "xavier"

      std: 0.09

    }

    bias_filler {

      type: "constant"

      value: 0.2

    }

  }

}

layers {

  bottom: "inception_3b/3x3_reduce-se1"

  top: "inception_3b/3x3_reduce-se1"

  name: "inception_3b/relu_3x3_reduce-se1"

  type: RELU

}

layers {

  bottom: "inception_3b/3x3_reduce-se1"

  top: "inception_3b/3x3-se1"

  name: "inception_3b/3x3-se1"

  type: CONVOLUTION

  blobs_lr: 1

  blobs_lr: 2

  weight_decay: 1

  weight_decay: 0

  convolution_param {

    num_output: 192

    pad: 1

    kernel_size: 3

    weight_filler {

      type: "xavier"

      std: 0.03

    }

    bias_filler {

      type: "constant"

      value: 0.2

    }

  }

}

layers {

  bottom: "inception_3b/3x3-se1"

  top: "inception_3b/3x3-se1"

  name: "inception_3b/relu_3x3-se1"

  type: RELU

}

layers {

  bottom: "inception_3a/output-se1"

  top: "inception_3b/5x5_reduce-se1"

  name: "inception_3b/5x5_reduce-se1"

  type: CONVOLUTION

  blobs_lr: 1

  blobs_lr: 2

  weight_decay: 1

  weight_decay: 0

  convolution_param {

    num_output: 32

    kernel_size: 1

    weight_filler {

      type: "xavier"

      std: 0.2

    }

    bias_filler {

      type: "constant"

      value: 0.2

    }

  }

}

layers {

  bottom: "inception_3b/5x5_reduce-se1"

  top: "inception_3b/5x5_reduce-se1"

  name: "inception_3b/relu_5x5_reduce-se1"

  type: RELU

}

layers {

  bottom: "inception_3b/5x5_reduce-se1"

  top: "inception_3b/5x5-se1"

  name: "inception_3b/5x5-se1"

  type: CONVOLUTION

  blobs_lr: 1

  blobs_lr: 2

  weight_decay: 1

  weight_decay: 0

  convolution_param {

    num_output: 96

    pad: 2

    kernel_size: 5

    weight_filler {

      type: "xavier"

      std: 0.03

    }

    bias_filler {

      type: "constant"

      value: 0.2

    }

  }

}

layers {

  bottom: "inception_3b/5x5-se1"

  top: "inception_3b/5x5-se1"

  name: "inception_3b/relu_5x5-se1"

  type: RELU

}

layers {

  bottom: "inception_3a/output-se1"

  top: "inception_3b/pool-se1"

  name: "inception_3b/pool-se1"

  type: POOLING

  pooling_param {

    pool: MAX

    kernel_size: 3

    stride: 1

    pad: 1

  }

}

layers {

  bottom: "inception_3b/pool-se1"

  top: "inception_3b/pool_proj-se1"

  name: "inception_3b/pool_proj-se1"

  type: CONVOLUTION

  blobs_lr: 1

  blobs_lr: 2

  weight_decay: 1

  weight_decay: 0

  convolution_param {

    num_output: 64

    kernel_size: 1

    weight_filler {

      type: "xavier"

      std: 0.1

    }

    bias_filler {

      type: "constant"

      value: 0.2

    }

  }

}

layers {

  bottom: "inception_3b/pool_proj-se1"

  top: "inception_3b/pool_proj-se1"

  name: "inception_3b/relu_pool_proj-se1"

  type: RELU

}

layers {

  bottom: "inception_3b/1x1-se1"

  bottom: "inception_3b/3x3-se1"

  bottom: "inception_3b/5x5-se1"

  bottom: "inception_3b/pool_proj-se1"

  top: "inception_3b/output-se1"

  name: "inception_3b/output-se1"

  type: CONCAT

}

layers {

  bottom: "inception_3b/output-se1"

  top: "pool3/3x3_s2-se1"

  name: "pool3/3x3_s2-se1"

  type: POOLING

  pooling_param {

    pool: MAX

    kernel_size: 3

    stride: 2

  }

}

layers {

  bottom: "pool3/3x3_s2-se1"

  top: "inception_4a/1x1-se1"

  name: "inception_4a/1x1-se1"

  type: CONVOLUTION

  blobs_lr: 1

  blobs_lr: 2

  weight_decay: 1

  weight_decay: 0

  convolution_param {

    num_output: 192

    kernel_size: 1

    weight_filler {

      type: "xavier"

      std: 0.03

    }

    bias_filler {

      type: "constant"

      value: 0.2

    }

  }

}

layers {

  bottom: "inception_4a/1x1-se1"

  top: "inception_4a/1x1-se1"

  name: "inception_4a/relu_1x1-se1"

  type: RELU

}

layers {

  bottom: "pool3/3x3_s2-se1"

  top: "inception_4a/3x3_reduce-se1"

  name: "inception_4a/3x3_reduce-se1"

  type: CONVOLUTION

  blobs_lr: 1

  blobs_lr: 2

  weight_decay: 1

  weight_decay: 0

  convolution_param {

    num_output: 96

    kernel_size: 1

    weight_filler {

      type: "xavier"

      std: 0.09

    }

    bias_filler {

      type: "constant"

      value: 0.2

    }

  }

}

layers {

  bottom: "inception_4a/3x3_reduce-se1"

  top: "inception_4a/3x3_reduce-se1"

  name: "inception_4a/relu_3x3_reduce-se1"

  type: RELU

}

layers {

  bottom: "inception_4a/3x3_reduce-se1"

  top: "inception_4a/3x3-se1"

  name: "inception_4a/3x3-se1"

  type: CONVOLUTION

  blobs_lr: 1

  blobs_lr: 2

  weight_decay: 1

  weight_decay: 0

  convolution_param {

    num_output: 208

    pad: 1

    kernel_size: 3

    weight_filler {

      type: "xavier"

      std: 0.03

    }

    bias_filler {

      type: "constant"

      value: 0.2

    }

  }

}

layers {

  bottom: "inception_4a/3x3-se1"

  top: "inception_4a/3x3-se1"

  name: "inception_4a/relu_3x3-se1"

  type: RELU

}

layers {

  bottom: "pool3/3x3_s2-se1"

  top: "inception_4a/5x5_reduce-se1"

  name: "inception_4a/5x5_reduce-se1"

  type: CONVOLUTION

  blobs_lr: 1

  blobs_lr: 2

  weight_decay: 1

  weight_decay: 0

  convolution_param {

    num_output: 16

    kernel_size: 1

    weight_filler {

      type: "xavier"

      std: 0.2

    }

    bias_filler {

      type: "constant"

      value: 0.2

    }

  }

}

layers {

  bottom: "inception_4a/5x5_reduce-se1"

  top: "inception_4a/5x5_reduce-se1"

  name: "inception_4a/relu_5x5_reduce-se1"

  type: RELU

}

layers {

  bottom: "inception_4a/5x5_reduce-se1"

  top: "inception_4a/5x5-se1"

  name: "inception_4a/5x5-se1"

  type: CONVOLUTION

  blobs_lr: 1

  blobs_lr: 2

  weight_decay: 1

  weight_decay: 0

  convolution_param {

    num_output: 48

    pad: 2

    kernel_size: 5

    weight_filler {

      type: "xavier"

      std: 0.03

    }

    bias_filler {

      type: "constant"

      value: 0.2

    }

  }

}

layers {

  bottom: "inception_4a/5x5-se1"

  top: "inception_4a/5x5-se1"

  name: "inception_4a/relu_5x5-se1"

  type: RELU

}

layers {

  bottom: "pool3/3x3_s2-se1"

  top: "inception_4a/pool-se1"

  name: "inception_4a/pool-se1"

  type: POOLING

  pooling_param {

    pool: MAX

    kernel_size: 3

    stride: 1

    pad: 1

  }

}

layers {

  bottom: "inception_4a/pool-se1"

  top: "inception_4a/pool_proj-se1"

  name: "inception_4a/pool_proj-se1"

  type: CONVOLUTION

  blobs_lr: 1

  blobs_lr: 2

  weight_decay: 1

  weight_decay: 0

  convolution_param {

    num_output: 64

    kernel_size: 1

    weight_filler {

      type: "xavier"

      std: 0.1

    }

    bias_filler {

      type: "constant"

      value: 0.2

    }

  }

}

layers {

  bottom: "inception_4a/pool_proj-se1"

  top: "inception_4a/pool_proj-se1"

  name: "inception_4a/relu_pool_proj-se1"

  type: RELU

}

layers {

  bottom: "inception_4a/1x1-se1"

  bottom: "inception_4a/3x3-se1"

  bottom: "inception_4a/5x5-se1"

  bottom: "inception_4a/pool_proj-se1"

  top: "inception_4a/output-se1"

  name: "inception_4a/output-se1"

  type: CONCAT

}

layers {

  bottom: "inception_4a/output-se1"

  top: "loss1/ave_pool-se1"

  name: "loss1/ave_pool-se1"

  type: POOLING

  pooling_param {

    pool: AVE

    kernel_size: 5

    stride: 3

  }

}

layers {

  bottom: "loss1/ave_pool-se1"

  top: "loss1/conv-se1"

  name: "loss1/conv-se1"

  type: CONVOLUTION

  blobs_lr: 1

  blobs_lr: 2

  weight_decay: 1

  weight_decay: 0

  convolution_param {

    num_output: 128

    kernel_size: 1

    weight_filler {

      type: "xavier"

      std: 0.08

    }

    bias_filler {

      type: "constant"

      value: 0.2

    }

  }

}

layers {

  bottom: "loss1/conv-se1"

  top: "loss1/conv-se1"

  name: "loss1/relu_conv-se1"

  type: RELU

}

layers {

  bottom: "loss1/conv-se1"

  top: "loss1/fc-se1"

  name: "loss1/fc-se1"

  type: INNER_PRODUCT

  blobs_lr: 1

  blobs_lr: 2

  weight_decay: 1

  weight_decay: 0

  inner_product_param {

    num_output: 1024

    weight_filler {

      type: "xavier"

      std: 0.02

    }

    bias_filler {

      type: "constant"

      value: 0.2

    }

  }

}

layers {

  bottom: "loss1/fc-se1"

  top: "loss1/fc-se1"

  name: "loss1/relu_fc-se1"

  type: RELU

}

layers {

  bottom: "loss1/fc-se1"

  top: "loss1/fc-se1"

  name: "loss1/drop_fc-se1"

  type: DROPOUT

  dropout_param {

    dropout_ratio: 0.7

  }

}

layers {

  bottom: "loss1/fc-se1"

  top: "fc-1-se1"

  name: "loss1/classifier-se1"

  type: INNER_PRODUCT

  blobs_lr: 1

  blobs_lr: 2

  weight_decay: 1

  weight_decay: 0

  inner_product_param {

    num_output: 967

    weight_filler {

      type: "xavier"

      std: 0.0009765625

    }

    bias_filler { 

      type: "constant"

      value: 0

    }

  }

}



layers {

  bottom: "inception_4a/output-se1"

  top: "inception_4b/1x1-se1"

  name: "inception_4b/1x1-se1"

  type: CONVOLUTION

  blobs_lr: 1

  blobs_lr: 2

  weight_decay: 1

  weight_decay: 0

  convolution_param {

    num_output: 160

    kernel_size: 1

    weight_filler {

      type: "xavier"

      std: 0.03

    }

    bias_filler {

      type: "constant"

      value: 0.2

    }

  }

}

layers {

  bottom: "inception_4b/1x1-se1"

  top: "inception_4b/1x1-se1"

  name: "inception_4b/relu_1x1-se1"

  type: RELU

}

layers {

  bottom: "inception_4a/output-se1"

  top: "inception_4b/3x3_reduce-se1"

  name: "inception_4b/3x3_reduce-se1"

  type: CONVOLUTION

  blobs_lr: 1

  blobs_lr: 2

  weight_decay: 1

  weight_decay: 0

  convolution_param {

    num_output: 112

    kernel_size: 1

    weight_filler {

      type: "xavier"

      std: 0.09

    }

    bias_filler {

      type: "constant"

      value: 0.2

    }

  }

}

layers {

  bottom: "inception_4b/3x3_reduce-se1"

  top: "inception_4b/3x3_reduce-se1"

  name: "inception_4b/relu_3x3_reduce-se1"

  type: RELU

}

layers {

  bottom: "inception_4b/3x3_reduce-se1"

  top: "inception_4b/3x3-se1"

  name: "inception_4b/3x3-se1"

  type: CONVOLUTION

  blobs_lr: 1

  blobs_lr: 2

  weight_decay: 1

  weight_decay: 0

  convolution_param {

    num_output: 224

    pad: 1

    kernel_size: 3

    weight_filler {

      type: "xavier"

      std: 0.03

    }

    bias_filler {

      type: "constant"

      value: 0.2

    }

  }

}

layers {

  bottom: "inception_4b/3x3-se1"

  top: "inception_4b/3x3-se1"

  name: "inception_4b/relu_3x3-se1"

  type: RELU

}

layers {

  bottom: "inception_4a/output-se1"

  top: "inception_4b/5x5_reduce-se1"

  name: "inception_4b/5x5_reduce-se1"

  type: CONVOLUTION

  blobs_lr: 1

  blobs_lr: 2

  weight_decay: 1

  weight_decay: 0

  convolution_param {

    num_output: 24

    kernel_size: 1

    weight_filler {

      type: "xavier"

      std: 0.2

    }

    bias_filler {

      type: "constant"

      value: 0.2

    }

  }

}

layers {

  bottom: "inception_4b/5x5_reduce-se1"

  top: "inception_4b/5x5_reduce-se1"

  name: "inception_4b/relu_5x5_reduce-se1"

  type: RELU

}

layers {

  bottom: "inception_4b/5x5_reduce-se1"

  top: "inception_4b/5x5-se1"

  name: "inception_4b/5x5-se1"

  type: CONVOLUTION

  blobs_lr: 1

  blobs_lr: 2

  weight_decay: 1

  weight_decay: 0

  convolution_param {

    num_output: 64

    pad: 2

    kernel_size: 5

    weight_filler {

      type: "xavier"

      std: 0.03

    }

    bias_filler {

      type: "constant"

      value: 0.2

    }

  }

}

layers {

  bottom: "inception_4b/5x5-se1"

  top: "inception_4b/5x5-se1"

  name: "inception_4b/relu_5x5-se1"

  type: RELU

}

layers {

  bottom: "inception_4a/output-se1"

  top: "inception_4b/pool-se1"

  name: "inception_4b/pool-se1"

  type: POOLING

  pooling_param {

    pool: MAX

    kernel_size: 3

    stride: 1

    pad: 1

  }

}

layers {

  bottom: "inception_4b/pool-se1"

  top: "inception_4b/pool_proj-se1"

  name: "inception_4b/pool_proj-se1"

  type: CONVOLUTION

  blobs_lr: 1

  blobs_lr: 2

  weight_decay: 1

  weight_decay: 0

  convolution_param {

    num_output: 64

    kernel_size: 1

    weight_filler {

      type: "xavier"

      std: 0.1

    }

    bias_filler {

      type: "constant"

      value: 0.2

    }

  }

}

layers {

  bottom: "inception_4b/pool_proj-se1"

  top: "inception_4b/pool_proj-se1"

  name: "inception_4b/relu_pool_proj-se1"

  type: RELU

}

layers {

  bottom: "inception_4b/1x1-se1"

  bottom: "inception_4b/3x3-se1"

  bottom: "inception_4b/5x5-se1"

  bottom: "inception_4b/pool_proj-se1"

  top: "inception_4b/output-se1"

  name: "inception_4b/output-se1"

  type: CONCAT

}

layers {

  bottom: "inception_4b/output-se1"

  top: "inception_4c/1x1-se1"

  name: "inception_4c/1x1-se1"

  type: CONVOLUTION

  blobs_lr: 1

  blobs_lr: 2

  weight_decay: 1

  weight_decay: 0

  convolution_param {

    num_output: 128

    kernel_size: 1

    weight_filler {

      type: "xavier"

      std: 0.03

    }

    bias_filler {

      type: "constant"

      value: 0.2

    }

  }

}

layers {

  bottom: "inception_4c/1x1-se1"

  top: "inception_4c/1x1-se1"

  name: "inception_4c/relu_1x1-se1"

  type: RELU

}

layers {

  bottom: "inception_4b/output-se1"

  top: "inception_4c/3x3_reduce-se1"

  name: "inception_4c/3x3_reduce-se1"

  type: CONVOLUTION

  blobs_lr: 1

  blobs_lr: 2

  weight_decay: 1

  weight_decay: 0

  convolution_param {

    num_output: 128

    kernel_size: 1

    weight_filler {

      type: "xavier"

      std: 0.09

    }

    bias_filler {

      type: "constant"

      value: 0.2

    }

  }

}

layers {

  bottom: "inception_4c/3x3_reduce-se1"

  top: "inception_4c/3x3_reduce-se1"

  name: "inception_4c/relu_3x3_reduce-se1"

  type: RELU

}

layers {

  bottom: "inception_4c/3x3_reduce-se1"

  top: "inception_4c/3x3-se1"

  name: "inception_4c/3x3-se1"

  type: CONVOLUTION

  blobs_lr: 1

  blobs_lr: 2

  weight_decay: 1

  weight_decay: 0

  convolution_param {

    num_output: 256

    pad: 1

    kernel_size: 3

    weight_filler {

      type: "xavier"

      std: 0.03

    }

    bias_filler {

      type: "constant"

      value: 0.2

    }

  }

}

layers {

  bottom: "inception_4c/3x3-se1"

  top: "inception_4c/3x3-se1"

  name: "inception_4c/relu_3x3-se1"

  type: RELU

}

layers {

  bottom: "inception_4b/output-se1"

  top: "inception_4c/5x5_reduce-se1"

  name: "inception_4c/5x5_reduce-se1"

  type: CONVOLUTION

  blobs_lr: 1

  blobs_lr: 2

  weight_decay: 1

  weight_decay: 0

  convolution_param {

    num_output: 24

    kernel_size: 1

    weight_filler {

      type: "xavier"

      std: 0.2

    }

    bias_filler {

      type: "constant"

      value: 0.2

    }

  }

}

layers {

  bottom: "inception_4c/5x5_reduce-se1"

  top: "inception_4c/5x5_reduce-se1"

  name: "inception_4c/relu_5x5_reduce-se1"

  type: RELU

}

layers {

  bottom: "inception_4c/5x5_reduce-se1"

  top: "inception_4c/5x5-se1"

  name: "inception_4c/5x5-se1"

  type: CONVOLUTION

  blobs_lr: 1

  blobs_lr: 2

  weight_decay: 1

  weight_decay: 0

  convolution_param {

    num_output: 64

    pad: 2

    kernel_size: 5

    weight_filler {

      type: "xavier"

      std: 0.03

    }

    bias_filler {

      type: "constant"

      value: 0.2

    }

  }

}

layers {

  bottom: "inception_4c/5x5-se1"

  top: "inception_4c/5x5-se1"

  name: "inception_4c/relu_5x5-se1"

  type: RELU

}

layers {

  bottom: "inception_4b/output-se1"

  top: "inception_4c/pool-se1"

  name: "inception_4c/pool-se1"

  type: POOLING

  pooling_param {

    pool: MAX

    kernel_size: 3

    stride: 1

    pad: 1

  }

}

layers {

  bottom: "inception_4c/pool-se1"

  top: "inception_4c/pool_proj-se1"

  name: "inception_4c/pool_proj-se1"

  type: CONVOLUTION

  blobs_lr: 1

  blobs_lr: 2

  weight_decay: 1

  weight_decay: 0

  convolution_param {

    num_output: 64

    kernel_size: 1

    weight_filler {

      type: "xavier"

      std: 0.1

    }

    bias_filler {

      type: "constant"

      value: 0.2

    }

  }

}

layers {

  bottom: "inception_4c/pool_proj-se1"

  top: "inception_4c/pool_proj-se1"

  name: "inception_4c/relu_pool_proj-se1"

  type: RELU

}

layers {

  bottom: "inception_4c/1x1-se1"

  bottom: "inception_4c/3x3-se1"

  bottom: "inception_4c/5x5-se1"

  bottom: "inception_4c/pool_proj-se1"

  top: "inception_4c/output-se1"

  name: "inception_4c/output-se1"

  type: CONCAT

}

layers {

  bottom: "inception_4c/output-se1"

  top: "inception_4d/1x1-se1"

  name: "inception_4d/1x1-se1"

  type: CONVOLUTION

  blobs_lr: 1

  blobs_lr: 2

  weight_decay: 1

  weight_decay: 0

  convolution_param {

    num_output: 112

    kernel_size: 1

    weight_filler {

      type: "xavier"

      std: 0.03

    }

    bias_filler {

      type: "constant"

      value: 0.2

    }

  }

}

layers {

  bottom: "inception_4d/1x1-se1"

  top: "inception_4d/1x1-se1"

  name: "inception_4d/relu_1x1-se1"

  type: RELU

}

layers {

  bottom: "inception_4c/output-se1"

  top: "inception_4d/3x3_reduce-se1"

  name: "inception_4d/3x3_reduce-se1"

  type: CONVOLUTION

  blobs_lr: 1

  blobs_lr: 2

  weight_decay: 1

  weight_decay: 0

  convolution_param {

    num_output: 144

    kernel_size: 1

    weight_filler {

      type: "xavier"

      std: 0.09

    }

    bias_filler {

      type: "constant"

      value: 0.2

    }

  }

}

layers {

  bottom: "inception_4d/3x3_reduce-se1"

  top: "inception_4d/3x3_reduce-se1"

  name: "inception_4d/relu_3x3_reduce-se1"

  type: RELU

}

layers {

  bottom: "inception_4d/3x3_reduce-se1"

  top: "inception_4d/3x3-se1"

  name: "inception_4d/3x3-se1"

  type: CONVOLUTION

  blobs_lr: 1

  blobs_lr: 2

  weight_decay: 1

  weight_decay: 0

  convolution_param {

    num_output: 288

    pad: 1

    kernel_size: 3

    weight_filler {

      type: "xavier"

      std: 0.03

    }

    bias_filler {

      type: "constant"

      value: 0.2

    }

  }

}

layers {

  bottom: "inception_4d/3x3-se1"

  top: "inception_4d/3x3-se1"

  name: "inception_4d/relu_3x3-se1"

  type: RELU

}

layers {

  bottom: "inception_4c/output-se1"

  top: "inception_4d/5x5_reduce-se1"

  name: "inception_4d/5x5_reduce-se1"

  type: CONVOLUTION

  blobs_lr: 1

  blobs_lr: 2

  weight_decay: 1

  weight_decay: 0

  convolution_param {

    num_output: 32

    kernel_size: 1

    weight_filler {

      type: "xavier"

      std: 0.2

    }

    bias_filler {

      type: "constant"

      value: 0.2

    }

  }

}

layers {

  bottom: "inception_4d/5x5_reduce-se1"

  top: "inception_4d/5x5_reduce-se1"

  name: "inception_4d/relu_5x5_reduce-se1"

  type: RELU

}

layers {

  bottom: "inception_4d/5x5_reduce-se1"

  top: "inception_4d/5x5-se1"

  name: "inception_4d/5x5-se1"

  type: CONVOLUTION

  blobs_lr: 1

  blobs_lr: 2

  weight_decay: 1

  weight_decay: 0

  convolution_param {

    num_output: 64

    pad: 2

    kernel_size: 5

    weight_filler {

      type: "xavier"

      std: 0.03

    }

    bias_filler {

      type: "constant"

      value: 0.2

    }

  }

}

layers {

  bottom: "inception_4d/5x5-se1"

  top: "inception_4d/5x5-se1"

  name: "inception_4d/relu_5x5-se1"

  type: RELU

}

layers {

  bottom: "inception_4c/output-se1"

  top: "inception_4d/pool-se1"

  name: "inception_4d/pool-se1"

  type: POOLING

  pooling_param {

    pool: MAX

    kernel_size: 3

    stride: 1

    pad: 1

  }

}

layers {

  bottom: "inception_4d/pool-se1"

  top: "inception_4d/pool_proj-se1"

  name: "inception_4d/pool_proj-se1"

  type: CONVOLUTION

  blobs_lr: 1

  blobs_lr: 2

  weight_decay: 1

  weight_decay: 0

  convolution_param {

    num_output: 64

    kernel_size: 1

    weight_filler {

      type: "xavier"

      std: 0.1

    }

    bias_filler {

      type: "constant"

      value: 0.2

    }

  }

}

layers {

  bottom: "inception_4d/pool_proj-se1"

  top: "inception_4d/pool_proj-se1"

  name: "inception_4d/relu_pool_proj-se1"

  type: RELU

}

layers {

  bottom: "inception_4d/1x1-se1"

  bottom: "inception_4d/3x3-se1"

  bottom: "inception_4d/5x5-se1"

  bottom: "inception_4d/pool_proj-se1"

  top: "inception_4d/output-se1"

  name: "inception_4d/output-se1"

  type: CONCAT

}



layers {

  bottom: "inception_4d/output-se1"

  top: "loss2/ave_pool-se1"

  name: "loss2/ave_pool-se1"

  type: POOLING

  pooling_param {

    pool: AVE

    kernel_size: 5

    stride: 3

  }

}

layers {

  bottom: "loss2/ave_pool-se1"

  top: "loss2/conv-se1"

  name: "loss2/conv-se1"

  type: CONVOLUTION

  blobs_lr: 1

  blobs_lr: 2

  weight_decay: 1

  weight_decay: 0

  convolution_param {

    num_output: 128

    kernel_size: 1

    weight_filler {

      type: "xavier"

      std: 0.08

    }

    bias_filler {

      type: "constant"

      value: 0.2

    }

  }

}

layers {

  bottom: "loss2/conv-se1"

  top: "loss2/conv-se1"

  name: "loss2/relu_conv-se1"

  type: RELU

}

layers {

  bottom: "loss2/conv-se1"

  top: "loss2/fc-se1"

  name: "loss2/fc-se1"

  type: INNER_PRODUCT

  blobs_lr: 1

  blobs_lr: 2

  weight_decay: 1

  weight_decay: 0

  inner_product_param {

    num_output: 1024

    weight_filler {

      type: "xavier"

      std: 0.02

    }

    bias_filler {

      type: "constant"

      value: 0.2

    }

  }

}

layers {

  bottom: "loss2/fc-se1"

  top: "loss2/fc-se1"

  name: "loss2/relu_fc-se1"

  type: RELU

}

layers {

  bottom: "loss2/fc-se1"

  top: "loss2/fc-se1"

  name: "loss2/drop_fc-se1"

  type: DROPOUT

  dropout_param {

    dropout_ratio: 0.7

  }

}

layers {

  bottom: "loss2/fc-se1"

  top: "fc-2-se1"

  name: "loss2/classifier-se1"

  type: INNER_PRODUCT

  blobs_lr: 1

  blobs_lr: 2

  weight_decay: 1

  weight_decay: 0

  inner_product_param {

    num_output: 967

    weight_filler {

      type: "xavier"

      std: 0.0009765625

    }

    bias_filler {

      type: "constant"

      value: 0

    }

  }

}



layers {

  bottom: "inception_4d/output-se1"

  top: "inception_4e/1x1-se1"

  name: "inception_4e/1x1-se1"

  type: CONVOLUTION

  blobs_lr: 1

  blobs_lr: 2

  weight_decay: 1

  weight_decay: 0

  convolution_param {

    num_output: 256

    kernel_size: 1

    weight_filler {

      type: "xavier"

      std: 0.03

    }

    bias_filler {

      type: "constant"

      value: 0.2

    }

  }

}

layers {

  bottom: "inception_4e/1x1-se1"

  top: "inception_4e/1x1-se1"

  name: "inception_4e/relu_1x1-se1"

  type: RELU

}

layers {

  bottom: "inception_4d/output-se1"

  top: "inception_4e/3x3_reduce-se1"

  name: "inception_4e/3x3_reduce-se1"

  type: CONVOLUTION

  blobs_lr: 1

  blobs_lr: 2

  weight_decay: 1

  weight_decay: 0

  convolution_param {

    num_output: 160

    kernel_size: 1

    weight_filler {

      type: "xavier"

      std: 0.09

    }

    bias_filler {

      type: "constant"

      value: 0.2

    }

  }

}

layers {

  bottom: "inception_4e/3x3_reduce-se1"

  top: "inception_4e/3x3_reduce-se1"

  name: "inception_4e/relu_3x3_reduce-se1"

  type: RELU

}

layers {

  bottom: "inception_4e/3x3_reduce-se1"

  top: "inception_4e/3x3-se1"

  name: "inception_4e/3x3-se1"

  type: CONVOLUTION

  blobs_lr: 1

  blobs_lr: 2

  weight_decay: 1

  weight_decay: 0

  convolution_param {

    num_output: 320

    pad: 1

    kernel_size: 3

    weight_filler {

      type: "xavier"

      std: 0.03

    }

    bias_filler {

      type: "constant"

      value: 0.2

    }

  }

}

layers {

  bottom: "inception_4e/3x3-se1"

  top: "inception_4e/3x3-se1"

  name: "inception_4e/relu_3x3-se1"

  type: RELU

}

layers {

  bottom: "inception_4d/output-se1"

  top: "inception_4e/5x5_reduce-se1"

  name: "inception_4e/5x5_reduce-se1"

  type: CONVOLUTION

  blobs_lr: 1

  blobs_lr: 2

  weight_decay: 1

  weight_decay: 0

  convolution_param {

    num_output: 32

    kernel_size: 1

    weight_filler {

      type: "xavier"

      std: 0.2

    }

    bias_filler {

      type: "constant"

      value: 0.2

    }

  }

}

layers {

  bottom: "inception_4e/5x5_reduce-se1"

  top: "inception_4e/5x5_reduce-se1"

  name: "inception_4e/relu_5x5_reduce-se1"

  type: RELU

}

layers {

  bottom: "inception_4e/5x5_reduce-se1"

  top: "inception_4e/5x5-se1"

  name: "inception_4e/5x5-se1"

  type: CONVOLUTION

  blobs_lr: 1

  blobs_lr: 2

  weight_decay: 1

  weight_decay: 0

  convolution_param {

    num_output: 128

    pad: 2

    kernel_size: 5

    weight_filler {

      type: "xavier"

      std: 0.03

    }

    bias_filler {

      type: "constant"

      value: 0.2

    }

  }

}

layers {

  bottom: "inception_4e/5x5-se1"

  top: "inception_4e/5x5-se1"

  name: "inception_4e/relu_5x5-se1"

  type: RELU

}

layers {

  bottom: "inception_4d/output-se1"

  top: "inception_4e/pool-se1"

  name: "inception_4e/pool-se1"

  type: POOLING

  pooling_param {

    pool: MAX

    kernel_size: 3

    stride: 1

    pad: 1

  }

}

layers {

  bottom: "inception_4e/pool-se1"

  top: "inception_4e/pool_proj-se1"

  name: "inception_4e/pool_proj-se1"

  type: CONVOLUTION

  blobs_lr: 1

  blobs_lr: 2

  weight_decay: 1

  weight_decay: 0

  convolution_param {

    num_output: 128

    kernel_size: 1

    weight_filler {

      type: "xavier"

      std: 0.1

    }

    bias_filler {

      type: "constant"

      value: 0.2

    }

  }

}

layers {

  bottom: "inception_4e/pool_proj-se1"

  top: "inception_4e/pool_proj-se1"

  name: "inception_4e/relu_pool_proj-se1"

  type: RELU

}

layers {

  bottom: "inception_4e/1x1-se1"

  bottom: "inception_4e/3x3-se1"

  bottom: "inception_4e/5x5-se1"

  bottom: "inception_4e/pool_proj-se1"

  top: "inception_4e/output-se1"

  name: "inception_4e/output-se1"

  type: CONCAT

}

layers {

  bottom: "inception_4e/output-se1"

  top: "pool4/3x3_s2-se1"

  name: "pool4/3x3_s2-se1"

  type: POOLING

  pooling_param {

    pool: MAX

    kernel_size: 3

    stride: 2

  }

}

layers {

  bottom: "pool4/3x3_s2-se1"

  top: "inception_5a/1x1-se1"

  name: "inception_5a/1x1-se1"

  type: CONVOLUTION

  blobs_lr: 1

  blobs_lr: 2

  weight_decay: 1

  weight_decay: 0

  convolution_param {

    num_output: 256

    kernel_size: 1

    weight_filler {

      type: "xavier"

      std: 0.03

    }

    bias_filler {

      type: "constant"

      value: 0.2

    }

  }

}

layers {

  bottom: "inception_5a/1x1-se1"

  top: "inception_5a/1x1-se1"

  name: "inception_5a/relu_1x1-se1"

  type: RELU

}

layers {

  bottom: "pool4/3x3_s2-se1"

  top: "inception_5a/3x3_reduce-se1"

  name: "inception_5a/3x3_reduce-se1"

  type: CONVOLUTION

  blobs_lr: 1

  blobs_lr: 2

  weight_decay: 1

  weight_decay: 0

  convolution_param {

    num_output: 160

    kernel_size: 1

    weight_filler {

      type: "xavier"

      std: 0.09

    }

    bias_filler {

      type: "constant"

      value: 0.2

    }

  }

}

layers {

  bottom: "inception_5a/3x3_reduce-se1"

  top: "inception_5a/3x3_reduce-se1"

  name: "inception_5a/relu_3x3_reduce-se1"

  type: RELU

}

layers {

  bottom: "inception_5a/3x3_reduce-se1"

  top: "inception_5a/3x3-se1"

  name: "inception_5a/3x3-se1"

  type: CONVOLUTION

  blobs_lr: 1

  blobs_lr: 2

  weight_decay: 1

  weight_decay: 0

  convolution_param {

    num_output: 320

    pad: 1

    kernel_size: 3

    weight_filler {

      type: "xavier"

      std: 0.03

    }

    bias_filler {

      type: "constant"

      value: 0.2

    }

  }

}

layers {

  bottom: "inception_5a/3x3-se1"

  top: "inception_5a/3x3-se1"

  name: "inception_5a/relu_3x3-se1"

  type: RELU

}

layers {

  bottom: "pool4/3x3_s2-se1"

  top: "inception_5a/5x5_reduce-se1"

  name: "inception_5a/5x5_reduce-se1"

  type: CONVOLUTION

  blobs_lr: 1

  blobs_lr: 2

  weight_decay: 1

  weight_decay: 0

  convolution_param {

    num_output: 32

    kernel_size: 1

    weight_filler {

      type: "xavier"

      std: 0.2

    }

    bias_filler {

      type: "constant"

      value: 0.2

    }

  }

}

layers {

  bottom: "inception_5a/5x5_reduce-se1"

  top: "inception_5a/5x5_reduce-se1"

  name: "inception_5a/relu_5x5_reduce-se1"

  type: RELU

}

layers {

  bottom: "inception_5a/5x5_reduce-se1"

  top: "inception_5a/5x5-se1"

  name: "inception_5a/5x5-se1"

  type: CONVOLUTION

  blobs_lr: 1

  blobs_lr: 2

  weight_decay: 1

  weight_decay: 0

  convolution_param {

    num_output: 128

    pad: 2

    kernel_size: 5

    weight_filler {

      type: "xavier"

      std: 0.03

    }

    bias_filler {

      type: "constant"

      value: 0.2

    }

  }

}

layers {

  bottom: "inception_5a/5x5-se1"

  top: "inception_5a/5x5-se1"

  name: "inception_5a/relu_5x5-se1"

  type: RELU

}

layers {

  bottom: "pool4/3x3_s2-se1"

  top: "inception_5a/pool-se1"

  name: "inception_5a/pool-se1"

  type: POOLING

  pooling_param {

    pool: MAX

    kernel_size: 3

    stride: 1

    pad: 1

  }

}

layers {

  bottom: "inception_5a/pool-se1"

  top: "inception_5a/pool_proj-se1"

  name: "inception_5a/pool_proj-se1"

  type: CONVOLUTION

  blobs_lr: 1

  blobs_lr: 2

  weight_decay: 1

  weight_decay: 0

  convolution_param {

    num_output: 128

    kernel_size: 1

    weight_filler {

      type: "xavier"

      std: 0.1

    }

    bias_filler {

      type: "constant"

      value: 0.2

    }

  }

}

layers {

  bottom: "inception_5a/pool_proj-se1"

  top: "inception_5a/pool_proj-se1"

  name: "inception_5a/relu_pool_proj-se1"

  type: RELU

}

layers {

  bottom: "inception_5a/1x1-se1"

  bottom: "inception_5a/3x3-se1"

  bottom: "inception_5a/5x5-se1"

  bottom: "inception_5a/pool_proj-se1"

  top: "inception_5a/output-se1"

  name: "inception_5a/output-se1"

  type: CONCAT

}

layers {

  bottom: "inception_5a/output-se1"

  top: "inception_5b/1x1-se1"

  name: "inception_5b/1x1-se1"

  type: CONVOLUTION

  blobs_lr: 1

  blobs_lr: 2

  weight_decay: 1

  weight_decay: 0

  convolution_param {

    num_output: 384

    kernel_size: 1

    weight_filler {

      type: "xavier"

      std: 0.03

    }

    bias_filler {

      type: "constant"

      value: 0.2

    }

  }

}

layers {

  bottom: "inception_5b/1x1-se1"

  top: "inception_5b/1x1-se1"

  name: "inception_5b/relu_1x1-se1"

  type: RELU

}

layers {

  bottom: "inception_5a/output-se1"

  top: "inception_5b/3x3_reduce-se1"

  name: "inception_5b/3x3_reduce-se1"

  type: CONVOLUTION

  blobs_lr: 1

  blobs_lr: 2

  weight_decay: 1

  weight_decay: 0

  convolution_param {

    num_output: 192

    kernel_size: 1

    weight_filler {

      type: "xavier"

      std: 0.09

    }

    bias_filler {

      type: "constant"

      value: 0.2

    }

  }

}

layers {

  bottom: "inception_5b/3x3_reduce-se1"

  top: "inception_5b/3x3_reduce-se1"

  name: "inception_5b/relu_3x3_reduce-se1"

  type: RELU

}

layers {

  bottom: "inception_5b/3x3_reduce-se1"

  top: "inception_5b/3x3-se1"

  name: "inception_5b/3x3-se1"

  type: CONVOLUTION

  blobs_lr: 1

  blobs_lr: 2

  weight_decay: 1

  weight_decay: 0

  convolution_param {

    num_output: 384

    pad: 1

    kernel_size: 3

    weight_filler {

      type: "xavier"

      std: 0.03

    }

    bias_filler {

      type: "constant"

      value: 0.2

    }

  }

}

layers {

  bottom: "inception_5b/3x3-se1"

  top: "inception_5b/3x3-se1"

  name: "inception_5b/relu_3x3-se1"

  type: RELU

}

layers {

  bottom: "inception_5a/output-se1"

  top: "inception_5b/5x5_reduce-se1"

  name: "inception_5b/5x5_reduce-se1"

  type: CONVOLUTION

  blobs_lr: 1

  blobs_lr: 2

  weight_decay: 1

  weight_decay: 0

  convolution_param {

    num_output: 48

    kernel_size: 1

    weight_filler {

      type: "xavier"

      std: 0.2

    }

    bias_filler {

      type: "constant"

      value: 0.2

    }

  }

}

layers {

  bottom: "inception_5b/5x5_reduce-se1"

  top: "inception_5b/5x5_reduce-se1"

  name: "inception_5b/relu_5x5_reduce-se1"

  type: RELU

}

layers {

  bottom: "inception_5b/5x5_reduce-se1"

  top: "inception_5b/5x5-se1"

  name: "inception_5b/5x5-se1"

  type: CONVOLUTION

  blobs_lr: 1

  blobs_lr: 2

  weight_decay: 1

  weight_decay: 0

  convolution_param {

    num_output: 128

    pad: 2

    kernel_size: 5

    weight_filler {

      type: "xavier"

      std: 0.03

    }

    bias_filler {

      type: "constant"

      value: 0.2

    }

  }

}

layers {

  bottom: "inception_5b/5x5-se1"

  top: "inception_5b/5x5-se1"

  name: "inception_5b/relu_5x5-se1"

  type: RELU

}

layers {

  bottom: "inception_5a/output-se1"

  top: "inception_5b/pool-se1"

  name: "inception_5b/pool-se1"

  type: POOLING

  pooling_param {

    pool: MAX

    kernel_size: 3

    stride: 1

    pad: 1

  }

}

layers {

  bottom: "inception_5b/pool-se1"

  top: "inception_5b/pool_proj-se1"

  name: "inception_5b/pool_proj-se1"

  type: CONVOLUTION

  blobs_lr: 1

  blobs_lr: 2

  weight_decay: 1

  weight_decay: 0

  convolution_param {

    num_output: 128

    kernel_size: 1

    weight_filler {

      type: "xavier"

      std: 0.1

    }

    bias_filler {

      type: "constant"

      value: 0.2

    }

  }

}

layers {

  bottom: "inception_5b/pool_proj-se1"

  top: "inception_5b/pool_proj-se1"

  name: "inception_5b/relu_pool_proj-se1"

  type: RELU

}

layers {

  bottom: "inception_5b/1x1-se1"

  bottom: "inception_5b/3x3-se1"

  bottom: "inception_5b/5x5-se1"

  bottom: "inception_5b/pool_proj-se1"

  top: "inception_5b/output-se1"

  name: "inception_5b/output-se1"

  type: CONCAT

}

layers {

  bottom: "inception_5b/output-se1"

  top: "pool5/7x7_s1-se1"

  name: "pool5/7x7_s1-se1"

  type: POOLING

  pooling_param {

    pool: AVE

    kernel_size: 7

    stride: 1

  }

}

layers {

  bottom: "pool5/7x7_s1-se1"

  top: "pool5/7x7_s1-se1"

  name: "pool5/drop_7x7_s1-se1"

  type: DROPOUT

  dropout_param {

    dropout_ratio: 0.4

  }

}

layers {

  bottom: "pool5/7x7_s1-se1"

  top: "fc8-se1"

  name: "loss3/classifier-se1"

  type: INNER_PRODUCT

  blobs_lr: 1

  blobs_lr: 2

  weight_decay: 1

  weight_decay: 0

  inner_product_param {

    num_output: 967

    weight_filler {

      type: "xavier"

    }

    bias_filler {

      type: "constant"

      value: 0

    }

  }

}









 
layers {

  bottom: "data"

  top: "conv1/7x7_s2-se2"

  name: "conv1/7x7_s2-se2"

  type: CONVOLUTION

  blobs_lr: 1

  blobs_lr: 2

  weight_decay: 1

  weight_decay: 0

  convolution_param {

    num_output: 64

    pad: 3

    kernel_size: 7

    stride: 2

    weight_filler {

      type: "xavier"

      std: 0.1

    }

    bias_filler {

      type: "constant"

      value: 0.2

    }

  }

}

layers {

  bottom: "conv1/7x7_s2-se2"

  top: "conv1/7x7_s2-se2"

  name: "conv1/relu_7x7-se2"

  type: RELU

}

layers {

  bottom: "conv1/7x7_s2-se2"

  top: "pool1/3x3_s2-se2"

  name: "pool1/3x3_s2-se2"

  type: POOLING

  pooling_param {

    pool: MAX

    kernel_size: 3

    stride: 2

  }

}

layers {

  bottom: "pool1/3x3_s2-se2"

  top: "pool1/norm1-se2"

  name: "pool1/norm1-se2"

  type: LRN

  lrn_param {

    local_size: 5

    alpha: 0.0001

    beta: 0.75

  }

}

layers {

  bottom: "pool1/norm1-se2"

  top: "conv2/3x3_reduce-se2"

  name: "conv2/3x3_reduce-se2"

  type: CONVOLUTION

  blobs_lr: 1

  blobs_lr: 2

  weight_decay: 1

  weight_decay: 0

  convolution_param {

    num_output: 64

    kernel_size: 1

    weight_filler {

      type: "xavier"

      std: 0.1

    }

    bias_filler {

      type: "constant"

      value: 0.2

    }

  }

}

layers {

  bottom: "conv2/3x3_reduce-se2"

  top: "conv2/3x3_reduce-se2"

  name: "conv2/relu_3x3_reduce-se2"

  type: RELU

}

layers {

  bottom: "conv2/3x3_reduce-se2"

  top: "conv2/3x3-se2"

  name: "conv2/3x3-se2"

  type: CONVOLUTION

  blobs_lr: 1

  blobs_lr: 2

  weight_decay: 1

  weight_decay: 0

  convolution_param {

    num_output: 192

    pad: 1

    kernel_size: 3

    weight_filler {

      type: "xavier"

      std: 0.03

    }

    bias_filler {

      type: "constant"

      value: 0.2

    }

  }

}

layers {

  bottom: "conv2/3x3-se2"

  top: "conv2/3x3-se2"

  name: "conv2/relu_3x3-se2"

  type: RELU

}

layers {

  bottom: "conv2/3x3-se2"

  top: "conv2/norm2-se2"

  name: "conv2/norm2-se2"

  type: LRN

  lrn_param {

    local_size: 5

    alpha: 0.0001

    beta: 0.75

  }

}

layers {

  bottom: "conv2/norm2-se2"

  top: "pool2/3x3_s2-se2"

  name: "pool2/3x3_s2-se2"

  type: POOLING

  pooling_param {

    pool: MAX

    kernel_size: 3

    stride: 2

  }

}

layers {

  bottom: "pool2/3x3_s2-se2"

  top: "inception_3a/1x1-se2"

  name: "inception_3a/1x1-se2"

  type: CONVOLUTION

  blobs_lr: 1

  blobs_lr: 2

  weight_decay: 1

  weight_decay: 0

  convolution_param {

    num_output: 64

    kernel_size: 1

    weight_filler {

      type: "xavier"

      std: 0.03

    }

    bias_filler {

      type: "constant"

      value: 0.2

    }

  }

}

layers {

  bottom: "inception_3a/1x1-se2"

  top: "inception_3a/1x1-se2"

  name: "inception_3a/relu_1x1-se2"

  type: RELU

}

layers {

  bottom: "pool2/3x3_s2-se2"

  top: "inception_3a/3x3_reduce-se2"

  name: "inception_3a/3x3_reduce-se2"

  type: CONVOLUTION

  blobs_lr: 1

  blobs_lr: 2

  weight_decay: 1

  weight_decay: 0

  convolution_param {

    num_output: 96

    kernel_size: 1

    weight_filler {

      type: "xavier"

      std: 0.09

    }

    bias_filler {

      type: "constant"

      value: 0.2

    }

  }

}

layers {

  bottom: "inception_3a/3x3_reduce-se2"

  top: "inception_3a/3x3_reduce-se2"

  name: "inception_3a/relu_3x3_reduce-se2"

  type: RELU

}

layers {

  bottom: "inception_3a/3x3_reduce-se2"

  top: "inception_3a/3x3-se2"

  name: "inception_3a/3x3-se2"

  type: CONVOLUTION

  blobs_lr: 1

  blobs_lr: 2

  weight_decay: 1

  weight_decay: 0

  convolution_param {

    num_output: 128

    pad: 1

    kernel_size: 3

    weight_filler {

      type: "xavier"

      std: 0.03

    }

    bias_filler {

      type: "constant"

      value: 0.2

    }

  }

}

layers {

  bottom: "inception_3a/3x3-se2"

  top: "inception_3a/3x3-se2"

  name: "inception_3a/relu_3x3-se2"

  type: RELU

}

layers {

  bottom: "pool2/3x3_s2-se2"

  top: "inception_3a/5x5_reduce-se2"

  name: "inception_3a/5x5_reduce-se2"

  type: CONVOLUTION

  blobs_lr: 1

  blobs_lr: 2

  weight_decay: 1

  weight_decay: 0

  convolution_param {

    num_output: 16

    kernel_size: 1

    weight_filler {

      type: "xavier"

      std: 0.2

    }

    bias_filler {

      type: "constant"

      value: 0.2

    }

  }

}

layers {

  bottom: "inception_3a/5x5_reduce-se2"

  top: "inception_3a/5x5_reduce-se2"

  name: "inception_3a/relu_5x5_reduce-se2"

  type: RELU

}

layers {

  bottom: "inception_3a/5x5_reduce-se2"

  top: "inception_3a/5x5-se2"

  name: "inception_3a/5x5-se2"

  type: CONVOLUTION

  blobs_lr: 1

  blobs_lr: 2

  weight_decay: 1

  weight_decay: 0

  convolution_param {

    num_output: 32

    pad: 2

    kernel_size: 5

    weight_filler {

      type: "xavier"

      std: 0.03

    }

    bias_filler {

      type: "constant"

      value: 0.2

    }

  }

}

layers {

  bottom: "inception_3a/5x5-se2"

  top: "inception_3a/5x5-se2"

  name: "inception_3a/relu_5x5-se2"

  type: RELU

}

layers {

  bottom: "pool2/3x3_s2-se2"

  top: "inception_3a/pool-se2"

  name: "inception_3a/pool-se2"

  type: POOLING

  pooling_param {

    pool: MAX

    kernel_size: 3

    stride: 1

    pad: 1

  }

}

layers {

  bottom: "inception_3a/pool-se2"

  top: "inception_3a/pool_proj-se2"

  name: "inception_3a/pool_proj-se2"

  type: CONVOLUTION

  blobs_lr: 1

  blobs_lr: 2

  weight_decay: 1

  weight_decay: 0

  convolution_param {

    num_output: 32

    kernel_size: 1

    weight_filler {

      type: "xavier"

      std: 0.1

    }

    bias_filler {

      type: "constant"

      value: 0.2

    }

  }

}

layers {

  bottom: "inception_3a/pool_proj-se2"

  top: "inception_3a/pool_proj-se2"

  name: "inception_3a/relu_pool_proj-se2"

  type: RELU

}

layers {

  bottom: "inception_3a/1x1-se2"

  bottom: "inception_3a/3x3-se2"

  bottom: "inception_3a/5x5-se2"

  bottom: "inception_3a/pool_proj-se2"

  top: "inception_3a/output-se2"

  name: "inception_3a/output-se2"

  type: CONCAT

}

layers {

  bottom: "inception_3a/output-se2"

  top: "inception_3b/1x1-se2"

  name: "inception_3b/1x1-se2"

  type: CONVOLUTION

  blobs_lr: 1

  blobs_lr: 2

  weight_decay: 1

  weight_decay: 0

  convolution_param {

    num_output: 128

    kernel_size: 1

    weight_filler {

      type: "xavier"

      std: 0.03

    }

    bias_filler {

      type: "constant"

      value: 0.2

    }

  }

}

layers {

  bottom: "inception_3b/1x1-se2"

  top: "inception_3b/1x1-se2"

  name: "inception_3b/relu_1x1-se2"

  type: RELU

}

layers {

  bottom: "inception_3a/output-se2"

  top: "inception_3b/3x3_reduce-se2"

  name: "inception_3b/3x3_reduce-se2"

  type: CONVOLUTION

  blobs_lr: 1

  blobs_lr: 2

  weight_decay: 1

  weight_decay: 0

  convolution_param {

    num_output: 128

    kernel_size: 1

    weight_filler {

      type: "xavier"

      std: 0.09

    }

    bias_filler {

      type: "constant"

      value: 0.2

    }

  }

}

layers {

  bottom: "inception_3b/3x3_reduce-se2"

  top: "inception_3b/3x3_reduce-se2"

  name: "inception_3b/relu_3x3_reduce-se2"

  type: RELU

}

layers {

  bottom: "inception_3b/3x3_reduce-se2"

  top: "inception_3b/3x3-se2"

  name: "inception_3b/3x3-se2"

  type: CONVOLUTION

  blobs_lr: 1

  blobs_lr: 2

  weight_decay: 1

  weight_decay: 0

  convolution_param {

    num_output: 192

    pad: 1

    kernel_size: 3

    weight_filler {

      type: "xavier"

      std: 0.03

    }

    bias_filler {

      type: "constant"

      value: 0.2

    }

  }

}

layers {

  bottom: "inception_3b/3x3-se2"

  top: "inception_3b/3x3-se2"

  name: "inception_3b/relu_3x3-se2"

  type: RELU

}

layers {

  bottom: "inception_3a/output-se2"

  top: "inception_3b/5x5_reduce-se2"

  name: "inception_3b/5x5_reduce-se2"

  type: CONVOLUTION

  blobs_lr: 1

  blobs_lr: 2

  weight_decay: 1

  weight_decay: 0

  convolution_param {

    num_output: 32

    kernel_size: 1

    weight_filler {

      type: "xavier"

      std: 0.2

    }

    bias_filler {

      type: "constant"

      value: 0.2

    }

  }

}

layers {

  bottom: "inception_3b/5x5_reduce-se2"

  top: "inception_3b/5x5_reduce-se2"

  name: "inception_3b/relu_5x5_reduce-se2"

  type: RELU

}

layers {

  bottom: "inception_3b/5x5_reduce-se2"

  top: "inception_3b/5x5-se2"

  name: "inception_3b/5x5-se2"

  type: CONVOLUTION

  blobs_lr: 1

  blobs_lr: 2

  weight_decay: 1

  weight_decay: 0

  convolution_param {

    num_output: 96

    pad: 2

    kernel_size: 5

    weight_filler {

      type: "xavier"

      std: 0.03

    }

    bias_filler {

      type: "constant"

      value: 0.2

    }

  }

}

layers {

  bottom: "inception_3b/5x5-se2"

  top: "inception_3b/5x5-se2"

  name: "inception_3b/relu_5x5-se2"

  type: RELU

}

layers {

  bottom: "inception_3a/output-se2"

  top: "inception_3b/pool-se2"

  name: "inception_3b/pool-se2"

  type: POOLING

  pooling_param {

    pool: MAX

    kernel_size: 3

    stride: 1

    pad: 1

  }

}

layers {

  bottom: "inception_3b/pool-se2"

  top: "inception_3b/pool_proj-se2"

  name: "inception_3b/pool_proj-se2"

  type: CONVOLUTION

  blobs_lr: 1

  blobs_lr: 2

  weight_decay: 1

  weight_decay: 0

  convolution_param {

    num_output: 64

    kernel_size: 1

    weight_filler {

      type: "xavier"

      std: 0.1

    }

    bias_filler {

      type: "constant"

      value: 0.2

    }

  }

}

layers {

  bottom: "inception_3b/pool_proj-se2"

  top: "inception_3b/pool_proj-se2"

  name: "inception_3b/relu_pool_proj-se2"

  type: RELU

}

layers {

  bottom: "inception_3b/1x1-se2"

  bottom: "inception_3b/3x3-se2"

  bottom: "inception_3b/5x5-se2"

  bottom: "inception_3b/pool_proj-se2"

  top: "inception_3b/output-se2"

  name: "inception_3b/output-se2"

  type: CONCAT

}

layers {

  bottom: "inception_3b/output-se2"

  top: "pool3/3x3_s2-se2"

  name: "pool3/3x3_s2-se2"

  type: POOLING

  pooling_param {

    pool: MAX

    kernel_size: 3

    stride: 2

  }

}

layers {

  bottom: "pool3/3x3_s2-se2"

  top: "inception_4a/1x1-se2"

  name: "inception_4a/1x1-se2"

  type: CONVOLUTION

  blobs_lr: 1

  blobs_lr: 2

  weight_decay: 1

  weight_decay: 0

  convolution_param {

    num_output: 192

    kernel_size: 1

    weight_filler {

      type: "xavier"

      std: 0.03

    }

    bias_filler {

      type: "constant"

      value: 0.2

    }

  }

}

layers {

  bottom: "inception_4a/1x1-se2"

  top: "inception_4a/1x1-se2"

  name: "inception_4a/relu_1x1-se2"

  type: RELU

}

layers {

  bottom: "pool3/3x3_s2-se2"

  top: "inception_4a/3x3_reduce-se2"

  name: "inception_4a/3x3_reduce-se2"

  type: CONVOLUTION

  blobs_lr: 1

  blobs_lr: 2

  weight_decay: 1

  weight_decay: 0

  convolution_param {

    num_output: 96

    kernel_size: 1

    weight_filler {

      type: "xavier"

      std: 0.09

    }

    bias_filler {

      type: "constant"

      value: 0.2

    }

  }

}

layers {

  bottom: "inception_4a/3x3_reduce-se2"

  top: "inception_4a/3x3_reduce-se2"

  name: "inception_4a/relu_3x3_reduce-se2"

  type: RELU

}

layers {

  bottom: "inception_4a/3x3_reduce-se2"

  top: "inception_4a/3x3-se2"

  name: "inception_4a/3x3-se2"

  type: CONVOLUTION

  blobs_lr: 1

  blobs_lr: 2

  weight_decay: 1

  weight_decay: 0

  convolution_param {

    num_output: 208

    pad: 1

    kernel_size: 3

    weight_filler {

      type: "xavier"

      std: 0.03

    }

    bias_filler {

      type: "constant"

      value: 0.2

    }

  }

}

layers {

  bottom: "inception_4a/3x3-se2"

  top: "inception_4a/3x3-se2"

  name: "inception_4a/relu_3x3-se2"

  type: RELU

}

layers {

  bottom: "pool3/3x3_s2-se2"

  top: "inception_4a/5x5_reduce-se2"

  name: "inception_4a/5x5_reduce-se2"

  type: CONVOLUTION

  blobs_lr: 1

  blobs_lr: 2

  weight_decay: 1

  weight_decay: 0

  convolution_param {

    num_output: 16

    kernel_size: 1

    weight_filler {

      type: "xavier"

      std: 0.2

    }

    bias_filler {

      type: "constant"

      value: 0.2

    }

  }

}

layers {

  bottom: "inception_4a/5x5_reduce-se2"

  top: "inception_4a/5x5_reduce-se2"

  name: "inception_4a/relu_5x5_reduce-se2"

  type: RELU

}

layers {

  bottom: "inception_4a/5x5_reduce-se2"

  top: "inception_4a/5x5-se2"

  name: "inception_4a/5x5-se2"

  type: CONVOLUTION

  blobs_lr: 1

  blobs_lr: 2

  weight_decay: 1

  weight_decay: 0

  convolution_param {

    num_output: 48

    pad: 2

    kernel_size: 5

    weight_filler {

      type: "xavier"

      std: 0.03

    }

    bias_filler {

      type: "constant"

      value: 0.2

    }

  }

}

layers {

  bottom: "inception_4a/5x5-se2"

  top: "inception_4a/5x5-se2"

  name: "inception_4a/relu_5x5-se2"

  type: RELU

}

layers {

  bottom: "pool3/3x3_s2-se2"

  top: "inception_4a/pool-se2"

  name: "inception_4a/pool-se2"

  type: POOLING

  pooling_param {

    pool: MAX

    kernel_size: 3

    stride: 1

    pad: 1

  }

}

layers {

  bottom: "inception_4a/pool-se2"

  top: "inception_4a/pool_proj-se2"

  name: "inception_4a/pool_proj-se2"

  type: CONVOLUTION

  blobs_lr: 1

  blobs_lr: 2

  weight_decay: 1

  weight_decay: 0

  convolution_param {

    num_output: 64

    kernel_size: 1

    weight_filler {

      type: "xavier"

      std: 0.1

    }

    bias_filler {

      type: "constant"

      value: 0.2

    }

  }

}

layers {

  bottom: "inception_4a/pool_proj-se2"

  top: "inception_4a/pool_proj-se2"

  name: "inception_4a/relu_pool_proj-se2"

  type: RELU

}

layers {

  bottom: "inception_4a/1x1-se2"

  bottom: "inception_4a/3x3-se2"

  bottom: "inception_4a/5x5-se2"

  bottom: "inception_4a/pool_proj-se2"

  top: "inception_4a/output-se2"

  name: "inception_4a/output-se2"

  type: CONCAT

}

layers {

  bottom: "inception_4a/output-se2"

  top: "loss1/ave_pool-se2"

  name: "loss1/ave_pool-se2"

  type: POOLING

  pooling_param {

    pool: AVE

    kernel_size: 5

    stride: 3

  }

}

layers {

  bottom: "loss1/ave_pool-se2"

  top: "loss1/conv-se2"

  name: "loss1/conv-se2"

  type: CONVOLUTION

  blobs_lr: 1

  blobs_lr: 2

  weight_decay: 1

  weight_decay: 0

  convolution_param {

    num_output: 128

    kernel_size: 1

    weight_filler {

      type: "xavier"

      std: 0.08

    }

    bias_filler {

      type: "constant"

      value: 0.2

    }

  }

}

layers {

  bottom: "loss1/conv-se2"

  top: "loss1/conv-se2"

  name: "loss1/relu_conv-se2"

  type: RELU

}

layers {

  bottom: "loss1/conv-se2"

  top: "loss1/fc-se2"

  name: "loss1/fc-se2"

  type: INNER_PRODUCT

  blobs_lr: 1

  blobs_lr: 2

  weight_decay: 1

  weight_decay: 0

  inner_product_param {

    num_output: 1024

    weight_filler {

      type: "xavier"

      std: 0.02

    }

    bias_filler {

      type: "constant"

      value: 0.2

    }

  }

}

layers {

  bottom: "loss1/fc-se2"

  top: "loss1/fc-se2"

  name: "loss1/relu_fc-se2"

  type: RELU

}

layers {

  bottom: "loss1/fc-se2"

  top: "loss1/fc-se2"

  name: "loss1/drop_fc-se2"

  type: DROPOUT

  dropout_param {

    dropout_ratio: 0.7

  }

}

layers {

  bottom: "loss1/fc-se2"

  top: "fc-1-se2"

  name: "loss1/classifier-se2"

  type: INNER_PRODUCT

  blobs_lr: 1

  blobs_lr: 2

  weight_decay: 1

  weight_decay: 0

  inner_product_param {

    num_output: 967

    weight_filler {

      type: "xavier"

      std: 0.0009765625

    }

    bias_filler { 

      type: "constant"

      value: 0

    }

  }

}



layers {

  bottom: "inception_4a/output-se2"

  top: "inception_4b/1x1-se2"

  name: "inception_4b/1x1-se2"

  type: CONVOLUTION

  blobs_lr: 1

  blobs_lr: 2

  weight_decay: 1

  weight_decay: 0

  convolution_param {

    num_output: 160

    kernel_size: 1

    weight_filler {

      type: "xavier"

      std: 0.03

    }

    bias_filler {

      type: "constant"

      value: 0.2

    }

  }

}

layers {

  bottom: "inception_4b/1x1-se2"

  top: "inception_4b/1x1-se2"

  name: "inception_4b/relu_1x1-se2"

  type: RELU

}

layers {

  bottom: "inception_4a/output-se2"

  top: "inception_4b/3x3_reduce-se2"

  name: "inception_4b/3x3_reduce-se2"

  type: CONVOLUTION

  blobs_lr: 1

  blobs_lr: 2

  weight_decay: 1

  weight_decay: 0

  convolution_param {

    num_output: 112

    kernel_size: 1

    weight_filler {

      type: "xavier"

      std: 0.09

    }

    bias_filler {

      type: "constant"

      value: 0.2

    }

  }

}

layers {

  bottom: "inception_4b/3x3_reduce-se2"

  top: "inception_4b/3x3_reduce-se2"

  name: "inception_4b/relu_3x3_reduce-se2"

  type: RELU

}

layers {

  bottom: "inception_4b/3x3_reduce-se2"

  top: "inception_4b/3x3-se2"

  name: "inception_4b/3x3-se2"

  type: CONVOLUTION

  blobs_lr: 1

  blobs_lr: 2

  weight_decay: 1

  weight_decay: 0

  convolution_param {

    num_output: 224

    pad: 1

    kernel_size: 3

    weight_filler {

      type: "xavier"

      std: 0.03

    }

    bias_filler {

      type: "constant"

      value: 0.2

    }

  }

}

layers {

  bottom: "inception_4b/3x3-se2"

  top: "inception_4b/3x3-se2"

  name: "inception_4b/relu_3x3-se2"

  type: RELU

}

layers {

  bottom: "inception_4a/output-se2"

  top: "inception_4b/5x5_reduce-se2"

  name: "inception_4b/5x5_reduce-se2"

  type: CONVOLUTION

  blobs_lr: 1

  blobs_lr: 2

  weight_decay: 1

  weight_decay: 0

  convolution_param {

    num_output: 24

    kernel_size: 1

    weight_filler {

      type: "xavier"

      std: 0.2

    }

    bias_filler {

      type: "constant"

      value: 0.2

    }

  }

}

layers {

  bottom: "inception_4b/5x5_reduce-se2"

  top: "inception_4b/5x5_reduce-se2"

  name: "inception_4b/relu_5x5_reduce-se2"

  type: RELU

}

layers {

  bottom: "inception_4b/5x5_reduce-se2"

  top: "inception_4b/5x5-se2"

  name: "inception_4b/5x5-se2"

  type: CONVOLUTION

  blobs_lr: 1

  blobs_lr: 2

  weight_decay: 1

  weight_decay: 0

  convolution_param {

    num_output: 64

    pad: 2

    kernel_size: 5

    weight_filler {

      type: "xavier"

      std: 0.03

    }

    bias_filler {

      type: "constant"

      value: 0.2

    }

  }

}

layers {

  bottom: "inception_4b/5x5-se2"

  top: "inception_4b/5x5-se2"

  name: "inception_4b/relu_5x5-se2"

  type: RELU

}

layers {

  bottom: "inception_4a/output-se2"

  top: "inception_4b/pool-se2"

  name: "inception_4b/pool-se2"

  type: POOLING

  pooling_param {

    pool: MAX

    kernel_size: 3

    stride: 1

    pad: 1

  }

}

layers {

  bottom: "inception_4b/pool-se2"

  top: "inception_4b/pool_proj-se2"

  name: "inception_4b/pool_proj-se2"

  type: CONVOLUTION

  blobs_lr: 1

  blobs_lr: 2

  weight_decay: 1

  weight_decay: 0

  convolution_param {

    num_output: 64

    kernel_size: 1

    weight_filler {

      type: "xavier"

      std: 0.1

    }

    bias_filler {

      type: "constant"

      value: 0.2

    }

  }

}

layers {

  bottom: "inception_4b/pool_proj-se2"

  top: "inception_4b/pool_proj-se2"

  name: "inception_4b/relu_pool_proj-se2"

  type: RELU

}

layers {

  bottom: "inception_4b/1x1-se2"

  bottom: "inception_4b/3x3-se2"

  bottom: "inception_4b/5x5-se2"

  bottom: "inception_4b/pool_proj-se2"

  top: "inception_4b/output-se2"

  name: "inception_4b/output-se2"

  type: CONCAT

}

layers {

  bottom: "inception_4b/output-se2"

  top: "inception_4c/1x1-se2"

  name: "inception_4c/1x1-se2"

  type: CONVOLUTION

  blobs_lr: 1

  blobs_lr: 2

  weight_decay: 1

  weight_decay: 0

  convolution_param {

    num_output: 128

    kernel_size: 1

    weight_filler {

      type: "xavier"

      std: 0.03

    }

    bias_filler {

      type: "constant"

      value: 0.2

    }

  }

}

layers {

  bottom: "inception_4c/1x1-se2"

  top: "inception_4c/1x1-se2"

  name: "inception_4c/relu_1x1-se2"

  type: RELU

}

layers {

  bottom: "inception_4b/output-se2"

  top: "inception_4c/3x3_reduce-se2"

  name: "inception_4c/3x3_reduce-se2"

  type: CONVOLUTION

  blobs_lr: 1

  blobs_lr: 2

  weight_decay: 1

  weight_decay: 0

  convolution_param {

    num_output: 128

    kernel_size: 1

    weight_filler {

      type: "xavier"

      std: 0.09

    }

    bias_filler {

      type: "constant"

      value: 0.2

    }

  }

}

layers {

  bottom: "inception_4c/3x3_reduce-se2"

  top: "inception_4c/3x3_reduce-se2"

  name: "inception_4c/relu_3x3_reduce-se2"

  type: RELU

}

layers {

  bottom: "inception_4c/3x3_reduce-se2"

  top: "inception_4c/3x3-se2"

  name: "inception_4c/3x3-se2"

  type: CONVOLUTION

  blobs_lr: 1

  blobs_lr: 2

  weight_decay: 1

  weight_decay: 0

  convolution_param {

    num_output: 256

    pad: 1

    kernel_size: 3

    weight_filler {

      type: "xavier"

      std: 0.03

    }

    bias_filler {

      type: "constant"

      value: 0.2

    }

  }

}

layers {

  bottom: "inception_4c/3x3-se2"

  top: "inception_4c/3x3-se2"

  name: "inception_4c/relu_3x3-se2"

  type: RELU

}

layers {

  bottom: "inception_4b/output-se2"

  top: "inception_4c/5x5_reduce-se2"

  name: "inception_4c/5x5_reduce-se2"

  type: CONVOLUTION

  blobs_lr: 1

  blobs_lr: 2

  weight_decay: 1

  weight_decay: 0

  convolution_param {

    num_output: 24

    kernel_size: 1

    weight_filler {

      type: "xavier"

      std: 0.2

    }

    bias_filler {

      type: "constant"

      value: 0.2

    }

  }

}

layers {

  bottom: "inception_4c/5x5_reduce-se2"

  top: "inception_4c/5x5_reduce-se2"

  name: "inception_4c/relu_5x5_reduce-se2"

  type: RELU

}

layers {

  bottom: "inception_4c/5x5_reduce-se2"

  top: "inception_4c/5x5-se2"

  name: "inception_4c/5x5-se2"

  type: CONVOLUTION

  blobs_lr: 1

  blobs_lr: 2

  weight_decay: 1

  weight_decay: 0

  convolution_param {

    num_output: 64

    pad: 2

    kernel_size: 5

    weight_filler {

      type: "xavier"

      std: 0.03

    }

    bias_filler {

      type: "constant"

      value: 0.2

    }

  }

}

layers {

  bottom: "inception_4c/5x5-se2"

  top: "inception_4c/5x5-se2"

  name: "inception_4c/relu_5x5-se2"

  type: RELU

}

layers {

  bottom: "inception_4b/output-se2"

  top: "inception_4c/pool-se2"

  name: "inception_4c/pool-se2"

  type: POOLING

  pooling_param {

    pool: MAX

    kernel_size: 3

    stride: 1

    pad: 1

  }

}

layers {

  bottom: "inception_4c/pool-se2"

  top: "inception_4c/pool_proj-se2"

  name: "inception_4c/pool_proj-se2"

  type: CONVOLUTION

  blobs_lr: 1

  blobs_lr: 2

  weight_decay: 1

  weight_decay: 0

  convolution_param {

    num_output: 64

    kernel_size: 1

    weight_filler {

      type: "xavier"

      std: 0.1

    }

    bias_filler {

      type: "constant"

      value: 0.2

    }

  }

}

layers {

  bottom: "inception_4c/pool_proj-se2"

  top: "inception_4c/pool_proj-se2"

  name: "inception_4c/relu_pool_proj-se2"

  type: RELU

}

layers {

  bottom: "inception_4c/1x1-se2"

  bottom: "inception_4c/3x3-se2"

  bottom: "inception_4c/5x5-se2"

  bottom: "inception_4c/pool_proj-se2"

  top: "inception_4c/output-se2"

  name: "inception_4c/output-se2"

  type: CONCAT

}

layers {

  bottom: "inception_4c/output-se2"

  top: "inception_4d/1x1-se2"

  name: "inception_4d/1x1-se2"

  type: CONVOLUTION

  blobs_lr: 1

  blobs_lr: 2

  weight_decay: 1

  weight_decay: 0

  convolution_param {

    num_output: 112

    kernel_size: 1

    weight_filler {

      type: "xavier"

      std: 0.03

    }

    bias_filler {

      type: "constant"

      value: 0.2

    }

  }

}

layers {

  bottom: "inception_4d/1x1-se2"

  top: "inception_4d/1x1-se2"

  name: "inception_4d/relu_1x1-se2"

  type: RELU

}

layers {

  bottom: "inception_4c/output-se2"

  top: "inception_4d/3x3_reduce-se2"

  name: "inception_4d/3x3_reduce-se2"

  type: CONVOLUTION

  blobs_lr: 1

  blobs_lr: 2

  weight_decay: 1

  weight_decay: 0

  convolution_param {

    num_output: 144

    kernel_size: 1

    weight_filler {

      type: "xavier"

      std: 0.09

    }

    bias_filler {

      type: "constant"

      value: 0.2

    }

  }

}

layers {

  bottom: "inception_4d/3x3_reduce-se2"

  top: "inception_4d/3x3_reduce-se2"

  name: "inception_4d/relu_3x3_reduce-se2"

  type: RELU

}

layers {

  bottom: "inception_4d/3x3_reduce-se2"

  top: "inception_4d/3x3-se2"

  name: "inception_4d/3x3-se2"

  type: CONVOLUTION

  blobs_lr: 1

  blobs_lr: 2

  weight_decay: 1

  weight_decay: 0

  convolution_param {

    num_output: 288

    pad: 1

    kernel_size: 3

    weight_filler {

      type: "xavier"

      std: 0.03

    }

    bias_filler {

      type: "constant"

      value: 0.2

    }

  }

}

layers {

  bottom: "inception_4d/3x3-se2"

  top: "inception_4d/3x3-se2"

  name: "inception_4d/relu_3x3-se2"

  type: RELU

}

layers {

  bottom: "inception_4c/output-se2"

  top: "inception_4d/5x5_reduce-se2"

  name: "inception_4d/5x5_reduce-se2"

  type: CONVOLUTION

  blobs_lr: 1

  blobs_lr: 2

  weight_decay: 1

  weight_decay: 0

  convolution_param {

    num_output: 32

    kernel_size: 1

    weight_filler {

      type: "xavier"

      std: 0.2

    }

    bias_filler {

      type: "constant"

      value: 0.2

    }

  }

}

layers {

  bottom: "inception_4d/5x5_reduce-se2"

  top: "inception_4d/5x5_reduce-se2"

  name: "inception_4d/relu_5x5_reduce-se2"

  type: RELU

}

layers {

  bottom: "inception_4d/5x5_reduce-se2"

  top: "inception_4d/5x5-se2"

  name: "inception_4d/5x5-se2"

  type: CONVOLUTION

  blobs_lr: 1

  blobs_lr: 2

  weight_decay: 1

  weight_decay: 0

  convolution_param {

    num_output: 64

    pad: 2

    kernel_size: 5

    weight_filler {

      type: "xavier"

      std: 0.03

    }

    bias_filler {

      type: "constant"

      value: 0.2

    }

  }

}

layers {

  bottom: "inception_4d/5x5-se2"

  top: "inception_4d/5x5-se2"

  name: "inception_4d/relu_5x5-se2"

  type: RELU

}

layers {

  bottom: "inception_4c/output-se2"

  top: "inception_4d/pool-se2"

  name: "inception_4d/pool-se2"

  type: POOLING

  pooling_param {

    pool: MAX

    kernel_size: 3

    stride: 1

    pad: 1

  }

}

layers {

  bottom: "inception_4d/pool-se2"

  top: "inception_4d/pool_proj-se2"

  name: "inception_4d/pool_proj-se2"

  type: CONVOLUTION

  blobs_lr: 1

  blobs_lr: 2

  weight_decay: 1

  weight_decay: 0

  convolution_param {

    num_output: 64

    kernel_size: 1

    weight_filler {

      type: "xavier"

      std: 0.1

    }

    bias_filler {

      type: "constant"

      value: 0.2

    }

  }

}

layers {

  bottom: "inception_4d/pool_proj-se2"

  top: "inception_4d/pool_proj-se2"

  name: "inception_4d/relu_pool_proj-se2"

  type: RELU

}

layers {

  bottom: "inception_4d/1x1-se2"

  bottom: "inception_4d/3x3-se2"

  bottom: "inception_4d/5x5-se2"

  bottom: "inception_4d/pool_proj-se2"

  top: "inception_4d/output-se2"

  name: "inception_4d/output-se2"

  type: CONCAT

}



layers {

  bottom: "inception_4d/output-se2"

  top: "loss2/ave_pool-se2"

  name: "loss2/ave_pool-se2"

  type: POOLING

  pooling_param {

    pool: AVE

    kernel_size: 5

    stride: 3

  }

}

layers {

  bottom: "loss2/ave_pool-se2"

  top: "loss2/conv-se2"

  name: "loss2/conv-se2"

  type: CONVOLUTION

  blobs_lr: 1

  blobs_lr: 2

  weight_decay: 1

  weight_decay: 0

  convolution_param {

    num_output: 128

    kernel_size: 1

    weight_filler {

      type: "xavier"

      std: 0.08

    }

    bias_filler {

      type: "constant"

      value: 0.2

    }

  }

}

layers {

  bottom: "loss2/conv-se2"

  top: "loss2/conv-se2"

  name: "loss2/relu_conv-se2"

  type: RELU

}

layers {

  bottom: "loss2/conv-se2"

  top: "loss2/fc-se2"

  name: "loss2/fc-se2"

  type: INNER_PRODUCT

  blobs_lr: 1

  blobs_lr: 2

  weight_decay: 1

  weight_decay: 0

  inner_product_param {

    num_output: 1024

    weight_filler {

      type: "xavier"

      std: 0.02

    }

    bias_filler {

      type: "constant"

      value: 0.2

    }

  }

}

layers {

  bottom: "loss2/fc-se2"

  top: "loss2/fc-se2"

  name: "loss2/relu_fc-se2"

  type: RELU

}

layers {

  bottom: "loss2/fc-se2"

  top: "loss2/fc-se2"

  name: "loss2/drop_fc-se2"

  type: DROPOUT

  dropout_param {

    dropout_ratio: 0.7

  }

}

layers {

  bottom: "loss2/fc-se2"

  top: "fc-2-se2"

  name: "loss2/classifier-se2"

  type: INNER_PRODUCT

  blobs_lr: 1

  blobs_lr: 2

  weight_decay: 1

  weight_decay: 0

  inner_product_param {

    num_output: 967

    weight_filler {

      type: "xavier"

      std: 0.0009765625

    }

    bias_filler {

      type: "constant"

      value: 0

    }

  }

}



layers {

  bottom: "inception_4d/output-se2"

  top: "inception_4e/1x1-se2"

  name: "inception_4e/1x1-se2"

  type: CONVOLUTION

  blobs_lr: 1

  blobs_lr: 2

  weight_decay: 1

  weight_decay: 0

  convolution_param {

    num_output: 256

    kernel_size: 1

    weight_filler {

      type: "xavier"

      std: 0.03

    }

    bias_filler {

      type: "constant"

      value: 0.2

    }

  }

}

layers {

  bottom: "inception_4e/1x1-se2"

  top: "inception_4e/1x1-se2"

  name: "inception_4e/relu_1x1-se2"

  type: RELU

}

layers {

  bottom: "inception_4d/output-se2"

  top: "inception_4e/3x3_reduce-se2"

  name: "inception_4e/3x3_reduce-se2"

  type: CONVOLUTION

  blobs_lr: 1

  blobs_lr: 2

  weight_decay: 1

  weight_decay: 0

  convolution_param {

    num_output: 160

    kernel_size: 1

    weight_filler {

      type: "xavier"

      std: 0.09

    }

    bias_filler {

      type: "constant"

      value: 0.2

    }

  }

}

layers {

  bottom: "inception_4e/3x3_reduce-se2"

  top: "inception_4e/3x3_reduce-se2"

  name: "inception_4e/relu_3x3_reduce-se2"

  type: RELU

}

layers {

  bottom: "inception_4e/3x3_reduce-se2"

  top: "inception_4e/3x3-se2"

  name: "inception_4e/3x3-se2"

  type: CONVOLUTION

  blobs_lr: 1

  blobs_lr: 2

  weight_decay: 1

  weight_decay: 0

  convolution_param {

    num_output: 320

    pad: 1

    kernel_size: 3

    weight_filler {

      type: "xavier"

      std: 0.03

    }

    bias_filler {

      type: "constant"

      value: 0.2

    }

  }

}

layers {

  bottom: "inception_4e/3x3-se2"

  top: "inception_4e/3x3-se2"

  name: "inception_4e/relu_3x3-se2"

  type: RELU

}

layers {

  bottom: "inception_4d/output-se2"

  top: "inception_4e/5x5_reduce-se2"

  name: "inception_4e/5x5_reduce-se2"

  type: CONVOLUTION

  blobs_lr: 1

  blobs_lr: 2

  weight_decay: 1

  weight_decay: 0

  convolution_param {

    num_output: 32

    kernel_size: 1

    weight_filler {

      type: "xavier"

      std: 0.2

    }

    bias_filler {

      type: "constant"

      value: 0.2

    }

  }

}

layers {

  bottom: "inception_4e/5x5_reduce-se2"

  top: "inception_4e/5x5_reduce-se2"

  name: "inception_4e/relu_5x5_reduce-se2"

  type: RELU

}

layers {

  bottom: "inception_4e/5x5_reduce-se2"

  top: "inception_4e/5x5-se2"

  name: "inception_4e/5x5-se2"

  type: CONVOLUTION

  blobs_lr: 1

  blobs_lr: 2

  weight_decay: 1

  weight_decay: 0

  convolution_param {

    num_output: 128

    pad: 2

    kernel_size: 5

    weight_filler {

      type: "xavier"

      std: 0.03

    }

    bias_filler {

      type: "constant"

      value: 0.2

    }

  }

}

layers {

  bottom: "inception_4e/5x5-se2"

  top: "inception_4e/5x5-se2"

  name: "inception_4e/relu_5x5-se2"

  type: RELU

}

layers {

  bottom: "inception_4d/output-se2"

  top: "inception_4e/pool-se2"

  name: "inception_4e/pool-se2"

  type: POOLING

  pooling_param {

    pool: MAX

    kernel_size: 3

    stride: 1

    pad: 1

  }

}

layers {

  bottom: "inception_4e/pool-se2"

  top: "inception_4e/pool_proj-se2"

  name: "inception_4e/pool_proj-se2"

  type: CONVOLUTION

  blobs_lr: 1

  blobs_lr: 2

  weight_decay: 1

  weight_decay: 0

  convolution_param {

    num_output: 128

    kernel_size: 1

    weight_filler {

      type: "xavier"

      std: 0.1

    }

    bias_filler {

      type: "constant"

      value: 0.2

    }

  }

}

layers {

  bottom: "inception_4e/pool_proj-se2"

  top: "inception_4e/pool_proj-se2"

  name: "inception_4e/relu_pool_proj-se2"

  type: RELU

}

layers {

  bottom: "inception_4e/1x1-se2"

  bottom: "inception_4e/3x3-se2"

  bottom: "inception_4e/5x5-se2"

  bottom: "inception_4e/pool_proj-se2"

  top: "inception_4e/output-se2"

  name: "inception_4e/output-se2"

  type: CONCAT

}

layers {

  bottom: "inception_4e/output-se2"

  top: "pool4/3x3_s2-se2"

  name: "pool4/3x3_s2-se2"

  type: POOLING

  pooling_param {

    pool: MAX

    kernel_size: 3

    stride: 2

  }

}

layers {

  bottom: "pool4/3x3_s2-se2"

  top: "inception_5a/1x1-se2"

  name: "inception_5a/1x1-se2"

  type: CONVOLUTION

  blobs_lr: 1

  blobs_lr: 2

  weight_decay: 1

  weight_decay: 0

  convolution_param {

    num_output: 256

    kernel_size: 1

    weight_filler {

      type: "xavier"

      std: 0.03

    }

    bias_filler {

      type: "constant"

      value: 0.2

    }

  }

}

layers {

  bottom: "inception_5a/1x1-se2"

  top: "inception_5a/1x1-se2"

  name: "inception_5a/relu_1x1-se2"

  type: RELU

}

layers {

  bottom: "pool4/3x3_s2-se2"

  top: "inception_5a/3x3_reduce-se2"

  name: "inception_5a/3x3_reduce-se2"

  type: CONVOLUTION

  blobs_lr: 1

  blobs_lr: 2

  weight_decay: 1

  weight_decay: 0

  convolution_param {

    num_output: 160

    kernel_size: 1

    weight_filler {

      type: "xavier"

      std: 0.09

    }

    bias_filler {

      type: "constant"

      value: 0.2

    }

  }

}

layers {

  bottom: "inception_5a/3x3_reduce-se2"

  top: "inception_5a/3x3_reduce-se2"

  name: "inception_5a/relu_3x3_reduce-se2"

  type: RELU

}

layers {

  bottom: "inception_5a/3x3_reduce-se2"

  top: "inception_5a/3x3-se2"

  name: "inception_5a/3x3-se2"

  type: CONVOLUTION

  blobs_lr: 1

  blobs_lr: 2

  weight_decay: 1

  weight_decay: 0

  convolution_param {

    num_output: 320

    pad: 1

    kernel_size: 3

    weight_filler {

      type: "xavier"

      std: 0.03

    }

    bias_filler {

      type: "constant"

      value: 0.2

    }

  }

}

layers {

  bottom: "inception_5a/3x3-se2"

  top: "inception_5a/3x3-se2"

  name: "inception_5a/relu_3x3-se2"

  type: RELU

}

layers {

  bottom: "pool4/3x3_s2-se2"

  top: "inception_5a/5x5_reduce-se2"

  name: "inception_5a/5x5_reduce-se2"

  type: CONVOLUTION

  blobs_lr: 1

  blobs_lr: 2

  weight_decay: 1

  weight_decay: 0

  convolution_param {

    num_output: 32

    kernel_size: 1

    weight_filler {

      type: "xavier"

      std: 0.2

    }

    bias_filler {

      type: "constant"

      value: 0.2

    }

  }

}

layers {

  bottom: "inception_5a/5x5_reduce-se2"

  top: "inception_5a/5x5_reduce-se2"

  name: "inception_5a/relu_5x5_reduce-se2"

  type: RELU

}

layers {

  bottom: "inception_5a/5x5_reduce-se2"

  top: "inception_5a/5x5-se2"

  name: "inception_5a/5x5-se2"

  type: CONVOLUTION

  blobs_lr: 1

  blobs_lr: 2

  weight_decay: 1

  weight_decay: 0

  convolution_param {

    num_output: 128

    pad: 2

    kernel_size: 5

    weight_filler {

      type: "xavier"

      std: 0.03

    }

    bias_filler {

      type: "constant"

      value: 0.2

    }

  }

}

layers {

  bottom: "inception_5a/5x5-se2"

  top: "inception_5a/5x5-se2"

  name: "inception_5a/relu_5x5-se2"

  type: RELU

}

layers {

  bottom: "pool4/3x3_s2-se2"

  top: "inception_5a/pool-se2"

  name: "inception_5a/pool-se2"

  type: POOLING

  pooling_param {

    pool: MAX

    kernel_size: 3

    stride: 1

    pad: 1

  }

}

layers {

  bottom: "inception_5a/pool-se2"

  top: "inception_5a/pool_proj-se2"

  name: "inception_5a/pool_proj-se2"

  type: CONVOLUTION

  blobs_lr: 1

  blobs_lr: 2

  weight_decay: 1

  weight_decay: 0

  convolution_param {

    num_output: 128

    kernel_size: 1

    weight_filler {

      type: "xavier"

      std: 0.1

    }

    bias_filler {

      type: "constant"

      value: 0.2

    }

  }

}

layers {

  bottom: "inception_5a/pool_proj-se2"

  top: "inception_5a/pool_proj-se2"

  name: "inception_5a/relu_pool_proj-se2"

  type: RELU

}

layers {

  bottom: "inception_5a/1x1-se2"

  bottom: "inception_5a/3x3-se2"

  bottom: "inception_5a/5x5-se2"

  bottom: "inception_5a/pool_proj-se2"

  top: "inception_5a/output-se2"

  name: "inception_5a/output-se2"

  type: CONCAT

}

layers {

  bottom: "inception_5a/output-se2"

  top: "inception_5b/1x1-se2"

  name: "inception_5b/1x1-se2"

  type: CONVOLUTION

  blobs_lr: 1

  blobs_lr: 2

  weight_decay: 1

  weight_decay: 0

  convolution_param {

    num_output: 384

    kernel_size: 1

    weight_filler {

      type: "xavier"

      std: 0.03

    }

    bias_filler {

      type: "constant"

      value: 0.2

    }

  }

}

layers {

  bottom: "inception_5b/1x1-se2"

  top: "inception_5b/1x1-se2"

  name: "inception_5b/relu_1x1-se2"

  type: RELU

}

layers {

  bottom: "inception_5a/output-se2"

  top: "inception_5b/3x3_reduce-se2"

  name: "inception_5b/3x3_reduce-se2"

  type: CONVOLUTION

  blobs_lr: 1

  blobs_lr: 2

  weight_decay: 1

  weight_decay: 0

  convolution_param {

    num_output: 192

    kernel_size: 1

    weight_filler {

      type: "xavier"

      std: 0.09

    }

    bias_filler {

      type: "constant"

      value: 0.2

    }

  }

}

layers {

  bottom: "inception_5b/3x3_reduce-se2"

  top: "inception_5b/3x3_reduce-se2"

  name: "inception_5b/relu_3x3_reduce-se2"

  type: RELU

}

layers {

  bottom: "inception_5b/3x3_reduce-se2"

  top: "inception_5b/3x3-se2"

  name: "inception_5b/3x3-se2"

  type: CONVOLUTION

  blobs_lr: 1

  blobs_lr: 2

  weight_decay: 1

  weight_decay: 0

  convolution_param {

    num_output: 384

    pad: 1

    kernel_size: 3

    weight_filler {

      type: "xavier"

      std: 0.03

    }

    bias_filler {

      type: "constant"

      value: 0.2

    }

  }

}

layers {

  bottom: "inception_5b/3x3-se2"

  top: "inception_5b/3x3-se2"

  name: "inception_5b/relu_3x3-se2"

  type: RELU

}

layers {

  bottom: "inception_5a/output-se2"

  top: "inception_5b/5x5_reduce-se2"

  name: "inception_5b/5x5_reduce-se2"

  type: CONVOLUTION

  blobs_lr: 1

  blobs_lr: 2

  weight_decay: 1

  weight_decay: 0

  convolution_param {

    num_output: 48

    kernel_size: 1

    weight_filler {

      type: "xavier"

      std: 0.2

    }

    bias_filler {

      type: "constant"

      value: 0.2

    }

  }

}

layers {

  bottom: "inception_5b/5x5_reduce-se2"

  top: "inception_5b/5x5_reduce-se2"

  name: "inception_5b/relu_5x5_reduce-se2"

  type: RELU

}

layers {

  bottom: "inception_5b/5x5_reduce-se2"

  top: "inception_5b/5x5-se2"

  name: "inception_5b/5x5-se2"

  type: CONVOLUTION

  blobs_lr: 1

  blobs_lr: 2

  weight_decay: 1

  weight_decay: 0

  convolution_param {

    num_output: 128

    pad: 2

    kernel_size: 5

    weight_filler {

      type: "xavier"

      std: 0.03

    }

    bias_filler {

      type: "constant"

      value: 0.2

    }

  }

}

layers {

  bottom: "inception_5b/5x5-se2"

  top: "inception_5b/5x5-se2"

  name: "inception_5b/relu_5x5-se2"

  type: RELU

}

layers {

  bottom: "inception_5a/output-se2"

  top: "inception_5b/pool-se2"

  name: "inception_5b/pool-se2"

  type: POOLING

  pooling_param {

    pool: MAX

    kernel_size: 3

    stride: 1

    pad: 1

  }

}

layers {

  bottom: "inception_5b/pool-se2"

  top: "inception_5b/pool_proj-se2"

  name: "inception_5b/pool_proj-se2"

  type: CONVOLUTION

  blobs_lr: 1

  blobs_lr: 2

  weight_decay: 1

  weight_decay: 0

  convolution_param {

    num_output: 128

    kernel_size: 1

    weight_filler {

      type: "xavier"

      std: 0.1

    }

    bias_filler {

      type: "constant"

      value: 0.2

    }

  }

}

layers {

  bottom: "inception_5b/pool_proj-se2"

  top: "inception_5b/pool_proj-se2"

  name: "inception_5b/relu_pool_proj-se2"

  type: RELU

}

layers {

  bottom: "inception_5b/1x1-se2"

  bottom: "inception_5b/3x3-se2"

  bottom: "inception_5b/5x5-se2"

  bottom: "inception_5b/pool_proj-se2"

  top: "inception_5b/output-se2"

  name: "inception_5b/output-se2"

  type: CONCAT

}

layers {

  bottom: "inception_5b/output-se2"

  top: "pool5/7x7_s1-se2"

  name: "pool5/7x7_s1-se2"

  type: POOLING

  pooling_param {

    pool: AVE

    kernel_size: 7

    stride: 1

  }

}

layers {

  bottom: "pool5/7x7_s1-se2"

  top: "pool5/7x7_s1-se2"

  name: "pool5/drop_7x7_s1-se2"

  type: DROPOUT

  dropout_param {

    dropout_ratio: 0.4

  }

}

layers {

  bottom: "pool5/7x7_s1-se2"

  top: "fc8-se2"

  name: "loss3/classifier-se2"

  type: INNER_PRODUCT

  blobs_lr: 1

  blobs_lr: 2

  weight_decay: 1

  weight_decay: 0

  inner_product_param {

    num_output: 967

    weight_filler {

      type: "xavier"

    }

    bias_filler {

      type: "constant"

      value: 0

    }

  }

}









 
layers {

  bottom: "data"

  top: "conv1/7x7_s2-se3"

  name: "conv1/7x7_s2-se3"

  type: CONVOLUTION

  blobs_lr: 1

  blobs_lr: 2

  weight_decay: 1

  weight_decay: 0

  convolution_param {

    num_output: 64

    pad: 3

    kernel_size: 7

    stride: 2

    weight_filler {

      type: "xavier"

      std: 0.1

    }

    bias_filler {

      type: "constant"

      value: 0.2

    }

  }

}

layers {

  bottom: "conv1/7x7_s2-se3"

  top: "conv1/7x7_s2-se3"

  name: "conv1/relu_7x7-se3"

  type: RELU

}

layers {

  bottom: "conv1/7x7_s2-se3"

  top: "pool1/3x3_s2-se3"

  name: "pool1/3x3_s2-se3"

  type: POOLING

  pooling_param {

    pool: MAX

    kernel_size: 3

    stride: 2

  }

}

layers {

  bottom: "pool1/3x3_s2-se3"

  top: "pool1/norm1-se3"

  name: "pool1/norm1-se3"

  type: LRN

  lrn_param {

    local_size: 5

    alpha: 0.0001

    beta: 0.75

  }

}

layers {

  bottom: "pool1/norm1-se3"

  top: "conv2/3x3_reduce-se3"

  name: "conv2/3x3_reduce-se3"

  type: CONVOLUTION

  blobs_lr: 1

  blobs_lr: 2

  weight_decay: 1

  weight_decay: 0

  convolution_param {

    num_output: 64

    kernel_size: 1

    weight_filler {

      type: "xavier"

      std: 0.1

    }

    bias_filler {

      type: "constant"

      value: 0.2

    }

  }

}

layers {

  bottom: "conv2/3x3_reduce-se3"

  top: "conv2/3x3_reduce-se3"

  name: "conv2/relu_3x3_reduce-se3"

  type: RELU

}

layers {

  bottom: "conv2/3x3_reduce-se3"

  top: "conv2/3x3-se3"

  name: "conv2/3x3-se3"

  type: CONVOLUTION

  blobs_lr: 1

  blobs_lr: 2

  weight_decay: 1

  weight_decay: 0

  convolution_param {

    num_output: 192

    pad: 1

    kernel_size: 3

    weight_filler {

      type: "xavier"

      std: 0.03

    }

    bias_filler {

      type: "constant"

      value: 0.2

    }

  }

}

layers {

  bottom: "conv2/3x3-se3"

  top: "conv2/3x3-se3"

  name: "conv2/relu_3x3-se3"

  type: RELU

}

layers {

  bottom: "conv2/3x3-se3"

  top: "conv2/norm2-se3"

  name: "conv2/norm2-se3"

  type: LRN

  lrn_param {

    local_size: 5

    alpha: 0.0001

    beta: 0.75

  }

}

layers {

  bottom: "conv2/norm2-se3"

  top: "pool2/3x3_s2-se3"

  name: "pool2/3x3_s2-se3"

  type: POOLING

  pooling_param {

    pool: MAX

    kernel_size: 3

    stride: 2

  }

}

layers {

  bottom: "pool2/3x3_s2-se3"

  top: "inception_3a/1x1-se3"

  name: "inception_3a/1x1-se3"

  type: CONVOLUTION

  blobs_lr: 1

  blobs_lr: 2

  weight_decay: 1

  weight_decay: 0

  convolution_param {

    num_output: 64

    kernel_size: 1

    weight_filler {

      type: "xavier"

      std: 0.03

    }

    bias_filler {

      type: "constant"

      value: 0.2

    }

  }

}

layers {

  bottom: "inception_3a/1x1-se3"

  top: "inception_3a/1x1-se3"

  name: "inception_3a/relu_1x1-se3"

  type: RELU

}

layers {

  bottom: "pool2/3x3_s2-se3"

  top: "inception_3a/3x3_reduce-se3"

  name: "inception_3a/3x3_reduce-se3"

  type: CONVOLUTION

  blobs_lr: 1

  blobs_lr: 2

  weight_decay: 1

  weight_decay: 0

  convolution_param {

    num_output: 96

    kernel_size: 1

    weight_filler {

      type: "xavier"

      std: 0.09

    }

    bias_filler {

      type: "constant"

      value: 0.2

    }

  }

}

layers {

  bottom: "inception_3a/3x3_reduce-se3"

  top: "inception_3a/3x3_reduce-se3"

  name: "inception_3a/relu_3x3_reduce-se3"

  type: RELU

}

layers {

  bottom: "inception_3a/3x3_reduce-se3"

  top: "inception_3a/3x3-se3"

  name: "inception_3a/3x3-se3"

  type: CONVOLUTION

  blobs_lr: 1

  blobs_lr: 2

  weight_decay: 1

  weight_decay: 0

  convolution_param {

    num_output: 128

    pad: 1

    kernel_size: 3

    weight_filler {

      type: "xavier"

      std: 0.03

    }

    bias_filler {

      type: "constant"

      value: 0.2

    }

  }

}

layers {

  bottom: "inception_3a/3x3-se3"

  top: "inception_3a/3x3-se3"

  name: "inception_3a/relu_3x3-se3"

  type: RELU

}

layers {

  bottom: "pool2/3x3_s2-se3"

  top: "inception_3a/5x5_reduce-se3"

  name: "inception_3a/5x5_reduce-se3"

  type: CONVOLUTION

  blobs_lr: 1

  blobs_lr: 2

  weight_decay: 1

  weight_decay: 0

  convolution_param {

    num_output: 16

    kernel_size: 1

    weight_filler {

      type: "xavier"

      std: 0.2

    }

    bias_filler {

      type: "constant"

      value: 0.2

    }

  }

}

layers {

  bottom: "inception_3a/5x5_reduce-se3"

  top: "inception_3a/5x5_reduce-se3"

  name: "inception_3a/relu_5x5_reduce-se3"

  type: RELU

}

layers {

  bottom: "inception_3a/5x5_reduce-se3"

  top: "inception_3a/5x5-se3"

  name: "inception_3a/5x5-se3"

  type: CONVOLUTION

  blobs_lr: 1

  blobs_lr: 2

  weight_decay: 1

  weight_decay: 0

  convolution_param {

    num_output: 32

    pad: 2

    kernel_size: 5

    weight_filler {

      type: "xavier"

      std: 0.03

    }

    bias_filler {

      type: "constant"

      value: 0.2

    }

  }

}

layers {

  bottom: "inception_3a/5x5-se3"

  top: "inception_3a/5x5-se3"

  name: "inception_3a/relu_5x5-se3"

  type: RELU

}

layers {

  bottom: "pool2/3x3_s2-se3"

  top: "inception_3a/pool-se3"

  name: "inception_3a/pool-se3"

  type: POOLING

  pooling_param {

    pool: MAX

    kernel_size: 3

    stride: 1

    pad: 1

  }

}

layers {

  bottom: "inception_3a/pool-se3"

  top: "inception_3a/pool_proj-se3"

  name: "inception_3a/pool_proj-se3"

  type: CONVOLUTION

  blobs_lr: 1

  blobs_lr: 2

  weight_decay: 1

  weight_decay: 0

  convolution_param {

    num_output: 32

    kernel_size: 1

    weight_filler {

      type: "xavier"

      std: 0.1

    }

    bias_filler {

      type: "constant"

      value: 0.2

    }

  }

}

layers {

  bottom: "inception_3a/pool_proj-se3"

  top: "inception_3a/pool_proj-se3"

  name: "inception_3a/relu_pool_proj-se3"

  type: RELU

}

layers {

  bottom: "inception_3a/1x1-se3"

  bottom: "inception_3a/3x3-se3"

  bottom: "inception_3a/5x5-se3"

  bottom: "inception_3a/pool_proj-se3"

  top: "inception_3a/output-se3"

  name: "inception_3a/output-se3"

  type: CONCAT

}

layers {

  bottom: "inception_3a/output-se3"

  top: "inception_3b/1x1-se3"

  name: "inception_3b/1x1-se3"

  type: CONVOLUTION

  blobs_lr: 1

  blobs_lr: 2

  weight_decay: 1

  weight_decay: 0

  convolution_param {

    num_output: 128

    kernel_size: 1

    weight_filler {

      type: "xavier"

      std: 0.03

    }

    bias_filler {

      type: "constant"

      value: 0.2

    }

  }

}

layers {

  bottom: "inception_3b/1x1-se3"

  top: "inception_3b/1x1-se3"

  name: "inception_3b/relu_1x1-se3"

  type: RELU

}

layers {

  bottom: "inception_3a/output-se3"

  top: "inception_3b/3x3_reduce-se3"

  name: "inception_3b/3x3_reduce-se3"

  type: CONVOLUTION

  blobs_lr: 1

  blobs_lr: 2

  weight_decay: 1

  weight_decay: 0

  convolution_param {

    num_output: 128

    kernel_size: 1

    weight_filler {

      type: "xavier"

      std: 0.09

    }

    bias_filler {

      type: "constant"

      value: 0.2

    }

  }

}

layers {

  bottom: "inception_3b/3x3_reduce-se3"

  top: "inception_3b/3x3_reduce-se3"

  name: "inception_3b/relu_3x3_reduce-se3"

  type: RELU

}

layers {

  bottom: "inception_3b/3x3_reduce-se3"

  top: "inception_3b/3x3-se3"

  name: "inception_3b/3x3-se3"

  type: CONVOLUTION

  blobs_lr: 1

  blobs_lr: 2

  weight_decay: 1

  weight_decay: 0

  convolution_param {

    num_output: 192

    pad: 1

    kernel_size: 3

    weight_filler {

      type: "xavier"

      std: 0.03

    }

    bias_filler {

      type: "constant"

      value: 0.2

    }

  }

}

layers {

  bottom: "inception_3b/3x3-se3"

  top: "inception_3b/3x3-se3"

  name: "inception_3b/relu_3x3-se3"

  type: RELU

}

layers {

  bottom: "inception_3a/output-se3"

  top: "inception_3b/5x5_reduce-se3"

  name: "inception_3b/5x5_reduce-se3"

  type: CONVOLUTION

  blobs_lr: 1

  blobs_lr: 2

  weight_decay: 1

  weight_decay: 0

  convolution_param {

    num_output: 32

    kernel_size: 1

    weight_filler {

      type: "xavier"

      std: 0.2

    }

    bias_filler {

      type: "constant"

      value: 0.2

    }

  }

}

layers {

  bottom: "inception_3b/5x5_reduce-se3"

  top: "inception_3b/5x5_reduce-se3"

  name: "inception_3b/relu_5x5_reduce-se3"

  type: RELU

}

layers {

  bottom: "inception_3b/5x5_reduce-se3"

  top: "inception_3b/5x5-se3"

  name: "inception_3b/5x5-se3"

  type: CONVOLUTION

  blobs_lr: 1

  blobs_lr: 2

  weight_decay: 1

  weight_decay: 0

  convolution_param {

    num_output: 96

    pad: 2

    kernel_size: 5

    weight_filler {

      type: "xavier"

      std: 0.03

    }

    bias_filler {

      type: "constant"

      value: 0.2

    }

  }

}

layers {

  bottom: "inception_3b/5x5-se3"

  top: "inception_3b/5x5-se3"

  name: "inception_3b/relu_5x5-se3"

  type: RELU

}

layers {

  bottom: "inception_3a/output-se3"

  top: "inception_3b/pool-se3"

  name: "inception_3b/pool-se3"

  type: POOLING

  pooling_param {

    pool: MAX

    kernel_size: 3

    stride: 1

    pad: 1

  }

}

layers {

  bottom: "inception_3b/pool-se3"

  top: "inception_3b/pool_proj-se3"

  name: "inception_3b/pool_proj-se3"

  type: CONVOLUTION

  blobs_lr: 1

  blobs_lr: 2

  weight_decay: 1

  weight_decay: 0

  convolution_param {

    num_output: 64

    kernel_size: 1

    weight_filler {

      type: "xavier"

      std: 0.1

    }

    bias_filler {

      type: "constant"

      value: 0.2

    }

  }

}

layers {

  bottom: "inception_3b/pool_proj-se3"

  top: "inception_3b/pool_proj-se3"

  name: "inception_3b/relu_pool_proj-se3"

  type: RELU

}

layers {

  bottom: "inception_3b/1x1-se3"

  bottom: "inception_3b/3x3-se3"

  bottom: "inception_3b/5x5-se3"

  bottom: "inception_3b/pool_proj-se3"

  top: "inception_3b/output-se3"

  name: "inception_3b/output-se3"

  type: CONCAT

}

layers {

  bottom: "inception_3b/output-se3"

  top: "pool3/3x3_s2-se3"

  name: "pool3/3x3_s2-se3"

  type: POOLING

  pooling_param {

    pool: MAX

    kernel_size: 3

    stride: 2

  }

}

layers {

  bottom: "pool3/3x3_s2-se3"

  top: "inception_4a/1x1-se3"

  name: "inception_4a/1x1-se3"

  type: CONVOLUTION

  blobs_lr: 1

  blobs_lr: 2

  weight_decay: 1

  weight_decay: 0

  convolution_param {

    num_output: 192

    kernel_size: 1

    weight_filler {

      type: "xavier"

      std: 0.03

    }

    bias_filler {

      type: "constant"

      value: 0.2

    }

  }

}

layers {

  bottom: "inception_4a/1x1-se3"

  top: "inception_4a/1x1-se3"

  name: "inception_4a/relu_1x1-se3"

  type: RELU

}

layers {

  bottom: "pool3/3x3_s2-se3"

  top: "inception_4a/3x3_reduce-se3"

  name: "inception_4a/3x3_reduce-se3"

  type: CONVOLUTION

  blobs_lr: 1

  blobs_lr: 2

  weight_decay: 1

  weight_decay: 0

  convolution_param {

    num_output: 96

    kernel_size: 1

    weight_filler {

      type: "xavier"

      std: 0.09

    }

    bias_filler {

      type: "constant"

      value: 0.2

    }

  }

}

layers {

  bottom: "inception_4a/3x3_reduce-se3"

  top: "inception_4a/3x3_reduce-se3"

  name: "inception_4a/relu_3x3_reduce-se3"

  type: RELU

}

layers {

  bottom: "inception_4a/3x3_reduce-se3"

  top: "inception_4a/3x3-se3"

  name: "inception_4a/3x3-se3"

  type: CONVOLUTION

  blobs_lr: 1

  blobs_lr: 2

  weight_decay: 1

  weight_decay: 0

  convolution_param {

    num_output: 208

    pad: 1

    kernel_size: 3

    weight_filler {

      type: "xavier"

      std: 0.03

    }

    bias_filler {

      type: "constant"

      value: 0.2

    }

  }

}

layers {

  bottom: "inception_4a/3x3-se3"

  top: "inception_4a/3x3-se3"

  name: "inception_4a/relu_3x3-se3"

  type: RELU

}

layers {

  bottom: "pool3/3x3_s2-se3"

  top: "inception_4a/5x5_reduce-se3"

  name: "inception_4a/5x5_reduce-se3"

  type: CONVOLUTION

  blobs_lr: 1

  blobs_lr: 2

  weight_decay: 1

  weight_decay: 0

  convolution_param {

    num_output: 16

    kernel_size: 1

    weight_filler {

      type: "xavier"

      std: 0.2

    }

    bias_filler {

      type: "constant"

      value: 0.2

    }

  }

}

layers {

  bottom: "inception_4a/5x5_reduce-se3"

  top: "inception_4a/5x5_reduce-se3"

  name: "inception_4a/relu_5x5_reduce-se3"

  type: RELU

}

layers {

  bottom: "inception_4a/5x5_reduce-se3"

  top: "inception_4a/5x5-se3"

  name: "inception_4a/5x5-se3"

  type: CONVOLUTION

  blobs_lr: 1

  blobs_lr: 2

  weight_decay: 1

  weight_decay: 0

  convolution_param {

    num_output: 48

    pad: 2

    kernel_size: 5

    weight_filler {

      type: "xavier"

      std: 0.03

    }

    bias_filler {

      type: "constant"

      value: 0.2

    }

  }

}

layers {

  bottom: "inception_4a/5x5-se3"

  top: "inception_4a/5x5-se3"

  name: "inception_4a/relu_5x5-se3"

  type: RELU

}

layers {

  bottom: "pool3/3x3_s2-se3"

  top: "inception_4a/pool-se3"

  name: "inception_4a/pool-se3"

  type: POOLING

  pooling_param {

    pool: MAX

    kernel_size: 3

    stride: 1

    pad: 1

  }

}

layers {

  bottom: "inception_4a/pool-se3"

  top: "inception_4a/pool_proj-se3"

  name: "inception_4a/pool_proj-se3"

  type: CONVOLUTION

  blobs_lr: 1

  blobs_lr: 2

  weight_decay: 1

  weight_decay: 0

  convolution_param {

    num_output: 64

    kernel_size: 1

    weight_filler {

      type: "xavier"

      std: 0.1

    }

    bias_filler {

      type: "constant"

      value: 0.2

    }

  }

}

layers {

  bottom: "inception_4a/pool_proj-se3"

  top: "inception_4a/pool_proj-se3"

  name: "inception_4a/relu_pool_proj-se3"

  type: RELU

}

layers {

  bottom: "inception_4a/1x1-se3"

  bottom: "inception_4a/3x3-se3"

  bottom: "inception_4a/5x5-se3"

  bottom: "inception_4a/pool_proj-se3"

  top: "inception_4a/output-se3"

  name: "inception_4a/output-se3"

  type: CONCAT

}

layers {

  bottom: "inception_4a/output-se3"

  top: "loss1/ave_pool-se3"

  name: "loss1/ave_pool-se3"

  type: POOLING

  pooling_param {

    pool: AVE

    kernel_size: 5

    stride: 3

  }

}

layers {

  bottom: "loss1/ave_pool-se3"

  top: "loss1/conv-se3"

  name: "loss1/conv-se3"

  type: CONVOLUTION

  blobs_lr: 1

  blobs_lr: 2

  weight_decay: 1

  weight_decay: 0

  convolution_param {

    num_output: 128

    kernel_size: 1

    weight_filler {

      type: "xavier"

      std: 0.08

    }

    bias_filler {

      type: "constant"

      value: 0.2

    }

  }

}

layers {

  bottom: "loss1/conv-se3"

  top: "loss1/conv-se3"

  name: "loss1/relu_conv-se3"

  type: RELU

}

layers {

  bottom: "loss1/conv-se3"

  top: "loss1/fc-se3"

  name: "loss1/fc-se3"

  type: INNER_PRODUCT

  blobs_lr: 1

  blobs_lr: 2

  weight_decay: 1

  weight_decay: 0

  inner_product_param {

    num_output: 1024

    weight_filler {

      type: "xavier"

      std: 0.02

    }

    bias_filler {

      type: "constant"

      value: 0.2

    }

  }

}

layers {

  bottom: "loss1/fc-se3"

  top: "loss1/fc-se3"

  name: "loss1/relu_fc-se3"

  type: RELU

}

layers {

  bottom: "loss1/fc-se3"

  top: "loss1/fc-se3"

  name: "loss1/drop_fc-se3"

  type: DROPOUT

  dropout_param {

    dropout_ratio: 0.7

  }

}

layers {

  bottom: "loss1/fc-se3"

  top: "fc-1-se3"

  name: "loss1/classifier-se3"

  type: INNER_PRODUCT

  blobs_lr: 1

  blobs_lr: 2

  weight_decay: 1

  weight_decay: 0

  inner_product_param {

    num_output: 967

    weight_filler {

      type: "xavier"

      std: 0.0009765625

    }

    bias_filler { 

      type: "constant"

      value: 0

    }

  }

}



layers {

  bottom: "inception_4a/output-se3"

  top: "inception_4b/1x1-se3"

  name: "inception_4b/1x1-se3"

  type: CONVOLUTION

  blobs_lr: 1

  blobs_lr: 2

  weight_decay: 1

  weight_decay: 0

  convolution_param {

    num_output: 160

    kernel_size: 1

    weight_filler {

      type: "xavier"

      std: 0.03

    }

    bias_filler {

      type: "constant"

      value: 0.2

    }

  }

}

layers {

  bottom: "inception_4b/1x1-se3"

  top: "inception_4b/1x1-se3"

  name: "inception_4b/relu_1x1-se3"

  type: RELU

}

layers {

  bottom: "inception_4a/output-se3"

  top: "inception_4b/3x3_reduce-se3"

  name: "inception_4b/3x3_reduce-se3"

  type: CONVOLUTION

  blobs_lr: 1

  blobs_lr: 2

  weight_decay: 1

  weight_decay: 0

  convolution_param {

    num_output: 112

    kernel_size: 1

    weight_filler {

      type: "xavier"

      std: 0.09

    }

    bias_filler {

      type: "constant"

      value: 0.2

    }

  }

}

layers {

  bottom: "inception_4b/3x3_reduce-se3"

  top: "inception_4b/3x3_reduce-se3"

  name: "inception_4b/relu_3x3_reduce-se3"

  type: RELU

}

layers {

  bottom: "inception_4b/3x3_reduce-se3"

  top: "inception_4b/3x3-se3"

  name: "inception_4b/3x3-se3"

  type: CONVOLUTION

  blobs_lr: 1

  blobs_lr: 2

  weight_decay: 1

  weight_decay: 0

  convolution_param {

    num_output: 224

    pad: 1

    kernel_size: 3

    weight_filler {

      type: "xavier"

      std: 0.03

    }

    bias_filler {

      type: "constant"

      value: 0.2

    }

  }

}

layers {

  bottom: "inception_4b/3x3-se3"

  top: "inception_4b/3x3-se3"

  name: "inception_4b/relu_3x3-se3"

  type: RELU

}

layers {

  bottom: "inception_4a/output-se3"

  top: "inception_4b/5x5_reduce-se3"

  name: "inception_4b/5x5_reduce-se3"

  type: CONVOLUTION

  blobs_lr: 1

  blobs_lr: 2

  weight_decay: 1

  weight_decay: 0

  convolution_param {

    num_output: 24

    kernel_size: 1

    weight_filler {

      type: "xavier"

      std: 0.2

    }

    bias_filler {

      type: "constant"

      value: 0.2

    }

  }

}

layers {

  bottom: "inception_4b/5x5_reduce-se3"

  top: "inception_4b/5x5_reduce-se3"

  name: "inception_4b/relu_5x5_reduce-se3"

  type: RELU

}

layers {

  bottom: "inception_4b/5x5_reduce-se3"

  top: "inception_4b/5x5-se3"

  name: "inception_4b/5x5-se3"

  type: CONVOLUTION

  blobs_lr: 1

  blobs_lr: 2

  weight_decay: 1

  weight_decay: 0

  convolution_param {

    num_output: 64

    pad: 2

    kernel_size: 5

    weight_filler {

      type: "xavier"

      std: 0.03

    }

    bias_filler {

      type: "constant"

      value: 0.2

    }

  }

}

layers {

  bottom: "inception_4b/5x5-se3"

  top: "inception_4b/5x5-se3"

  name: "inception_4b/relu_5x5-se3"

  type: RELU

}

layers {

  bottom: "inception_4a/output-se3"

  top: "inception_4b/pool-se3"

  name: "inception_4b/pool-se3"

  type: POOLING

  pooling_param {

    pool: MAX

    kernel_size: 3

    stride: 1

    pad: 1

  }

}

layers {

  bottom: "inception_4b/pool-se3"

  top: "inception_4b/pool_proj-se3"

  name: "inception_4b/pool_proj-se3"

  type: CONVOLUTION

  blobs_lr: 1

  blobs_lr: 2

  weight_decay: 1

  weight_decay: 0

  convolution_param {

    num_output: 64

    kernel_size: 1

    weight_filler {

      type: "xavier"

      std: 0.1

    }

    bias_filler {

      type: "constant"

      value: 0.2

    }

  }

}

layers {

  bottom: "inception_4b/pool_proj-se3"

  top: "inception_4b/pool_proj-se3"

  name: "inception_4b/relu_pool_proj-se3"

  type: RELU

}

layers {

  bottom: "inception_4b/1x1-se3"

  bottom: "inception_4b/3x3-se3"

  bottom: "inception_4b/5x5-se3"

  bottom: "inception_4b/pool_proj-se3"

  top: "inception_4b/output-se3"

  name: "inception_4b/output-se3"

  type: CONCAT

}

layers {

  bottom: "inception_4b/output-se3"

  top: "inception_4c/1x1-se3"

  name: "inception_4c/1x1-se3"

  type: CONVOLUTION

  blobs_lr: 1

  blobs_lr: 2

  weight_decay: 1

  weight_decay: 0

  convolution_param {

    num_output: 128

    kernel_size: 1

    weight_filler {

      type: "xavier"

      std: 0.03

    }

    bias_filler {

      type: "constant"

      value: 0.2

    }

  }

}

layers {

  bottom: "inception_4c/1x1-se3"

  top: "inception_4c/1x1-se3"

  name: "inception_4c/relu_1x1-se3"

  type: RELU

}

layers {

  bottom: "inception_4b/output-se3"

  top: "inception_4c/3x3_reduce-se3"

  name: "inception_4c/3x3_reduce-se3"

  type: CONVOLUTION

  blobs_lr: 1

  blobs_lr: 2

  weight_decay: 1

  weight_decay: 0

  convolution_param {

    num_output: 128

    kernel_size: 1

    weight_filler {

      type: "xavier"

      std: 0.09

    }

    bias_filler {

      type: "constant"

      value: 0.2

    }

  }

}

layers {

  bottom: "inception_4c/3x3_reduce-se3"

  top: "inception_4c/3x3_reduce-se3"

  name: "inception_4c/relu_3x3_reduce-se3"

  type: RELU

}

layers {

  bottom: "inception_4c/3x3_reduce-se3"

  top: "inception_4c/3x3-se3"

  name: "inception_4c/3x3-se3"

  type: CONVOLUTION

  blobs_lr: 1

  blobs_lr: 2

  weight_decay: 1

  weight_decay: 0

  convolution_param {

    num_output: 256

    pad: 1

    kernel_size: 3

    weight_filler {

      type: "xavier"

      std: 0.03

    }

    bias_filler {

      type: "constant"

      value: 0.2

    }

  }

}

layers {

  bottom: "inception_4c/3x3-se3"

  top: "inception_4c/3x3-se3"

  name: "inception_4c/relu_3x3-se3"

  type: RELU

}

layers {

  bottom: "inception_4b/output-se3"

  top: "inception_4c/5x5_reduce-se3"

  name: "inception_4c/5x5_reduce-se3"

  type: CONVOLUTION

  blobs_lr: 1

  blobs_lr: 2

  weight_decay: 1

  weight_decay: 0

  convolution_param {

    num_output: 24

    kernel_size: 1

    weight_filler {

      type: "xavier"

      std: 0.2

    }

    bias_filler {

      type: "constant"

      value: 0.2

    }

  }

}

layers {

  bottom: "inception_4c/5x5_reduce-se3"

  top: "inception_4c/5x5_reduce-se3"

  name: "inception_4c/relu_5x5_reduce-se3"

  type: RELU

}

layers {

  bottom: "inception_4c/5x5_reduce-se3"

  top: "inception_4c/5x5-se3"

  name: "inception_4c/5x5-se3"

  type: CONVOLUTION

  blobs_lr: 1

  blobs_lr: 2

  weight_decay: 1

  weight_decay: 0

  convolution_param {

    num_output: 64

    pad: 2

    kernel_size: 5

    weight_filler {

      type: "xavier"

      std: 0.03

    }

    bias_filler {

      type: "constant"

      value: 0.2

    }

  }

}

layers {

  bottom: "inception_4c/5x5-se3"

  top: "inception_4c/5x5-se3"

  name: "inception_4c/relu_5x5-se3"

  type: RELU

}

layers {

  bottom: "inception_4b/output-se3"

  top: "inception_4c/pool-se3"

  name: "inception_4c/pool-se3"

  type: POOLING

  pooling_param {

    pool: MAX

    kernel_size: 3

    stride: 1

    pad: 1

  }

}

layers {

  bottom: "inception_4c/pool-se3"

  top: "inception_4c/pool_proj-se3"

  name: "inception_4c/pool_proj-se3"

  type: CONVOLUTION

  blobs_lr: 1

  blobs_lr: 2

  weight_decay: 1

  weight_decay: 0

  convolution_param {

    num_output: 64

    kernel_size: 1

    weight_filler {

      type: "xavier"

      std: 0.1

    }

    bias_filler {

      type: "constant"

      value: 0.2

    }

  }

}

layers {

  bottom: "inception_4c/pool_proj-se3"

  top: "inception_4c/pool_proj-se3"

  name: "inception_4c/relu_pool_proj-se3"

  type: RELU

}

layers {

  bottom: "inception_4c/1x1-se3"

  bottom: "inception_4c/3x3-se3"

  bottom: "inception_4c/5x5-se3"

  bottom: "inception_4c/pool_proj-se3"

  top: "inception_4c/output-se3"

  name: "inception_4c/output-se3"

  type: CONCAT

}

layers {

  bottom: "inception_4c/output-se3"

  top: "inception_4d/1x1-se3"

  name: "inception_4d/1x1-se3"

  type: CONVOLUTION

  blobs_lr: 1

  blobs_lr: 2

  weight_decay: 1

  weight_decay: 0

  convolution_param {

    num_output: 112

    kernel_size: 1

    weight_filler {

      type: "xavier"

      std: 0.03

    }

    bias_filler {

      type: "constant"

      value: 0.2

    }

  }

}

layers {

  bottom: "inception_4d/1x1-se3"

  top: "inception_4d/1x1-se3"

  name: "inception_4d/relu_1x1-se3"

  type: RELU

}

layers {

  bottom: "inception_4c/output-se3"

  top: "inception_4d/3x3_reduce-se3"

  name: "inception_4d/3x3_reduce-se3"

  type: CONVOLUTION

  blobs_lr: 1

  blobs_lr: 2

  weight_decay: 1

  weight_decay: 0

  convolution_param {

    num_output: 144

    kernel_size: 1

    weight_filler {

      type: "xavier"

      std: 0.09

    }

    bias_filler {

      type: "constant"

      value: 0.2

    }

  }

}

layers {

  bottom: "inception_4d/3x3_reduce-se3"

  top: "inception_4d/3x3_reduce-se3"

  name: "inception_4d/relu_3x3_reduce-se3"

  type: RELU

}

layers {

  bottom: "inception_4d/3x3_reduce-se3"

  top: "inception_4d/3x3-se3"

  name: "inception_4d/3x3-se3"

  type: CONVOLUTION

  blobs_lr: 1

  blobs_lr: 2

  weight_decay: 1

  weight_decay: 0

  convolution_param {

    num_output: 288

    pad: 1

    kernel_size: 3

    weight_filler {

      type: "xavier"

      std: 0.03

    }

    bias_filler {

      type: "constant"

      value: 0.2

    }

  }

}

layers {

  bottom: "inception_4d/3x3-se3"

  top: "inception_4d/3x3-se3"

  name: "inception_4d/relu_3x3-se3"

  type: RELU

}

layers {

  bottom: "inception_4c/output-se3"

  top: "inception_4d/5x5_reduce-se3"

  name: "inception_4d/5x5_reduce-se3"

  type: CONVOLUTION

  blobs_lr: 1

  blobs_lr: 2

  weight_decay: 1

  weight_decay: 0

  convolution_param {

    num_output: 32

    kernel_size: 1

    weight_filler {

      type: "xavier"

      std: 0.2

    }

    bias_filler {

      type: "constant"

      value: 0.2

    }

  }

}

layers {

  bottom: "inception_4d/5x5_reduce-se3"

  top: "inception_4d/5x5_reduce-se3"

  name: "inception_4d/relu_5x5_reduce-se3"

  type: RELU

}

layers {

  bottom: "inception_4d/5x5_reduce-se3"

  top: "inception_4d/5x5-se3"

  name: "inception_4d/5x5-se3"

  type: CONVOLUTION

  blobs_lr: 1

  blobs_lr: 2

  weight_decay: 1

  weight_decay: 0

  convolution_param {

    num_output: 64

    pad: 2

    kernel_size: 5

    weight_filler {

      type: "xavier"

      std: 0.03

    }

    bias_filler {

      type: "constant"

      value: 0.2

    }

  }

}

layers {

  bottom: "inception_4d/5x5-se3"

  top: "inception_4d/5x5-se3"

  name: "inception_4d/relu_5x5-se3"

  type: RELU

}

layers {

  bottom: "inception_4c/output-se3"

  top: "inception_4d/pool-se3"

  name: "inception_4d/pool-se3"

  type: POOLING

  pooling_param {

    pool: MAX

    kernel_size: 3

    stride: 1

    pad: 1

  }

}

layers {

  bottom: "inception_4d/pool-se3"

  top: "inception_4d/pool_proj-se3"

  name: "inception_4d/pool_proj-se3"

  type: CONVOLUTION

  blobs_lr: 1

  blobs_lr: 2

  weight_decay: 1

  weight_decay: 0

  convolution_param {

    num_output: 64

    kernel_size: 1

    weight_filler {

      type: "xavier"

      std: 0.1

    }

    bias_filler {

      type: "constant"

      value: 0.2

    }

  }

}

layers {

  bottom: "inception_4d/pool_proj-se3"

  top: "inception_4d/pool_proj-se3"

  name: "inception_4d/relu_pool_proj-se3"

  type: RELU

}

layers {

  bottom: "inception_4d/1x1-se3"

  bottom: "inception_4d/3x3-se3"

  bottom: "inception_4d/5x5-se3"

  bottom: "inception_4d/pool_proj-se3"

  top: "inception_4d/output-se3"

  name: "inception_4d/output-se3"

  type: CONCAT

}



layers {

  bottom: "inception_4d/output-se3"

  top: "loss2/ave_pool-se3"

  name: "loss2/ave_pool-se3"

  type: POOLING

  pooling_param {

    pool: AVE

    kernel_size: 5

    stride: 3

  }

}

layers {

  bottom: "loss2/ave_pool-se3"

  top: "loss2/conv-se3"

  name: "loss2/conv-se3"

  type: CONVOLUTION

  blobs_lr: 1

  blobs_lr: 2

  weight_decay: 1

  weight_decay: 0

  convolution_param {

    num_output: 128

    kernel_size: 1

    weight_filler {

      type: "xavier"

      std: 0.08

    }

    bias_filler {

      type: "constant"

      value: 0.2

    }

  }

}

layers {

  bottom: "loss2/conv-se3"

  top: "loss2/conv-se3"

  name: "loss2/relu_conv-se3"

  type: RELU

}

layers {

  bottom: "loss2/conv-se3"

  top: "loss2/fc-se3"

  name: "loss2/fc-se3"

  type: INNER_PRODUCT

  blobs_lr: 1

  blobs_lr: 2

  weight_decay: 1

  weight_decay: 0

  inner_product_param {

    num_output: 1024

    weight_filler {

      type: "xavier"

      std: 0.02

    }

    bias_filler {

      type: "constant"

      value: 0.2

    }

  }

}

layers {

  bottom: "loss2/fc-se3"

  top: "loss2/fc-se3"

  name: "loss2/relu_fc-se3"

  type: RELU

}

layers {

  bottom: "loss2/fc-se3"

  top: "loss2/fc-se3"

  name: "loss2/drop_fc-se3"

  type: DROPOUT

  dropout_param {

    dropout_ratio: 0.7

  }

}

layers {

  bottom: "loss2/fc-se3"

  top: "fc-2-se3"

  name: "loss2/classifier-se3"

  type: INNER_PRODUCT

  blobs_lr: 1

  blobs_lr: 2

  weight_decay: 1

  weight_decay: 0

  inner_product_param {

    num_output: 967

    weight_filler {

      type: "xavier"

      std: 0.0009765625

    }

    bias_filler {

      type: "constant"

      value: 0

    }

  }

}



layers {

  bottom: "inception_4d/output-se3"

  top: "inception_4e/1x1-se3"

  name: "inception_4e/1x1-se3"

  type: CONVOLUTION

  blobs_lr: 1

  blobs_lr: 2

  weight_decay: 1

  weight_decay: 0

  convolution_param {

    num_output: 256

    kernel_size: 1

    weight_filler {

      type: "xavier"

      std: 0.03

    }

    bias_filler {

      type: "constant"

      value: 0.2

    }

  }

}

layers {

  bottom: "inception_4e/1x1-se3"

  top: "inception_4e/1x1-se3"

  name: "inception_4e/relu_1x1-se3"

  type: RELU

}

layers {

  bottom: "inception_4d/output-se3"

  top: "inception_4e/3x3_reduce-se3"

  name: "inception_4e/3x3_reduce-se3"

  type: CONVOLUTION

  blobs_lr: 1

  blobs_lr: 2

  weight_decay: 1

  weight_decay: 0

  convolution_param {

    num_output: 160

    kernel_size: 1

    weight_filler {

      type: "xavier"

      std: 0.09

    }

    bias_filler {

      type: "constant"

      value: 0.2

    }

  }

}

layers {

  bottom: "inception_4e/3x3_reduce-se3"

  top: "inception_4e/3x3_reduce-se3"

  name: "inception_4e/relu_3x3_reduce-se3"

  type: RELU

}

layers {

  bottom: "inception_4e/3x3_reduce-se3"

  top: "inception_4e/3x3-se3"

  name: "inception_4e/3x3-se3"

  type: CONVOLUTION

  blobs_lr: 1

  blobs_lr: 2

  weight_decay: 1

  weight_decay: 0

  convolution_param {

    num_output: 320

    pad: 1

    kernel_size: 3

    weight_filler {

      type: "xavier"

      std: 0.03

    }

    bias_filler {

      type: "constant"

      value: 0.2

    }

  }

}

layers {

  bottom: "inception_4e/3x3-se3"

  top: "inception_4e/3x3-se3"

  name: "inception_4e/relu_3x3-se3"

  type: RELU

}

layers {

  bottom: "inception_4d/output-se3"

  top: "inception_4e/5x5_reduce-se3"

  name: "inception_4e/5x5_reduce-se3"

  type: CONVOLUTION

  blobs_lr: 1

  blobs_lr: 2

  weight_decay: 1

  weight_decay: 0

  convolution_param {

    num_output: 32

    kernel_size: 1

    weight_filler {

      type: "xavier"

      std: 0.2

    }

    bias_filler {

      type: "constant"

      value: 0.2

    }

  }

}

layers {

  bottom: "inception_4e/5x5_reduce-se3"

  top: "inception_4e/5x5_reduce-se3"

  name: "inception_4e/relu_5x5_reduce-se3"

  type: RELU

}

layers {

  bottom: "inception_4e/5x5_reduce-se3"

  top: "inception_4e/5x5-se3"

  name: "inception_4e/5x5-se3"

  type: CONVOLUTION

  blobs_lr: 1

  blobs_lr: 2

  weight_decay: 1

  weight_decay: 0

  convolution_param {

    num_output: 128

    pad: 2

    kernel_size: 5

    weight_filler {

      type: "xavier"

      std: 0.03

    }

    bias_filler {

      type: "constant"

      value: 0.2

    }

  }

}

layers {

  bottom: "inception_4e/5x5-se3"

  top: "inception_4e/5x5-se3"

  name: "inception_4e/relu_5x5-se3"

  type: RELU

}

layers {

  bottom: "inception_4d/output-se3"

  top: "inception_4e/pool-se3"

  name: "inception_4e/pool-se3"

  type: POOLING

  pooling_param {

    pool: MAX

    kernel_size: 3

    stride: 1

    pad: 1

  }

}

layers {

  bottom: "inception_4e/pool-se3"

  top: "inception_4e/pool_proj-se3"

  name: "inception_4e/pool_proj-se3"

  type: CONVOLUTION

  blobs_lr: 1

  blobs_lr: 2

  weight_decay: 1

  weight_decay: 0

  convolution_param {

    num_output: 128

    kernel_size: 1

    weight_filler {

      type: "xavier"

      std: 0.1

    }

    bias_filler {

      type: "constant"

      value: 0.2

    }

  }

}

layers {

  bottom: "inception_4e/pool_proj-se3"

  top: "inception_4e/pool_proj-se3"

  name: "inception_4e/relu_pool_proj-se3"

  type: RELU

}

layers {

  bottom: "inception_4e/1x1-se3"

  bottom: "inception_4e/3x3-se3"

  bottom: "inception_4e/5x5-se3"

  bottom: "inception_4e/pool_proj-se3"

  top: "inception_4e/output-se3"

  name: "inception_4e/output-se3"

  type: CONCAT

}

layers {

  bottom: "inception_4e/output-se3"

  top: "pool4/3x3_s2-se3"

  name: "pool4/3x3_s2-se3"

  type: POOLING

  pooling_param {

    pool: MAX

    kernel_size: 3

    stride: 2

  }

}

layers {

  bottom: "pool4/3x3_s2-se3"

  top: "inception_5a/1x1-se3"

  name: "inception_5a/1x1-se3"

  type: CONVOLUTION

  blobs_lr: 1

  blobs_lr: 2

  weight_decay: 1

  weight_decay: 0

  convolution_param {

    num_output: 256

    kernel_size: 1

    weight_filler {

      type: "xavier"

      std: 0.03

    }

    bias_filler {

      type: "constant"

      value: 0.2

    }

  }

}

layers {

  bottom: "inception_5a/1x1-se3"

  top: "inception_5a/1x1-se3"

  name: "inception_5a/relu_1x1-se3"

  type: RELU

}

layers {

  bottom: "pool4/3x3_s2-se3"

  top: "inception_5a/3x3_reduce-se3"

  name: "inception_5a/3x3_reduce-se3"

  type: CONVOLUTION

  blobs_lr: 1

  blobs_lr: 2

  weight_decay: 1

  weight_decay: 0

  convolution_param {

    num_output: 160

    kernel_size: 1

    weight_filler {

      type: "xavier"

      std: 0.09

    }

    bias_filler {

      type: "constant"

      value: 0.2

    }

  }

}

layers {

  bottom: "inception_5a/3x3_reduce-se3"

  top: "inception_5a/3x3_reduce-se3"

  name: "inception_5a/relu_3x3_reduce-se3"

  type: RELU

}

layers {

  bottom: "inception_5a/3x3_reduce-se3"

  top: "inception_5a/3x3-se3"

  name: "inception_5a/3x3-se3"

  type: CONVOLUTION

  blobs_lr: 1

  blobs_lr: 2

  weight_decay: 1

  weight_decay: 0

  convolution_param {

    num_output: 320

    pad: 1

    kernel_size: 3

    weight_filler {

      type: "xavier"

      std: 0.03

    }

    bias_filler {

      type: "constant"

      value: 0.2

    }

  }

}

layers {

  bottom: "inception_5a/3x3-se3"

  top: "inception_5a/3x3-se3"

  name: "inception_5a/relu_3x3-se3"

  type: RELU

}

layers {

  bottom: "pool4/3x3_s2-se3"

  top: "inception_5a/5x5_reduce-se3"

  name: "inception_5a/5x5_reduce-se3"

  type: CONVOLUTION

  blobs_lr: 1

  blobs_lr: 2

  weight_decay: 1

  weight_decay: 0

  convolution_param {

    num_output: 32

    kernel_size: 1

    weight_filler {

      type: "xavier"

      std: 0.2

    }

    bias_filler {

      type: "constant"

      value: 0.2

    }

  }

}

layers {

  bottom: "inception_5a/5x5_reduce-se3"

  top: "inception_5a/5x5_reduce-se3"

  name: "inception_5a/relu_5x5_reduce-se3"

  type: RELU

}

layers {

  bottom: "inception_5a/5x5_reduce-se3"

  top: "inception_5a/5x5-se3"

  name: "inception_5a/5x5-se3"

  type: CONVOLUTION

  blobs_lr: 1

  blobs_lr: 2

  weight_decay: 1

  weight_decay: 0

  convolution_param {

    num_output: 128

    pad: 2

    kernel_size: 5

    weight_filler {

      type: "xavier"

      std: 0.03

    }

    bias_filler {

      type: "constant"

      value: 0.2

    }

  }

}

layers {

  bottom: "inception_5a/5x5-se3"

  top: "inception_5a/5x5-se3"

  name: "inception_5a/relu_5x5-se3"

  type: RELU

}

layers {

  bottom: "pool4/3x3_s2-se3"

  top: "inception_5a/pool-se3"

  name: "inception_5a/pool-se3"

  type: POOLING

  pooling_param {

    pool: MAX

    kernel_size: 3

    stride: 1

    pad: 1

  }

}

layers {

  bottom: "inception_5a/pool-se3"

  top: "inception_5a/pool_proj-se3"

  name: "inception_5a/pool_proj-se3"

  type: CONVOLUTION

  blobs_lr: 1

  blobs_lr: 2

  weight_decay: 1

  weight_decay: 0

  convolution_param {

    num_output: 128

    kernel_size: 1

    weight_filler {

      type: "xavier"

      std: 0.1

    }

    bias_filler {

      type: "constant"

      value: 0.2

    }

  }

}

layers {

  bottom: "inception_5a/pool_proj-se3"

  top: "inception_5a/pool_proj-se3"

  name: "inception_5a/relu_pool_proj-se3"

  type: RELU

}

layers {

  bottom: "inception_5a/1x1-se3"

  bottom: "inception_5a/3x3-se3"

  bottom: "inception_5a/5x5-se3"

  bottom: "inception_5a/pool_proj-se3"

  top: "inception_5a/output-se3"

  name: "inception_5a/output-se3"

  type: CONCAT

}

layers {

  bottom: "inception_5a/output-se3"

  top: "inception_5b/1x1-se3"

  name: "inception_5b/1x1-se3"

  type: CONVOLUTION

  blobs_lr: 1

  blobs_lr: 2

  weight_decay: 1

  weight_decay: 0

  convolution_param {

    num_output: 384

    kernel_size: 1

    weight_filler {

      type: "xavier"

      std: 0.03

    }

    bias_filler {

      type: "constant"

      value: 0.2

    }

  }

}

layers {

  bottom: "inception_5b/1x1-se3"

  top: "inception_5b/1x1-se3"

  name: "inception_5b/relu_1x1-se3"

  type: RELU

}

layers {

  bottom: "inception_5a/output-se3"

  top: "inception_5b/3x3_reduce-se3"

  name: "inception_5b/3x3_reduce-se3"

  type: CONVOLUTION

  blobs_lr: 1

  blobs_lr: 2

  weight_decay: 1

  weight_decay: 0

  convolution_param {

    num_output: 192

    kernel_size: 1

    weight_filler {

      type: "xavier"

      std: 0.09

    }

    bias_filler {

      type: "constant"

      value: 0.2

    }

  }

}

layers {

  bottom: "inception_5b/3x3_reduce-se3"

  top: "inception_5b/3x3_reduce-se3"

  name: "inception_5b/relu_3x3_reduce-se3"

  type: RELU

}

layers {

  bottom: "inception_5b/3x3_reduce-se3"

  top: "inception_5b/3x3-se3"

  name: "inception_5b/3x3-se3"

  type: CONVOLUTION

  blobs_lr: 1

  blobs_lr: 2

  weight_decay: 1

  weight_decay: 0

  convolution_param {

    num_output: 384

    pad: 1

    kernel_size: 3

    weight_filler {

      type: "xavier"

      std: 0.03

    }

    bias_filler {

      type: "constant"

      value: 0.2

    }

  }

}

layers {

  bottom: "inception_5b/3x3-se3"

  top: "inception_5b/3x3-se3"

  name: "inception_5b/relu_3x3-se3"

  type: RELU

}

layers {

  bottom: "inception_5a/output-se3"

  top: "inception_5b/5x5_reduce-se3"

  name: "inception_5b/5x5_reduce-se3"

  type: CONVOLUTION

  blobs_lr: 1

  blobs_lr: 2

  weight_decay: 1

  weight_decay: 0

  convolution_param {

    num_output: 48

    kernel_size: 1

    weight_filler {

      type: "xavier"

      std: 0.2

    }

    bias_filler {

      type: "constant"

      value: 0.2

    }

  }

}

layers {

  bottom: "inception_5b/5x5_reduce-se3"

  top: "inception_5b/5x5_reduce-se3"

  name: "inception_5b/relu_5x5_reduce-se3"

  type: RELU

}

layers {

  bottom: "inception_5b/5x5_reduce-se3"

  top: "inception_5b/5x5-se3"

  name: "inception_5b/5x5-se3"

  type: CONVOLUTION

  blobs_lr: 1

  blobs_lr: 2

  weight_decay: 1

  weight_decay: 0

  convolution_param {

    num_output: 128

    pad: 2

    kernel_size: 5

    weight_filler {

      type: "xavier"

      std: 0.03

    }

    bias_filler {

      type: "constant"

      value: 0.2

    }

  }

}

layers {

  bottom: "inception_5b/5x5-se3"

  top: "inception_5b/5x5-se3"

  name: "inception_5b/relu_5x5-se3"

  type: RELU

}

layers {

  bottom: "inception_5a/output-se3"

  top: "inception_5b/pool-se3"

  name: "inception_5b/pool-se3"

  type: POOLING

  pooling_param {

    pool: MAX

    kernel_size: 3

    stride: 1

    pad: 1

  }

}

layers {

  bottom: "inception_5b/pool-se3"

  top: "inception_5b/pool_proj-se3"

  name: "inception_5b/pool_proj-se3"

  type: CONVOLUTION

  blobs_lr: 1

  blobs_lr: 2

  weight_decay: 1

  weight_decay: 0

  convolution_param {

    num_output: 128

    kernel_size: 1

    weight_filler {

      type: "xavier"

      std: 0.1

    }

    bias_filler {

      type: "constant"

      value: 0.2

    }

  }

}

layers {

  bottom: "inception_5b/pool_proj-se3"

  top: "inception_5b/pool_proj-se3"

  name: "inception_5b/relu_pool_proj-se3"

  type: RELU

}

layers {

  bottom: "inception_5b/1x1-se3"

  bottom: "inception_5b/3x3-se3"

  bottom: "inception_5b/5x5-se3"

  bottom: "inception_5b/pool_proj-se3"

  top: "inception_5b/output-se3"

  name: "inception_5b/output-se3"

  type: CONCAT

}

layers {

  bottom: "inception_5b/output-se3"

  top: "pool5/7x7_s1-se3"

  name: "pool5/7x7_s1-se3"

  type: POOLING

  pooling_param {

    pool: AVE

    kernel_size: 7

    stride: 1

  }

}

layers {

  bottom: "pool5/7x7_s1-se3"

  top: "pool5/7x7_s1-se3"

  name: "pool5/drop_7x7_s1-se3"

  type: DROPOUT

  dropout_param {

    dropout_ratio: 0.4

  }

}

layers {

  bottom: "pool5/7x7_s1-se3"

  top: "fc8-se3"

  name: "loss3/classifier-se3"

  type: INNER_PRODUCT

  blobs_lr: 1

  blobs_lr: 2

  weight_decay: 1

  weight_decay: 0

  inner_product_param {

    num_output: 967

    weight_filler {

      type: "xavier"

    }

    bias_filler {

      type: "constant"

      value: 0

    }

  }

}









 
layers {

  bottom: "data"

  top: "conv1/7x7_s2-se4"

  name: "conv1/7x7_s2-se4"

  type: CONVOLUTION

  blobs_lr: 1

  blobs_lr: 2

  weight_decay: 1

  weight_decay: 0

  convolution_param {

    num_output: 64

    pad: 3

    kernel_size: 7

    stride: 2

    weight_filler {

      type: "xavier"

      std: 0.1

    }

    bias_filler {

      type: "constant"

      value: 0.2

    }

  }

}

layers {

  bottom: "conv1/7x7_s2-se4"

  top: "conv1/7x7_s2-se4"

  name: "conv1/relu_7x7-se4"

  type: RELU

}

layers {

  bottom: "conv1/7x7_s2-se4"

  top: "pool1/3x3_s2-se4"

  name: "pool1/3x3_s2-se4"

  type: POOLING

  pooling_param {

    pool: MAX

    kernel_size: 3

    stride: 2

  }

}

layers {

  bottom: "pool1/3x3_s2-se4"

  top: "pool1/norm1-se4"

  name: "pool1/norm1-se4"

  type: LRN

  lrn_param {

    local_size: 5

    alpha: 0.0001

    beta: 0.75

  }

}

layers {

  bottom: "pool1/norm1-se4"

  top: "conv2/3x3_reduce-se4"

  name: "conv2/3x3_reduce-se4"

  type: CONVOLUTION

  blobs_lr: 1

  blobs_lr: 2

  weight_decay: 1

  weight_decay: 0

  convolution_param {

    num_output: 64

    kernel_size: 1

    weight_filler {

      type: "xavier"

      std: 0.1

    }

    bias_filler {

      type: "constant"

      value: 0.2

    }

  }

}

layers {

  bottom: "conv2/3x3_reduce-se4"

  top: "conv2/3x3_reduce-se4"

  name: "conv2/relu_3x3_reduce-se4"

  type: RELU

}

layers {

  bottom: "conv2/3x3_reduce-se4"

  top: "conv2/3x3-se4"

  name: "conv2/3x3-se4"

  type: CONVOLUTION

  blobs_lr: 1

  blobs_lr: 2

  weight_decay: 1

  weight_decay: 0

  convolution_param {

    num_output: 192

    pad: 1

    kernel_size: 3

    weight_filler {

      type: "xavier"

      std: 0.03

    }

    bias_filler {

      type: "constant"

      value: 0.2

    }

  }

}

layers {

  bottom: "conv2/3x3-se4"

  top: "conv2/3x3-se4"

  name: "conv2/relu_3x3-se4"

  type: RELU

}

layers {

  bottom: "conv2/3x3-se4"

  top: "conv2/norm2-se4"

  name: "conv2/norm2-se4"

  type: LRN

  lrn_param {

    local_size: 5

    alpha: 0.0001

    beta: 0.75

  }

}

layers {

  bottom: "conv2/norm2-se4"

  top: "pool2/3x3_s2-se4"

  name: "pool2/3x3_s2-se4"

  type: POOLING

  pooling_param {

    pool: MAX

    kernel_size: 3

    stride: 2

  }

}

layers {

  bottom: "pool2/3x3_s2-se4"

  top: "inception_3a/1x1-se4"

  name: "inception_3a/1x1-se4"

  type: CONVOLUTION

  blobs_lr: 1

  blobs_lr: 2

  weight_decay: 1

  weight_decay: 0

  convolution_param {

    num_output: 64

    kernel_size: 1

    weight_filler {

      type: "xavier"

      std: 0.03

    }

    bias_filler {

      type: "constant"

      value: 0.2

    }

  }

}

layers {

  bottom: "inception_3a/1x1-se4"

  top: "inception_3a/1x1-se4"

  name: "inception_3a/relu_1x1-se4"

  type: RELU

}

layers {

  bottom: "pool2/3x3_s2-se4"

  top: "inception_3a/3x3_reduce-se4"

  name: "inception_3a/3x3_reduce-se4"

  type: CONVOLUTION

  blobs_lr: 1

  blobs_lr: 2

  weight_decay: 1

  weight_decay: 0

  convolution_param {

    num_output: 96

    kernel_size: 1

    weight_filler {

      type: "xavier"

      std: 0.09

    }

    bias_filler {

      type: "constant"

      value: 0.2

    }

  }

}

layers {

  bottom: "inception_3a/3x3_reduce-se4"

  top: "inception_3a/3x3_reduce-se4"

  name: "inception_3a/relu_3x3_reduce-se4"

  type: RELU

}

layers {

  bottom: "inception_3a/3x3_reduce-se4"

  top: "inception_3a/3x3-se4"

  name: "inception_3a/3x3-se4"

  type: CONVOLUTION

  blobs_lr: 1

  blobs_lr: 2

  weight_decay: 1

  weight_decay: 0

  convolution_param {

    num_output: 128

    pad: 1

    kernel_size: 3

    weight_filler {

      type: "xavier"

      std: 0.03

    }

    bias_filler {

      type: "constant"

      value: 0.2

    }

  }

}

layers {

  bottom: "inception_3a/3x3-se4"

  top: "inception_3a/3x3-se4"

  name: "inception_3a/relu_3x3-se4"

  type: RELU

}

layers {

  bottom: "pool2/3x3_s2-se4"

  top: "inception_3a/5x5_reduce-se4"

  name: "inception_3a/5x5_reduce-se4"

  type: CONVOLUTION

  blobs_lr: 1

  blobs_lr: 2

  weight_decay: 1

  weight_decay: 0

  convolution_param {

    num_output: 16

    kernel_size: 1

    weight_filler {

      type: "xavier"

      std: 0.2

    }

    bias_filler {

      type: "constant"

      value: 0.2

    }

  }

}

layers {

  bottom: "inception_3a/5x5_reduce-se4"

  top: "inception_3a/5x5_reduce-se4"

  name: "inception_3a/relu_5x5_reduce-se4"

  type: RELU

}

layers {

  bottom: "inception_3a/5x5_reduce-se4"

  top: "inception_3a/5x5-se4"

  name: "inception_3a/5x5-se4"

  type: CONVOLUTION

  blobs_lr: 1

  blobs_lr: 2

  weight_decay: 1

  weight_decay: 0

  convolution_param {

    num_output: 32

    pad: 2

    kernel_size: 5

    weight_filler {

      type: "xavier"

      std: 0.03

    }

    bias_filler {

      type: "constant"

      value: 0.2

    }

  }

}

layers {

  bottom: "inception_3a/5x5-se4"

  top: "inception_3a/5x5-se4"

  name: "inception_3a/relu_5x5-se4"

  type: RELU

}

layers {

  bottom: "pool2/3x3_s2-se4"

  top: "inception_3a/pool-se4"

  name: "inception_3a/pool-se4"

  type: POOLING

  pooling_param {

    pool: MAX

    kernel_size: 3

    stride: 1

    pad: 1

  }

}

layers {

  bottom: "inception_3a/pool-se4"

  top: "inception_3a/pool_proj-se4"

  name: "inception_3a/pool_proj-se4"

  type: CONVOLUTION

  blobs_lr: 1

  blobs_lr: 2

  weight_decay: 1

  weight_decay: 0

  convolution_param {

    num_output: 32

    kernel_size: 1

    weight_filler {

      type: "xavier"

      std: 0.1

    }

    bias_filler {

      type: "constant"

      value: 0.2

    }

  }

}

layers {

  bottom: "inception_3a/pool_proj-se4"

  top: "inception_3a/pool_proj-se4"

  name: "inception_3a/relu_pool_proj-se4"

  type: RELU

}

layers {

  bottom: "inception_3a/1x1-se4"

  bottom: "inception_3a/3x3-se4"

  bottom: "inception_3a/5x5-se4"

  bottom: "inception_3a/pool_proj-se4"

  top: "inception_3a/output-se4"

  name: "inception_3a/output-se4"

  type: CONCAT

}

layers {

  bottom: "inception_3a/output-se4"

  top: "inception_3b/1x1-se4"

  name: "inception_3b/1x1-se4"

  type: CONVOLUTION

  blobs_lr: 1

  blobs_lr: 2

  weight_decay: 1

  weight_decay: 0

  convolution_param {

    num_output: 128

    kernel_size: 1

    weight_filler {

      type: "xavier"

      std: 0.03

    }

    bias_filler {

      type: "constant"

      value: 0.2

    }

  }

}

layers {

  bottom: "inception_3b/1x1-se4"

  top: "inception_3b/1x1-se4"

  name: "inception_3b/relu_1x1-se4"

  type: RELU

}

layers {

  bottom: "inception_3a/output-se4"

  top: "inception_3b/3x3_reduce-se4"

  name: "inception_3b/3x3_reduce-se4"

  type: CONVOLUTION

  blobs_lr: 1

  blobs_lr: 2

  weight_decay: 1

  weight_decay: 0

  convolution_param {

    num_output: 128

    kernel_size: 1

    weight_filler {

      type: "xavier"

      std: 0.09

    }

    bias_filler {

      type: "constant"

      value: 0.2

    }

  }

}

layers {

  bottom: "inception_3b/3x3_reduce-se4"

  top: "inception_3b/3x3_reduce-se4"

  name: "inception_3b/relu_3x3_reduce-se4"

  type: RELU

}

layers {

  bottom: "inception_3b/3x3_reduce-se4"

  top: "inception_3b/3x3-se4"

  name: "inception_3b/3x3-se4"

  type: CONVOLUTION

  blobs_lr: 1

  blobs_lr: 2

  weight_decay: 1

  weight_decay: 0

  convolution_param {

    num_output: 192

    pad: 1

    kernel_size: 3

    weight_filler {

      type: "xavier"

      std: 0.03

    }

    bias_filler {

      type: "constant"

      value: 0.2

    }

  }

}

layers {

  bottom: "inception_3b/3x3-se4"

  top: "inception_3b/3x3-se4"

  name: "inception_3b/relu_3x3-se4"

  type: RELU

}

layers {

  bottom: "inception_3a/output-se4"

  top: "inception_3b/5x5_reduce-se4"

  name: "inception_3b/5x5_reduce-se4"

  type: CONVOLUTION

  blobs_lr: 1

  blobs_lr: 2

  weight_decay: 1

  weight_decay: 0

  convolution_param {

    num_output: 32

    kernel_size: 1

    weight_filler {

      type: "xavier"

      std: 0.2

    }

    bias_filler {

      type: "constant"

      value: 0.2

    }

  }

}

layers {

  bottom: "inception_3b/5x5_reduce-se4"

  top: "inception_3b/5x5_reduce-se4"

  name: "inception_3b/relu_5x5_reduce-se4"

  type: RELU

}

layers {

  bottom: "inception_3b/5x5_reduce-se4"

  top: "inception_3b/5x5-se4"

  name: "inception_3b/5x5-se4"

  type: CONVOLUTION

  blobs_lr: 1

  blobs_lr: 2

  weight_decay: 1

  weight_decay: 0

  convolution_param {

    num_output: 96

    pad: 2

    kernel_size: 5

    weight_filler {

      type: "xavier"

      std: 0.03

    }

    bias_filler {

      type: "constant"

      value: 0.2

    }

  }

}

layers {

  bottom: "inception_3b/5x5-se4"

  top: "inception_3b/5x5-se4"

  name: "inception_3b/relu_5x5-se4"

  type: RELU

}

layers {

  bottom: "inception_3a/output-se4"

  top: "inception_3b/pool-se4"

  name: "inception_3b/pool-se4"

  type: POOLING

  pooling_param {

    pool: MAX

    kernel_size: 3

    stride: 1

    pad: 1

  }

}

layers {

  bottom: "inception_3b/pool-se4"

  top: "inception_3b/pool_proj-se4"

  name: "inception_3b/pool_proj-se4"

  type: CONVOLUTION

  blobs_lr: 1

  blobs_lr: 2

  weight_decay: 1

  weight_decay: 0

  convolution_param {

    num_output: 64

    kernel_size: 1

    weight_filler {

      type: "xavier"

      std: 0.1

    }

    bias_filler {

      type: "constant"

      value: 0.2

    }

  }

}

layers {

  bottom: "inception_3b/pool_proj-se4"

  top: "inception_3b/pool_proj-se4"

  name: "inception_3b/relu_pool_proj-se4"

  type: RELU

}

layers {

  bottom: "inception_3b/1x1-se4"

  bottom: "inception_3b/3x3-se4"

  bottom: "inception_3b/5x5-se4"

  bottom: "inception_3b/pool_proj-se4"

  top: "inception_3b/output-se4"

  name: "inception_3b/output-se4"

  type: CONCAT

}

layers {

  bottom: "inception_3b/output-se4"

  top: "pool3/3x3_s2-se4"

  name: "pool3/3x3_s2-se4"

  type: POOLING

  pooling_param {

    pool: MAX

    kernel_size: 3

    stride: 2

  }

}

layers {

  bottom: "pool3/3x3_s2-se4"

  top: "inception_4a/1x1-se4"

  name: "inception_4a/1x1-se4"

  type: CONVOLUTION

  blobs_lr: 1

  blobs_lr: 2

  weight_decay: 1

  weight_decay: 0

  convolution_param {

    num_output: 192

    kernel_size: 1

    weight_filler {

      type: "xavier"

      std: 0.03

    }

    bias_filler {

      type: "constant"

      value: 0.2

    }

  }

}

layers {

  bottom: "inception_4a/1x1-se4"

  top: "inception_4a/1x1-se4"

  name: "inception_4a/relu_1x1-se4"

  type: RELU

}

layers {

  bottom: "pool3/3x3_s2-se4"

  top: "inception_4a/3x3_reduce-se4"

  name: "inception_4a/3x3_reduce-se4"

  type: CONVOLUTION

  blobs_lr: 1

  blobs_lr: 2

  weight_decay: 1

  weight_decay: 0

  convolution_param {

    num_output: 96

    kernel_size: 1

    weight_filler {

      type: "xavier"

      std: 0.09

    }

    bias_filler {

      type: "constant"

      value: 0.2

    }

  }

}

layers {

  bottom: "inception_4a/3x3_reduce-se4"

  top: "inception_4a/3x3_reduce-se4"

  name: "inception_4a/relu_3x3_reduce-se4"

  type: RELU

}

layers {

  bottom: "inception_4a/3x3_reduce-se4"

  top: "inception_4a/3x3-se4"

  name: "inception_4a/3x3-se4"

  type: CONVOLUTION

  blobs_lr: 1

  blobs_lr: 2

  weight_decay: 1

  weight_decay: 0

  convolution_param {

    num_output: 208

    pad: 1

    kernel_size: 3

    weight_filler {

      type: "xavier"

      std: 0.03

    }

    bias_filler {

      type: "constant"

      value: 0.2

    }

  }

}

layers {

  bottom: "inception_4a/3x3-se4"

  top: "inception_4a/3x3-se4"

  name: "inception_4a/relu_3x3-se4"

  type: RELU

}

layers {

  bottom: "pool3/3x3_s2-se4"

  top: "inception_4a/5x5_reduce-se4"

  name: "inception_4a/5x5_reduce-se4"

  type: CONVOLUTION

  blobs_lr: 1

  blobs_lr: 2

  weight_decay: 1

  weight_decay: 0

  convolution_param {

    num_output: 16

    kernel_size: 1

    weight_filler {

      type: "xavier"

      std: 0.2

    }

    bias_filler {

      type: "constant"

      value: 0.2

    }

  }

}

layers {

  bottom: "inception_4a/5x5_reduce-se4"

  top: "inception_4a/5x5_reduce-se4"

  name: "inception_4a/relu_5x5_reduce-se4"

  type: RELU

}

layers {

  bottom: "inception_4a/5x5_reduce-se4"

  top: "inception_4a/5x5-se4"

  name: "inception_4a/5x5-se4"

  type: CONVOLUTION

  blobs_lr: 1

  blobs_lr: 2

  weight_decay: 1

  weight_decay: 0

  convolution_param {

    num_output: 48

    pad: 2

    kernel_size: 5

    weight_filler {

      type: "xavier"

      std: 0.03

    }

    bias_filler {

      type: "constant"

      value: 0.2

    }

  }

}

layers {

  bottom: "inception_4a/5x5-se4"

  top: "inception_4a/5x5-se4"

  name: "inception_4a/relu_5x5-se4"

  type: RELU

}

layers {

  bottom: "pool3/3x3_s2-se4"

  top: "inception_4a/pool-se4"

  name: "inception_4a/pool-se4"

  type: POOLING

  pooling_param {

    pool: MAX

    kernel_size: 3

    stride: 1

    pad: 1

  }

}

layers {

  bottom: "inception_4a/pool-se4"

  top: "inception_4a/pool_proj-se4"

  name: "inception_4a/pool_proj-se4"

  type: CONVOLUTION

  blobs_lr: 1

  blobs_lr: 2

  weight_decay: 1

  weight_decay: 0

  convolution_param {

    num_output: 64

    kernel_size: 1

    weight_filler {

      type: "xavier"

      std: 0.1

    }

    bias_filler {

      type: "constant"

      value: 0.2

    }

  }

}

layers {

  bottom: "inception_4a/pool_proj-se4"

  top: "inception_4a/pool_proj-se4"

  name: "inception_4a/relu_pool_proj-se4"

  type: RELU

}

layers {

  bottom: "inception_4a/1x1-se4"

  bottom: "inception_4a/3x3-se4"

  bottom: "inception_4a/5x5-se4"

  bottom: "inception_4a/pool_proj-se4"

  top: "inception_4a/output-se4"

  name: "inception_4a/output-se4"

  type: CONCAT

}

layers {

  bottom: "inception_4a/output-se4"

  top: "loss1/ave_pool-se4"

  name: "loss1/ave_pool-se4"

  type: POOLING

  pooling_param {

    pool: AVE

    kernel_size: 5

    stride: 3

  }

}

layers {

  bottom: "loss1/ave_pool-se4"

  top: "loss1/conv-se4"

  name: "loss1/conv-se4"

  type: CONVOLUTION

  blobs_lr: 1

  blobs_lr: 2

  weight_decay: 1

  weight_decay: 0

  convolution_param {

    num_output: 128

    kernel_size: 1

    weight_filler {

      type: "xavier"

      std: 0.08

    }

    bias_filler {

      type: "constant"

      value: 0.2

    }

  }

}

layers {

  bottom: "loss1/conv-se4"

  top: "loss1/conv-se4"

  name: "loss1/relu_conv-se4"

  type: RELU

}

layers {

  bottom: "loss1/conv-se4"

  top: "loss1/fc-se4"

  name: "loss1/fc-se4"

  type: INNER_PRODUCT

  blobs_lr: 1

  blobs_lr: 2

  weight_decay: 1

  weight_decay: 0

  inner_product_param {

    num_output: 1024

    weight_filler {

      type: "xavier"

      std: 0.02

    }

    bias_filler {

      type: "constant"

      value: 0.2

    }

  }

}

layers {

  bottom: "loss1/fc-se4"

  top: "loss1/fc-se4"

  name: "loss1/relu_fc-se4"

  type: RELU

}

layers {

  bottom: "loss1/fc-se4"

  top: "loss1/fc-se4"

  name: "loss1/drop_fc-se4"

  type: DROPOUT

  dropout_param {

    dropout_ratio: 0.7

  }

}

layers {

  bottom: "loss1/fc-se4"

  top: "fc-1-se4"

  name: "loss1/classifier-se4"

  type: INNER_PRODUCT

  blobs_lr: 1

  blobs_lr: 2

  weight_decay: 1

  weight_decay: 0

  inner_product_param {

    num_output: 967

    weight_filler {

      type: "xavier"

      std: 0.0009765625

    }

    bias_filler { 

      type: "constant"

      value: 0

    }

  }

}



layers {

  bottom: "inception_4a/output-se4"

  top: "inception_4b/1x1-se4"

  name: "inception_4b/1x1-se4"

  type: CONVOLUTION

  blobs_lr: 1

  blobs_lr: 2

  weight_decay: 1

  weight_decay: 0

  convolution_param {

    num_output: 160

    kernel_size: 1

    weight_filler {

      type: "xavier"

      std: 0.03

    }

    bias_filler {

      type: "constant"

      value: 0.2

    }

  }

}

layers {

  bottom: "inception_4b/1x1-se4"

  top: "inception_4b/1x1-se4"

  name: "inception_4b/relu_1x1-se4"

  type: RELU

}

layers {

  bottom: "inception_4a/output-se4"

  top: "inception_4b/3x3_reduce-se4"

  name: "inception_4b/3x3_reduce-se4"

  type: CONVOLUTION

  blobs_lr: 1

  blobs_lr: 2

  weight_decay: 1

  weight_decay: 0

  convolution_param {

    num_output: 112

    kernel_size: 1

    weight_filler {

      type: "xavier"

      std: 0.09

    }

    bias_filler {

      type: "constant"

      value: 0.2

    }

  }

}

layers {

  bottom: "inception_4b/3x3_reduce-se4"

  top: "inception_4b/3x3_reduce-se4"

  name: "inception_4b/relu_3x3_reduce-se4"

  type: RELU

}

layers {

  bottom: "inception_4b/3x3_reduce-se4"

  top: "inception_4b/3x3-se4"

  name: "inception_4b/3x3-se4"

  type: CONVOLUTION

  blobs_lr: 1

  blobs_lr: 2

  weight_decay: 1

  weight_decay: 0

  convolution_param {

    num_output: 224

    pad: 1

    kernel_size: 3

    weight_filler {

      type: "xavier"

      std: 0.03

    }

    bias_filler {

      type: "constant"

      value: 0.2

    }

  }

}

layers {

  bottom: "inception_4b/3x3-se4"

  top: "inception_4b/3x3-se4"

  name: "inception_4b/relu_3x3-se4"

  type: RELU

}

layers {

  bottom: "inception_4a/output-se4"

  top: "inception_4b/5x5_reduce-se4"

  name: "inception_4b/5x5_reduce-se4"

  type: CONVOLUTION

  blobs_lr: 1

  blobs_lr: 2

  weight_decay: 1

  weight_decay: 0

  convolution_param {

    num_output: 24

    kernel_size: 1

    weight_filler {

      type: "xavier"

      std: 0.2

    }

    bias_filler {

      type: "constant"

      value: 0.2

    }

  }

}

layers {

  bottom: "inception_4b/5x5_reduce-se4"

  top: "inception_4b/5x5_reduce-se4"

  name: "inception_4b/relu_5x5_reduce-se4"

  type: RELU

}

layers {

  bottom: "inception_4b/5x5_reduce-se4"

  top: "inception_4b/5x5-se4"

  name: "inception_4b/5x5-se4"

  type: CONVOLUTION

  blobs_lr: 1

  blobs_lr: 2

  weight_decay: 1

  weight_decay: 0

  convolution_param {

    num_output: 64

    pad: 2

    kernel_size: 5

    weight_filler {

      type: "xavier"

      std: 0.03

    }

    bias_filler {

      type: "constant"

      value: 0.2

    }

  }

}

layers {

  bottom: "inception_4b/5x5-se4"

  top: "inception_4b/5x5-se4"

  name: "inception_4b/relu_5x5-se4"

  type: RELU

}

layers {

  bottom: "inception_4a/output-se4"

  top: "inception_4b/pool-se4"

  name: "inception_4b/pool-se4"

  type: POOLING

  pooling_param {

    pool: MAX

    kernel_size: 3

    stride: 1

    pad: 1

  }

}

layers {

  bottom: "inception_4b/pool-se4"

  top: "inception_4b/pool_proj-se4"

  name: "inception_4b/pool_proj-se4"

  type: CONVOLUTION

  blobs_lr: 1

  blobs_lr: 2

  weight_decay: 1

  weight_decay: 0

  convolution_param {

    num_output: 64

    kernel_size: 1

    weight_filler {

      type: "xavier"

      std: 0.1

    }

    bias_filler {

      type: "constant"

      value: 0.2

    }

  }

}

layers {

  bottom: "inception_4b/pool_proj-se4"

  top: "inception_4b/pool_proj-se4"

  name: "inception_4b/relu_pool_proj-se4"

  type: RELU

}

layers {

  bottom: "inception_4b/1x1-se4"

  bottom: "inception_4b/3x3-se4"

  bottom: "inception_4b/5x5-se4"

  bottom: "inception_4b/pool_proj-se4"

  top: "inception_4b/output-se4"

  name: "inception_4b/output-se4"

  type: CONCAT

}

layers {

  bottom: "inception_4b/output-se4"

  top: "inception_4c/1x1-se4"

  name: "inception_4c/1x1-se4"

  type: CONVOLUTION

  blobs_lr: 1

  blobs_lr: 2

  weight_decay: 1

  weight_decay: 0

  convolution_param {

    num_output: 128

    kernel_size: 1

    weight_filler {

      type: "xavier"

      std: 0.03

    }

    bias_filler {

      type: "constant"

      value: 0.2

    }

  }

}

layers {

  bottom: "inception_4c/1x1-se4"

  top: "inception_4c/1x1-se4"

  name: "inception_4c/relu_1x1-se4"

  type: RELU

}

layers {

  bottom: "inception_4b/output-se4"

  top: "inception_4c/3x3_reduce-se4"

  name: "inception_4c/3x3_reduce-se4"

  type: CONVOLUTION

  blobs_lr: 1

  blobs_lr: 2

  weight_decay: 1

  weight_decay: 0

  convolution_param {

    num_output: 128

    kernel_size: 1

    weight_filler {

      type: "xavier"

      std: 0.09

    }

    bias_filler {

      type: "constant"

      value: 0.2

    }

  }

}

layers {

  bottom: "inception_4c/3x3_reduce-se4"

  top: "inception_4c/3x3_reduce-se4"

  name: "inception_4c/relu_3x3_reduce-se4"

  type: RELU

}

layers {

  bottom: "inception_4c/3x3_reduce-se4"

  top: "inception_4c/3x3-se4"

  name: "inception_4c/3x3-se4"

  type: CONVOLUTION

  blobs_lr: 1

  blobs_lr: 2

  weight_decay: 1

  weight_decay: 0

  convolution_param {

    num_output: 256

    pad: 1

    kernel_size: 3

    weight_filler {

      type: "xavier"

      std: 0.03

    }

    bias_filler {

      type: "constant"

      value: 0.2

    }

  }

}

layers {

  bottom: "inception_4c/3x3-se4"

  top: "inception_4c/3x3-se4"

  name: "inception_4c/relu_3x3-se4"

  type: RELU

}

layers {

  bottom: "inception_4b/output-se4"

  top: "inception_4c/5x5_reduce-se4"

  name: "inception_4c/5x5_reduce-se4"

  type: CONVOLUTION

  blobs_lr: 1

  blobs_lr: 2

  weight_decay: 1

  weight_decay: 0

  convolution_param {

    num_output: 24

    kernel_size: 1

    weight_filler {

      type: "xavier"

      std: 0.2

    }

    bias_filler {

      type: "constant"

      value: 0.2

    }

  }

}

layers {

  bottom: "inception_4c/5x5_reduce-se4"

  top: "inception_4c/5x5_reduce-se4"

  name: "inception_4c/relu_5x5_reduce-se4"

  type: RELU

}

layers {

  bottom: "inception_4c/5x5_reduce-se4"

  top: "inception_4c/5x5-se4"

  name: "inception_4c/5x5-se4"

  type: CONVOLUTION

  blobs_lr: 1

  blobs_lr: 2

  weight_decay: 1

  weight_decay: 0

  convolution_param {

    num_output: 64

    pad: 2

    kernel_size: 5

    weight_filler {

      type: "xavier"

      std: 0.03

    }

    bias_filler {

      type: "constant"

      value: 0.2

    }

  }

}

layers {

  bottom: "inception_4c/5x5-se4"

  top: "inception_4c/5x5-se4"

  name: "inception_4c/relu_5x5-se4"

  type: RELU

}

layers {

  bottom: "inception_4b/output-se4"

  top: "inception_4c/pool-se4"

  name: "inception_4c/pool-se4"

  type: POOLING

  pooling_param {

    pool: MAX

    kernel_size: 3

    stride: 1

    pad: 1

  }

}

layers {

  bottom: "inception_4c/pool-se4"

  top: "inception_4c/pool_proj-se4"

  name: "inception_4c/pool_proj-se4"

  type: CONVOLUTION

  blobs_lr: 1

  blobs_lr: 2

  weight_decay: 1

  weight_decay: 0

  convolution_param {

    num_output: 64

    kernel_size: 1

    weight_filler {

      type: "xavier"

      std: 0.1

    }

    bias_filler {

      type: "constant"

      value: 0.2

    }

  }

}

layers {

  bottom: "inception_4c/pool_proj-se4"

  top: "inception_4c/pool_proj-se4"

  name: "inception_4c/relu_pool_proj-se4"

  type: RELU

}

layers {

  bottom: "inception_4c/1x1-se4"

  bottom: "inception_4c/3x3-se4"

  bottom: "inception_4c/5x5-se4"

  bottom: "inception_4c/pool_proj-se4"

  top: "inception_4c/output-se4"

  name: "inception_4c/output-se4"

  type: CONCAT

}

layers {

  bottom: "inception_4c/output-se4"

  top: "inception_4d/1x1-se4"

  name: "inception_4d/1x1-se4"

  type: CONVOLUTION

  blobs_lr: 1

  blobs_lr: 2

  weight_decay: 1

  weight_decay: 0

  convolution_param {

    num_output: 112

    kernel_size: 1

    weight_filler {

      type: "xavier"

      std: 0.03

    }

    bias_filler {

      type: "constant"

      value: 0.2

    }

  }

}

layers {

  bottom: "inception_4d/1x1-se4"

  top: "inception_4d/1x1-se4"

  name: "inception_4d/relu_1x1-se4"

  type: RELU

}

layers {

  bottom: "inception_4c/output-se4"

  top: "inception_4d/3x3_reduce-se4"

  name: "inception_4d/3x3_reduce-se4"

  type: CONVOLUTION

  blobs_lr: 1

  blobs_lr: 2

  weight_decay: 1

  weight_decay: 0

  convolution_param {

    num_output: 144

    kernel_size: 1

    weight_filler {

      type: "xavier"

      std: 0.09

    }

    bias_filler {

      type: "constant"

      value: 0.2

    }

  }

}

layers {

  bottom: "inception_4d/3x3_reduce-se4"

  top: "inception_4d/3x3_reduce-se4"

  name: "inception_4d/relu_3x3_reduce-se4"

  type: RELU

}

layers {

  bottom: "inception_4d/3x3_reduce-se4"

  top: "inception_4d/3x3-se4"

  name: "inception_4d/3x3-se4"

  type: CONVOLUTION

  blobs_lr: 1

  blobs_lr: 2

  weight_decay: 1

  weight_decay: 0

  convolution_param {

    num_output: 288

    pad: 1

    kernel_size: 3

    weight_filler {

      type: "xavier"

      std: 0.03

    }

    bias_filler {

      type: "constant"

      value: 0.2

    }

  }

}

layers {

  bottom: "inception_4d/3x3-se4"

  top: "inception_4d/3x3-se4"

  name: "inception_4d/relu_3x3-se4"

  type: RELU

}

layers {

  bottom: "inception_4c/output-se4"

  top: "inception_4d/5x5_reduce-se4"

  name: "inception_4d/5x5_reduce-se4"

  type: CONVOLUTION

  blobs_lr: 1

  blobs_lr: 2

  weight_decay: 1

  weight_decay: 0

  convolution_param {

    num_output: 32

    kernel_size: 1

    weight_filler {

      type: "xavier"

      std: 0.2

    }

    bias_filler {

      type: "constant"

      value: 0.2

    }

  }

}

layers {

  bottom: "inception_4d/5x5_reduce-se4"

  top: "inception_4d/5x5_reduce-se4"

  name: "inception_4d/relu_5x5_reduce-se4"

  type: RELU

}

layers {

  bottom: "inception_4d/5x5_reduce-se4"

  top: "inception_4d/5x5-se4"

  name: "inception_4d/5x5-se4"

  type: CONVOLUTION

  blobs_lr: 1

  blobs_lr: 2

  weight_decay: 1

  weight_decay: 0

  convolution_param {

    num_output: 64

    pad: 2

    kernel_size: 5

    weight_filler {

      type: "xavier"

      std: 0.03

    }

    bias_filler {

      type: "constant"

      value: 0.2

    }

  }

}

layers {

  bottom: "inception_4d/5x5-se4"

  top: "inception_4d/5x5-se4"

  name: "inception_4d/relu_5x5-se4"

  type: RELU

}

layers {

  bottom: "inception_4c/output-se4"

  top: "inception_4d/pool-se4"

  name: "inception_4d/pool-se4"

  type: POOLING

  pooling_param {

    pool: MAX

    kernel_size: 3

    stride: 1

    pad: 1

  }

}

layers {

  bottom: "inception_4d/pool-se4"

  top: "inception_4d/pool_proj-se4"

  name: "inception_4d/pool_proj-se4"

  type: CONVOLUTION

  blobs_lr: 1

  blobs_lr: 2

  weight_decay: 1

  weight_decay: 0

  convolution_param {

    num_output: 64

    kernel_size: 1

    weight_filler {

      type: "xavier"

      std: 0.1

    }

    bias_filler {

      type: "constant"

      value: 0.2

    }

  }

}

layers {

  bottom: "inception_4d/pool_proj-se4"

…
  top: "slice-2-4-273"
  top: "slice-2-4-274"
  top: "slice-2-4-275"
  top: "slice-2-4-276"
  top: "slice-2-4-277"
  top: "slice-2-4-278"
  top: "slice-2-4-279"
  top: "slice-2-4-280"
  top: "slice-2-4-281"
  top: "slice-2-4-282"
  top: "slice-2-4-283"
  top: "slice-2-4-284"
  top: "slice-2-4-285"
  top: "slice-2-4-286"
  top: "slice-2-4-287"
  top: "slice-2-4-288"
  top: "slice-2-4-289"
  top: "slice-2-4-290"
  top: "slice-2-4-291"
  top: "slice-2-4-292"
  top: "slice-2-4-293"
  top: "slice-2-4-294"
  top: "slice-2-4-295"
  top: "slice-2-4-296"
  top: "slice-2-4-297"
  top: "slice-2-4-298"
  top: "slice-2-4-299"
  top: "slice-2-4-300"
  top: "slice-2-4-301"
  top: "slice-2-4-302"
  top: "slice-2-4-303"
  top: "slice-2-4-304"
  top: "slice-2-4-305"
  top: "slice-2-4-306"
  top: "slice-2-4-307"
  top: "slice-2-4-308"
  top: "slice-2-4-309"
  top: "slice-2-4-310"
  top: "slice-2-4-311"
  top: "slice-2-4-312"
  top: "slice-2-4-313"
  top: "slice-2-4-314"
  top: "slice-2-4-315"
  top: "slice-2-4-316"
  top: "slice-2-4-317"
  top: "slice-2-4-318"
  top: "slice-2-4-319"
  top: "slice-2-4-320"
  top: "slice-2-4-321"
  top: "slice-2-4-322"
  top: "slice-2-4-323"
  top: "slice-2-4-324"
  top: "slice-2-4-325"
  top: "slice-2-4-326"
  top: "slice-2-4-327"
  top: "slice-2-4-328"
  top: "slice-2-4-329"
  top: "slice-2-4-330"
  top: "slice-2-4-331"
  top: "slice-2-4-332"
  top: "slice-2-4-333"
  top: "slice-2-4-334"
  top: "slice-2-4-335"
  top: "slice-2-4-336"
  top: "slice-2-4-337"
  top: "slice-2-4-338"
  top: "slice-2-4-339"
  top: "slice-2-4-340"
  top: "slice-2-4-341"
  top: "slice-2-4-342"
  top: "slice-2-4-343"
  top: "slice-2-4-344"
  top: "slice-2-4-345"
  top: "slice-2-4-346"
  top: "slice-2-4-347"
  top: "slice-2-4-348"
  top: "slice-2-4-349"
  top: "slice-2-4-350"
  top: "slice-2-4-351"
  top: "slice-2-4-352"
  top: "slice-2-4-353"
  top: "slice-2-4-354"
  top: "slice-2-4-355"
  top: "slice-2-4-356"
  top: "slice-2-4-357"
  top: "slice-2-4-358"
  top: "slice-2-4-359"
  top: "slice-2-4-360"
  top: "slice-2-4-361"
  top: "slice-2-4-362"
  top: "slice-2-4-363"
  top: "slice-2-4-364"
  top: "slice-2-4-365"
  top: "slice-2-4-366"
  top: "slice-2-4-367"
  top: "slice-2-4-368"
  top: "slice-2-4-369"
  top: "slice-2-4-370"
  top: "slice-2-4-371"
  top: "slice-2-4-372"
  top: "slice-2-4-373"
  top: "slice-2-4-374"
  top: "slice-2-4-375"
  top: "slice-2-4-376"
  top: "slice-2-4-377"
  top: "slice-2-4-378"
  top: "slice-2-4-379"
  top: "slice-2-4-380"
  top: "slice-2-4-381"
  top: "slice-2-4-382"
  top: "slice-2-4-383"
  top: "slice-2-4-384"
  top: "slice-2-4-385"
  top: "slice-2-4-386"
  top: "slice-2-4-387"
  top: "slice-2-4-388"
  top: "slice-2-4-389"
  top: "slice-2-4-390"
  top: "slice-2-4-391"
  top: "slice-2-4-392"
  top: "slice-2-4-393"
  top: "slice-2-4-394"
  top: "slice-2-4-395"
  top: "slice-2-4-396"
  top: "slice-2-4-397"
  top: "slice-2-4-398"
  top: "slice-2-4-399"
  top: "slice-2-4-400"
  top: "slice-2-4-401"
  top: "slice-2-4-402"
  top: "slice-2-4-403"
  top: "slice-2-4-404"
  top: "slice-2-4-405"
  top: "slice-2-4-406"
  top: "slice-2-4-407"
  top: "slice-2-4-408"
  top: "slice-2-4-409"
  top: "slice-2-4-410"
  top: "slice-2-4-411"
  top: "slice-2-4-412"
  top: "slice-2-4-413"
  top: "slice-2-4-414"
  top: "slice-2-4-415"
  top: "slice-2-4-416"
  top: "slice-2-4-417"
  top: "slice-2-4-418"
  top: "slice-2-4-419"
  top: "slice-2-4-420"
  top: "slice-2-4-421"
  top: "slice-2-4-422"
  top: "slice-2-4-423"
  top: "slice-2-4-424"
  top: "slice-2-4-425"
  top: "slice-2-4-426"
  top: "slice-2-4-427"
  top: "slice-2-4-428"
  top: "slice-2-4-429"
  top: "slice-2-4-430"
  top: "slice-2-4-431"
  top: "slice-2-4-432"
  top: "slice-2-4-433"
  top: "slice-2-4-434"
  top: "slice-2-4-435"
  top: "slice-2-4-436"
  top: "slice-2-4-437"
  top: "slice-2-4-438"
  top: "slice-2-4-439"
  top: "slice-2-4-440"
  top: "slice-2-4-441"
  top: "slice-2-4-442"
  top: "slice-2-4-443"
  top: "slice-2-4-444"
  top: "slice-2-4-445"
  top: "slice-2-4-446"
  top: "slice-2-4-447"
  top: "slice-2-4-448"
  top: "slice-2-4-449"
  top: "slice-2-4-450"
  top: "slice-2-4-451"
  top: "slice-2-4-452"
  top: "slice-2-4-453"
  top: "slice-2-4-454"
  top: "slice-2-4-455"
  top: "slice-2-4-456"
  top: "slice-2-4-457"
  top: "slice-2-4-458"
  top: "slice-2-4-459"
  top: "slice-2-4-460"
  top: "slice-2-4-461"
  top: "slice-2-4-462"
  top: "slice-2-4-463"
  top: "slice-2-4-464"
  top: "slice-2-4-465"
  top: "slice-2-4-466"
  top: "slice-2-4-467"
  top: "slice-2-4-468"
  top: "slice-2-4-469"
  top: "slice-2-4-470"
  top: "slice-2-4-471"
  top: "slice-2-4-472"
  top: "slice-2-4-473"
  top: "slice-2-4-474"
  top: "slice-2-4-475"
  top: "slice-2-4-476"
  top: "slice-2-4-477"
  top: "slice-2-4-478"
  top: "slice-2-4-479"
  top: "slice-2-4-480"
  top: "slice-2-4-481"
  top: "slice-2-4-482"
  top: "slice-2-4-483"
  top: "slice-2-4-484"
  top: "slice-2-4-485"
  top: "slice-2-4-486"
  top: "slice-2-4-487"
  top: "slice-2-4-488"
  top: "slice-2-4-489"
  top: "slice-2-4-490"
  top: "slice-2-4-491"
  top: "slice-2-4-492"
  top: "slice-2-4-493"
  top: "slice-2-4-494"
  top: "slice-2-4-495"
  top: "slice-2-4-496"
  top: "slice-2-4-497"
  top: "slice-2-4-498"
  top: "slice-2-4-499"
  top: "slice-2-4-500"
  top: "slice-2-4-501"
  top: "slice-2-4-502"
  top: "slice-2-4-503"
  top: "slice-2-4-504"
  top: "slice-2-4-505"
  top: "slice-2-4-506"
  top: "slice-2-4-507"
  top: "slice-2-4-508"
  top: "slice-2-4-509"
  top: "slice-2-4-510"
  top: "slice-2-4-511"
  top: "slice-2-4-512"
  top: "slice-2-4-513"
  top: "slice-2-4-514"
  top: "slice-2-4-515"
  top: "slice-2-4-516"
  top: "slice-2-4-517"
  top: "slice-2-4-518"
  top: "slice-2-4-519"
  top: "slice-2-4-520"
  top: "slice-2-4-521"
  top: "slice-2-4-522"
  top: "slice-2-4-523"
  top: "slice-2-4-524"
  top: "slice-2-4-525"
  top: "slice-2-4-526"
  top: "slice-2-4-527"
  top: "slice-2-4-528"
  top: "slice-2-4-529"
  top: "slice-2-4-530"
  top: "slice-2-4-531"
  top: "slice-2-4-532"
  top: "slice-2-4-533"
  top: "slice-2-4-534"
  top: "slice-2-4-535"
  top: "slice-2-4-536"
  top: "slice-2-4-537"
  top: "slice-2-4-538"
  top: "slice-2-4-539"
  top: "slice-2-4-540"
  top: "slice-2-4-541"
  top: "slice-2-4-542"
  top: "slice-2-4-543"
  top: "slice-2-4-544"
  top: "slice-2-4-545"
  top: "slice-2-4-546"
  top: "slice-2-4-547"
  top: "slice-2-4-548"
  top: "slice-2-4-549"
  top: "slice-2-4-550"
  top: "slice-2-4-551"
  top: "slice-2-4-552"
  top: "slice-2-4-553"
  top: "slice-2-4-554"
  top: "slice-2-4-555"
  top: "slice-2-4-556"
  top: "slice-2-4-557"
  top: "slice-2-4-558"
  top: "slice-2-4-559"
  top: "slice-2-4-560"
  top: "slice-2-4-561"
  top: "slice-2-4-562"
  top: "slice-2-4-563"
  top: "slice-2-4-564"
  top: "slice-2-4-565"
  top: "slice-2-4-566"
  top: "slice-2-4-567"
  top: "slice-2-4-568"
  top: "slice-2-4-569"
  top: "slice-2-4-570"
  top: "slice-2-4-571"
  top: "slice-2-4-572"
  top: "slice-2-4-573"
  top: "slice-2-4-574"
  top: "slice-2-4-575"
  top: "slice-2-4-576"
  top: "slice-2-4-577"
  top: "slice-2-4-578"
  top: "slice-2-4-579"
  top: "slice-2-4-580"
  top: "slice-2-4-581"
  top: "slice-2-4-582"
  top: "slice-2-4-583"
  top: "slice-2-4-584"
  top: "slice-2-4-585"
  top: "slice-2-4-586"
  top: "slice-2-4-587"
  top: "slice-2-4-588"
  top: "slice-2-4-589"
  top: "slice-2-4-590"
  top: "slice-2-4-591"
  top: "slice-2-4-592"
  top: "slice-2-4-593"
  top: "slice-2-4-594"
  top: "slice-2-4-595"
  top: "slice-2-4-596"
  top: "slice-2-4-597"
  top: "slice-2-4-598"
  top: "slice-2-4-599"
  top: "slice-2-4-600"
  top: "slice-2-4-601"
  top: "slice-2-4-602"
  top: "slice-2-4-603"
  top: "slice-2-4-604"
  top: "slice-2-4-605"
  top: "slice-2-4-606"
  top: "slice-2-4-607"
  top: "slice-2-4-608"
  top: "slice-2-4-609"
  top: "slice-2-4-610"
  top: "slice-2-4-611"
  top: "slice-2-4-612"
  top: "slice-2-4-613"
  top: "slice-2-4-614"
  top: "slice-2-4-615"
  top: "slice-2-4-616"
  top: "slice-2-4-617"
  top: "slice-2-4-618"
  top: "slice-2-4-619"
  top: "slice-2-4-620"
  top: "slice-2-4-621"
  top: "slice-2-4-622"
  top: "slice-2-4-623"
  top: "slice-2-4-624"
  top: "slice-2-4-625"
  top: "slice-2-4-626"
  top: "slice-2-4-627"
  top: "slice-2-4-628"
  top: "slice-2-4-629"
  top: "slice-2-4-630"
  top: "slice-2-4-631"
  top: "slice-2-4-632"
  top: "slice-2-4-633"
  top: "slice-2-4-634"
  top: "slice-2-4-635"
  top: "slice-2-4-636"
  top: "slice-2-4-637"
  top: "slice-2-4-638"
  top: "slice-2-4-639"
  top: "slice-2-4-640"
  top: "slice-2-4-641"
  top: "slice-2-4-642"
  top: "slice-2-4-643"
  top: "slice-2-4-644"
  top: "slice-2-4-645"
  top: "slice-2-4-646"
  top: "slice-2-4-647"
  top: "slice-2-4-648"
  top: "slice-2-4-649"
  top: "slice-2-4-650"
  top: "slice-2-4-651"
  top: "slice-2-4-652"
  top: "slice-2-4-653"
  top: "slice-2-4-654"
  top: "slice-2-4-655"
  top: "slice-2-4-656"
  top: "slice-2-4-657"
  top: "slice-2-4-658"
  top: "slice-2-4-659"
  top: "slice-2-4-660"
  top: "slice-2-4-661"
  top: "slice-2-4-662"
  top: "slice-2-4-663"
  top: "slice-2-4-664"
  top: "slice-2-4-665"
  top: "slice-2-4-666"
  top: "slice-2-4-667"
  top: "slice-2-4-668"
  top: "slice-2-4-669"
  top: "slice-2-4-670"
  top: "slice-2-4-671"
  top: "slice-2-4-672"
  top: "slice-2-4-673"
  top: "slice-2-4-674"
  top: "slice-2-4-675"
  top: "slice-2-4-676"
  top: "slice-2-4-677"
  top: "slice-2-4-678"
  top: "slice-2-4-679"
  top: "slice-2-4-680"
  top: "slice-2-4-681"
  top: "slice-2-4-682"
  top: "slice-2-4-683"
  top: "slice-2-4-684"
  top: "slice-2-4-685"
  top: "slice-2-4-686"
  top: "slice-2-4-687"
  top: "slice-2-4-688"
  top: "slice-2-4-689"
  top: "slice-2-4-690"
  top: "slice-2-4-691"
  top: "slice-2-4-692"
  top: "slice-2-4-693"
  top: "slice-2-4-694"
  top: "slice-2-4-695"
  top: "slice-2-4-696"
  top: "slice-2-4-697"
  top: "slice-2-4-698"
  top: "slice-2-4-699"
  top: "slice-2-4-700"
  top: "slice-2-4-701"
  top: "slice-2-4-702"
  top: "slice-2-4-703"
  top: "slice-2-4-704"
  top: "slice-2-4-705"
  top: "slice-2-4-706"
  top: "slice-2-4-707"
  top: "slice-2-4-708"
  top: "slice-2-4-709"
  top: "slice-2-4-710"
  top: "slice-2-4-711"
  top: "slice-2-4-712"
  top: "slice-2-4-713"
  top: "slice-2-4-714"
  top: "slice-2-4-715"
  top: "slice-2-4-716"
  top: "slice-2-4-717"
  top: "slice-2-4-718"
  top: "slice-2-4-719"
  top: "slice-2-4-720"
  top: "slice-2-4-721"
  top: "slice-2-4-722"
  top: "slice-2-4-723"
  top: "slice-2-4-724"
  top: "slice-2-4-725"
  top: "slice-2-4-726"
  top: "slice-2-4-727"
  top: "slice-2-4-728"
  top: "slice-2-4-729"
  top: "slice-2-4-730"
  top: "slice-2-4-731"
  top: "slice-2-4-732"
  top: "slice-2-4-733"
  top: "slice-2-4-734"
  top: "slice-2-4-735"
  top: "slice-2-4-736"
  top: "slice-2-4-737"
  top: "slice-2-4-738"
  top: "slice-2-4-739"
  top: "slice-2-4-740"
  top: "slice-2-4-741"
  top: "slice-2-4-742"
  top: "slice-2-4-743"
  top: "slice-2-4-744"
  top: "slice-2-4-745"
  top: "slice-2-4-746"
  top: "slice-2-4-747"
  top: "slice-2-4-748"
  top: "slice-2-4-749"
  top: "slice-2-4-750"
  top: "slice-2-4-751"
  top: "slice-2-4-752"
  top: "slice-2-4-753"
  top: "slice-2-4-754"
  top: "slice-2-4-755"
  top: "slice-2-4-756"
  top: "slice-2-4-757"
  top: "slice-2-4-758"
  top: "slice-2-4-759"
  top: "slice-2-4-760"
  top: "slice-2-4-761"
  top: "slice-2-4-762"
  top: "slice-2-4-763"
  top: "slice-2-4-764"
  top: "slice-2-4-765"
  top: "slice-2-4-766"
  top: "slice-2-4-767"
  top: "slice-2-4-768"
  top: "slice-2-4-769"
  top: "slice-2-4-770"
  top: "slice-2-4-771"
  top: "slice-2-4-772"
  top: "slice-2-4-773"
  top: "slice-2-4-774"
  top: "slice-2-4-775"
  top: "slice-2-4-776"
  top: "slice-2-4-777"
  top: "slice-2-4-778"
  top: "slice-2-4-779"
  top: "slice-2-4-780"
  top: "slice-2-4-781"
  top: "slice-2-4-782"
  top: "slice-2-4-783"
  top: "slice-2-4-784"
  top: "slice-2-4-785"
  top: "slice-2-4-786"
  top: "slice-2-4-787"
  top: "slice-2-4-788"
  top: "slice-2-4-789"
  top: "slice-2-4-790"
  top: "slice-2-4-791"
  top: "slice-2-4-792"
  top: "slice-2-4-793"
  top: "slice-2-4-794"
  top: "slice-2-4-795"
  top: "slice-2-4-796"
  top: "slice-2-4-797"
  top: "slice-2-4-798"
  top: "slice-2-4-799"
  top: "slice-2-4-800"
  top: "slice-2-4-801"
  top: "slice-2-4-802"
  top: "slice-2-4-803"
  top: "slice-2-4-804"
  top: "slice-2-4-805"
  top: "slice-2-4-806"
  top: "slice-2-4-807"
  top: "slice-2-4-808"
  top: "slice-2-4-809"
  top: "slice-2-4-810"
  top: "slice-2-4-811"
  top: "slice-2-4-812"
  top: "slice-2-4-813"
  top: "slice-2-4-814"
  top: "slice-2-4-815"
  top: "slice-2-4-816"
  top: "slice-2-4-817"
  top: "slice-2-4-818"
  top: "slice-2-4-819"
  top: "slice-2-4-820"
  top: "slice-2-4-821"
  top: "slice-2-4-822"
  top: "slice-2-4-823"
  top: "slice-2-4-824"
  top: "slice-2-4-825"
  top: "slice-2-4-826"
  top: "slice-2-4-827"
  top: "slice-2-4-828"
  top: "slice-2-4-829"
  top: "slice-2-4-830"
  top: "slice-2-4-831"
  top: "slice-2-4-832"
  top: "slice-2-4-833"
  top: "slice-2-4-834"
  top: "slice-2-4-835"
  top: "slice-2-4-836"
  top: "slice-2-4-837"
  top: "slice-2-4-838"
  top: "slice-2-4-839"
  top: "slice-2-4-840"
  top: "slice-2-4-841"
  top: "slice-2-4-842"
  top: "slice-2-4-843"
  top: "slice-2-4-844"
  top: "slice-2-4-845"
  top: "slice-2-4-846"
  top: "slice-2-4-847"
  top: "slice-2-4-848"
  top: "slice-2-4-849"
  top: "slice-2-4-850"
  top: "slice-2-4-851"
  top: "slice-2-4-852"
  top: "slice-2-4-853"
  top: "slice-2-4-854"
  top: "slice-2-4-855"
  top: "slice-2-4-856"
  top: "slice-2-4-857"
  top: "slice-2-4-858"
  top: "slice-2-4-859"
  top: "slice-2-4-860"
  top: "slice-2-4-861"
  top: "slice-2-4-862"
  top: "slice-2-4-863"
  top: "slice-2-4-864"
  top: "slice-2-4-865"
  top: "slice-2-4-866"
  top: "slice-2-4-867"
  top: "slice-2-4-868"
  top: "slice-2-4-869"
  top: "slice-2-4-870"
  top: "slice-2-4-871"
  top: "slice-2-4-872"
  top: "slice-2-4-873"
  top: "slice-2-4-874"
  top: "slice-2-4-875"
  top: "slice-2-4-876"
  top: "slice-2-4-877"
  top: "slice-2-4-878"
  top: "slice-2-4-879"
  top: "slice-2-4-880"
  top: "slice-2-4-881"
  top: "slice-2-4-882"
  top: "slice-2-4-883"
  top: "slice-2-4-884"
  top: "slice-2-4-885"
  top: "slice-2-4-886"
  top: "slice-2-4-887"
  top: "slice-2-4-888"
  top: "slice-2-4-889"
  top: "slice-2-4-890"
  top: "slice-2-4-891"
  top: "slice-2-4-892"
  top: "slice-2-4-893"
  top: "slice-2-4-894"
  top: "slice-2-4-895"
  top: "slice-2-4-896"
  top: "slice-2-4-897"
  top: "slice-2-4-898"
  top: "slice-2-4-899"
  top: "slice-2-4-900"
  top: "slice-2-4-901"
  top: "slice-2-4-902"
  top: "slice-2-4-903"
  top: "slice-2-4-904"
  top: "slice-2-4-905"
  top: "slice-2-4-906"
  top: "slice-2-4-907"
  top: "slice-2-4-908"
  top: "slice-2-4-909"
  top: "slice-2-4-910"
  top: "slice-2-4-911"
  top: "slice-2-4-912"
  top: "slice-2-4-913"
  top: "slice-2-4-914"
  top: "slice-2-4-915"
  top: "slice-2-4-916"
  top: "slice-2-4-917"
  top: "slice-2-4-918"
  top: "slice-2-4-919"
  top: "slice-2-4-920"
  top: "slice-2-4-921"
  top: "slice-2-4-922"
  top: "slice-2-4-923"
  top: "slice-2-4-924"
  top: "slice-2-4-925"
  top: "slice-2-4-926"
  top: "slice-2-4-927"
  top: "slice-2-4-928"
  top: "slice-2-4-929"
  top: "slice-2-4-930"
  top: "slice-2-4-931"
  top: "slice-2-4-932"
  top: "slice-2-4-933"
  top: "slice-2-4-934"
  top: "slice-2-4-935"
  top: "slice-2-4-936"
  top: "slice-2-4-937"
  top: "slice-2-4-938"
  top: "slice-2-4-939"
  top: "slice-2-4-940"
  top: "slice-2-4-941"
  top: "slice-2-4-942"
  top: "slice-2-4-943"
  top: "slice-2-4-944"
  top: "slice-2-4-945"
  top: "slice-2-4-946"
  top: "slice-2-4-947"
  top: "slice-2-4-948"
  top: "slice-2-4-949"
  top: "slice-2-4-950"
  top: "slice-2-4-951"
  top: "slice-2-4-952"
  top: "slice-2-4-953"
  top: "slice-2-4-954"
  top: "slice-2-4-955"
  top: "slice-2-4-956"
  top: "slice-2-4-957"
  top: "slice-2-4-958"
  top: "slice-2-4-959"
  top: "slice-2-4-960"
  top: "slice-2-4-961"
  top: "slice-2-4-962"
  top: "slice-2-4-963"
  top: "slice-2-4-964"
  top: "slice-2-4-965"
  top: "slice-2-4-966"
  top: "slice-2-4-967"
}
layers {
  type:ELTWISE
  name:"max-fc-2-se4"
  top:"max-fc-2-se4"
  bottom: "slice-2-4-1"
  bottom: "slice-2-4-2"
  bottom: "slice-2-4-3"
  bottom: "slice-2-4-4"
  bottom: "slice-2-4-5"
  bottom: "slice-2-4-6"
  bottom: "slice-2-4-7"
  bottom: "slice-2-4-8"
  bottom: "slice-2-4-9"
  bottom: "slice-2-4-10"
  bottom: "slice-2-4-11"
  bottom: "slice-2-4-12"
  bottom: "slice-2-4-13"
  bottom: "slice-2-4-14"
  bottom: "slice-2-4-15"
  bottom: "slice-2-4-16"
  bottom: "slice-2-4-17"
  bottom: "slice-2-4-18"
  bottom: "slice-2-4-19"
  bottom: "slice-2-4-20"
  bottom: "slice-2-4-21"
  bottom: "slice-2-4-22"
  bottom: "slice-2-4-23"
  bottom: "slice-2-4-24"
  bottom: "slice-2-4-25"
  bottom: "slice-2-4-26"
  bottom: "slice-2-4-27"
  bottom: "slice-2-4-28"
  bottom: "slice-2-4-29"
  bottom: "slice-2-4-30"
  bottom: "slice-2-4-31"
  bottom: "slice-2-4-32"
  bottom: "slice-2-4-33"
  bottom: "slice-2-4-34"
  bottom: "slice-2-4-35"
  bottom: "slice-2-4-36"
  bottom: "slice-2-4-37"
  bottom: "slice-2-4-38"
  bottom: "slice-2-4-39"
  bottom: "slice-2-4-40"
  bottom: "slice-2-4-41"
  bottom: "slice-2-4-42"
  bottom: "slice-2-4-43"
  bottom: "slice-2-4-44"
  bottom: "slice-2-4-45"
  bottom: "slice-2-4-46"
  bottom: "slice-2-4-47"
  bottom: "slice-2-4-48"
  bottom: "slice-2-4-49"
  bottom: "slice-2-4-50"
  bottom: "slice-2-4-51"
  bottom: "slice-2-4-52"
  bottom: "slice-2-4-53"
  bottom: "slice-2-4-54"
  bottom: "slice-2-4-55"
  bottom: "slice-2-4-56"
  bottom: "slice-2-4-57"
  bottom: "slice-2-4-58"
  bottom: "slice-2-4-59"
  bottom: "slice-2-4-60"
  bottom: "slice-2-4-61"
  bottom: "slice-2-4-62"
  bottom: "slice-2-4-63"
  bottom: "slice-2-4-64"
  bottom: "slice-2-4-65"
  bottom: "slice-2-4-66"
  bottom: "slice-2-4-67"
  bottom: "slice-2-4-68"
  bottom: "slice-2-4-69"
  bottom: "slice-2-4-70"
  bottom: "slice-2-4-71"
  bottom: "slice-2-4-72"
  bottom: "slice-2-4-73"
  bottom: "slice-2-4-74"
  bottom: "slice-2-4-75"
  bottom: "slice-2-4-76"
  bottom: "slice-2-4-77"
  bottom: "slice-2-4-78"
  bottom: "slice-2-4-79"
  bottom: "slice-2-4-80"
  bottom: "slice-2-4-81"
  bottom: "slice-2-4-82"
  bottom: "slice-2-4-83"
  bottom: "slice-2-4-84"
  bottom: "slice-2-4-85"
  bottom: "slice-2-4-86"
  bottom: "slice-2-4-87"
  bottom: "slice-2-4-88"
  bottom: "slice-2-4-89"
  bottom: "slice-2-4-90"
  bottom: "slice-2-4-91"
  bottom: "slice-2-4-92"
  bottom: "slice-2-4-93"
  bottom: "slice-2-4-94"
  bottom: "slice-2-4-95"
  bottom: "slice-2-4-96"
  bottom: "slice-2-4-97"
  bottom: "slice-2-4-98"
  bottom: "slice-2-4-99"
  bottom: "slice-2-4-100"
  bottom: "slice-2-4-101"
  bottom: "slice-2-4-102"
  bottom: "slice-2-4-103"
  bottom: "slice-2-4-104"
  bottom: "slice-2-4-105"
  bottom: "slice-2-4-106"
  bottom: "slice-2-4-107"
  bottom: "slice-2-4-108"
  bottom: "slice-2-4-109"
  bottom: "slice-2-4-110"
  bottom: "slice-2-4-111"
  bottom: "slice-2-4-112"
  bottom: "slice-2-4-113"
  bottom: "slice-2-4-114"
  bottom: "slice-2-4-115"
  bottom: "slice-2-4-116"
  bottom: "slice-2-4-117"
  bottom: "slice-2-4-118"
  bottom: "slice-2-4-119"
  bottom: "slice-2-4-120"
  bottom: "slice-2-4-121"
  bottom: "slice-2-4-122"
  bottom: "slice-2-4-123"
  bottom: "slice-2-4-124"
  bottom: "slice-2-4-125"
  bottom: "slice-2-4-126"
  bottom: "slice-2-4-127"
  bottom: "slice-2-4-128"
  bottom: "slice-2-4-129"
  bottom: "slice-2-4-130"
  bottom: "slice-2-4-131"
  bottom: "slice-2-4-132"
  bottom: "slice-2-4-133"
  bottom: "slice-2-4-134"
  bottom: "slice-2-4-135"
  bottom: "slice-2-4-136"
  bottom: "slice-2-4-137"
  bottom: "slice-2-4-138"
  bottom: "slice-2-4-139"
  bottom: "slice-2-4-140"
  bottom: "slice-2-4-141"
  bottom: "slice-2-4-142"
  bottom: "slice-2-4-143"
  bottom: "slice-2-4-144"
  bottom: "slice-2-4-145"
  bottom: "slice-2-4-146"
  bottom: "slice-2-4-147"
  bottom: "slice-2-4-148"
  bottom: "slice-2-4-149"
  bottom: "slice-2-4-150"
  bottom: "slice-2-4-151"
  bottom: "slice-2-4-152"
  bottom: "slice-2-4-153"
  bottom: "slice-2-4-154"
  bottom: "slice-2-4-155"
  bottom: "slice-2-4-156"
  bottom: "slice-2-4-157"
  bottom: "slice-2-4-158"
  bottom: "slice-2-4-159"
  bottom: "slice-2-4-160"
  bottom: "slice-2-4-161"
  bottom: "slice-2-4-162"
  bottom: "slice-2-4-163"
  bottom: "slice-2-4-164"
  bottom: "slice-2-4-165"
  bottom: "slice-2-4-166"
  bottom: "slice-2-4-167"
  bottom: "slice-2-4-168"
  bottom: "slice-2-4-169"
  bottom: "slice-2-4-170"
  bottom: "slice-2-4-171"
  bottom: "slice-2-4-172"
  bottom: "slice-2-4-173"
  bottom: "slice-2-4-174"
  bottom: "slice-2-4-175"
  bottom: "slice-2-4-176"
  bottom: "slice-2-4-177"
  bottom: "slice-2-4-178"
  bottom: "slice-2-4-179"
  bottom: "slice-2-4-180"
  bottom: "slice-2-4-181"
  bottom: "slice-2-4-182"
  bottom: "slice-2-4-183"
  bottom: "slice-2-4-184"
  bottom: "slice-2-4-185"
  bottom: "slice-2-4-186"
  bottom: "slice-2-4-187"
  bottom: "slice-2-4-188"
  bottom: "slice-2-4-189"
  bottom: "slice-2-4-190"
  bottom: "slice-2-4-191"
  bottom: "slice-2-4-192"
  bottom: "slice-2-4-193"
  bottom: "slice-2-4-194"
  bottom: "slice-2-4-195"
  bottom: "slice-2-4-196"
  bottom: "slice-2-4-197"
  bottom: "slice-2-4-198"
  bottom: "slice-2-4-199"
  bottom: "slice-2-4-200"
  bottom: "slice-2-4-201"
  bottom: "slice-2-4-202"
  bottom: "slice-2-4-203"
  bottom: "slice-2-4-204"
  bottom: "slice-2-4-205"
  bottom: "slice-2-4-206"
  bottom: "slice-2-4-207"
  bottom: "slice-2-4-208"
  bottom: "slice-2-4-209"
  bottom: "slice-2-4-210"
  bottom: "slice-2-4-211"
  bottom: "slice-2-4-212"
  bottom: "slice-2-4-213"
  bottom: "slice-2-4-214"
  bottom: "slice-2-4-215"
  bottom: "slice-2-4-216"
  bottom: "slice-2-4-217"
  bottom: "slice-2-4-218"
  bottom: "slice-2-4-219"
  bottom: "slice-2-4-220"
  bottom: "slice-2-4-221"
  bottom: "slice-2-4-222"
  bottom: "slice-2-4-223"
  bottom: "slice-2-4-224"
  bottom: "slice-2-4-225"
  bottom: "slice-2-4-226"
  bottom: "slice-2-4-227"
  bottom: "slice-2-4-228"
  bottom: "slice-2-4-229"
  bottom: "slice-2-4-230"
  bottom: "slice-2-4-231"
  bottom: "slice-2-4-232"
  bottom: "slice-2-4-233"
  bottom: "slice-2-4-234"
  bottom: "slice-2-4-235"
  bottom: "slice-2-4-236"
  bottom: "slice-2-4-237"
  bottom: "slice-2-4-238"
  bottom: "slice-2-4-239"
  bottom: "slice-2-4-240"
  bottom: "slice-2-4-241"
  bottom: "slice-2-4-242"
  bottom: "slice-2-4-243"
  bottom: "slice-2-4-244"
  bottom: "slice-2-4-245"
  bottom: "slice-2-4-246"
  bottom: "slice-2-4-247"
  bottom: "slice-2-4-248"
  bottom: "slice-2-4-249"
  bottom: "slice-2-4-250"
  bottom: "slice-2-4-251"
  bottom: "slice-2-4-252"
  bottom: "slice-2-4-253"
  bottom: "slice-2-4-254"
  bottom: "slice-2-4-255"
  bottom: "slice-2-4-256"
  bottom: "slice-2-4-257"
  bottom: "slice-2-4-258"
  bottom: "slice-2-4-259"
  bottom: "slice-2-4-260"
  bottom: "slice-2-4-261"
  bottom: "slice-2-4-262"
  bottom: "slice-2-4-263"
  bottom: "slice-2-4-264"
  bottom: "slice-2-4-265"
  bottom: "slice-2-4-266"
  bottom: "slice-2-4-267"
  bottom: "slice-2-4-268"
  bottom: "slice-2-4-269"
  bottom: "slice-2-4-270"
  bottom: "slice-2-4-271"
  bottom: "slice-2-4-272"
  bottom: "slice-2-4-273"
  bottom: "slice-2-4-274"
  bottom: "slice-2-4-275"
  bottom: "slice-2-4-276"
  bottom: "slice-2-4-277"
  bottom: "slice-2-4-278"
  bottom: "slice-2-4-279"
  bottom: "slice-2-4-280"
  bottom: "slice-2-4-281"
  bottom: "slice-2-4-282"
  bottom: "slice-2-4-283"
  bottom: "slice-2-4-284"
  bottom: "slice-2-4-285"
  bottom: "slice-2-4-286"
  bottom: "slice-2-4-287"
  bottom: "slice-2-4-288"
  bottom: "slice-2-4-289"
  bottom: "slice-2-4-290"
  bottom: "slice-2-4-291"
  bottom: "slice-2-4-292"
  bottom: "slice-2-4-293"
  bottom: "slice-2-4-294"
  bottom: "slice-2-4-295"
  bottom: "slice-2-4-296"
  bottom: "slice-2-4-297"
  bottom: "slice-2-4-298"
  bottom: "slice-2-4-299"
  bottom: "slice-2-4-300"
  bottom: "slice-2-4-301"
  bottom: "slice-2-4-302"
  bottom: "slice-2-4-303"
  bottom: "slice-2-4-304"
  bottom: "slice-2-4-305"
  bottom: "slice-2-4-306"
  bottom: "slice-2-4-307"
  bottom: "slice-2-4-308"
  bottom: "slice-2-4-309"
  bottom: "slice-2-4-310"
  bottom: "slice-2-4-311"
  bottom: "slice-2-4-312"
  bottom: "slice-2-4-313"
  bottom: "slice-2-4-314"
  bottom: "slice-2-4-315"
  bottom: "slice-2-4-316"
  bottom: "slice-2-4-317"
  bottom: "slice-2-4-318"
  bottom: "slice-2-4-319"
  bottom: "slice-2-4-320"
  bottom: "slice-2-4-321"
  bottom: "slice-2-4-322"
  bottom: "slice-2-4-323"
  bottom: "slice-2-4-324"
  bottom: "slice-2-4-325"
  bottom: "slice-2-4-326"
  bottom: "slice-2-4-327"
  bottom: "slice-2-4-328"
  bottom: "slice-2-4-329"
  bottom: "slice-2-4-330"
  bottom: "slice-2-4-331"
  bottom: "slice-2-4-332"
  bottom: "slice-2-4-333"
  bottom: "slice-2-4-334"
  bottom: "slice-2-4-335"
  bottom: "slice-2-4-336"
  bottom: "slice-2-4-337"
  bottom: "slice-2-4-338"
  bottom: "slice-2-4-339"
  bottom: "slice-2-4-340"
  bottom: "slice-2-4-341"
  bottom: "slice-2-4-342"
  bottom: "slice-2-4-343"
  bottom: "slice-2-4-344"
  bottom: "slice-2-4-345"
  bottom: "slice-2-4-346"
  bottom: "slice-2-4-347"
  bottom: "slice-2-4-348"
  bottom: "slice-2-4-349"
  bottom: "slice-2-4-350"
  bottom: "slice-2-4-351"
  bottom: "slice-2-4-352"
  bottom: "slice-2-4-353"
  bottom: "slice-2-4-354"
  bottom: "slice-2-4-355"
  bottom: "slice-2-4-356"
  bottom: "slice-2-4-357"
  bottom: "slice-2-4-358"
  bottom: "slice-2-4-359"
  bottom: "slice-2-4-360"
  bottom: "slice-2-4-361"
  bottom: "slice-2-4-362"
  bottom: "slice-2-4-363"
  bottom: "slice-2-4-364"
  bottom: "slice-2-4-365"
  bottom: "slice-2-4-366"
  bottom: "slice-2-4-367"
  bottom: "slice-2-4-368"
  bottom: "slice-2-4-369"
  bottom: "slice-2-4-370"
  bottom: "slice-2-4-371"
  bottom: "slice-2-4-372"
  bottom: "slice-2-4-373"
  bottom: "slice-2-4-374"
  bottom: "slice-2-4-375"
  bottom: "slice-2-4-376"
  bottom: "slice-2-4-377"
  bottom: "slice-2-4-378"
  bottom: "slice-2-4-379"
  bottom: "slice-2-4-380"
  bottom: "slice-2-4-381"
  bottom: "slice-2-4-382"
  bottom: "slice-2-4-383"
  bottom: "slice-2-4-384"
  bottom: "slice-2-4-385"
  bottom: "slice-2-4-386"
  bottom: "slice-2-4-387"
  bottom: "slice-2-4-388"
  bottom: "slice-2-4-389"
  bottom: "slice-2-4-390"
  bottom: "slice-2-4-391"
  bottom: "slice-2-4-392"
  bottom: "slice-2-4-393"
  bottom: "slice-2-4-394"
  bottom: "slice-2-4-395"
  bottom: "slice-2-4-396"
  bottom: "slice-2-4-397"
  bottom: "slice-2-4-398"
  bottom: "slice-2-4-399"
  bottom: "slice-2-4-400"
  bottom: "slice-2-4-401"
  bottom: "slice-2-4-402"
  bottom: "slice-2-4-403"
  bottom: "slice-2-4-404"
  bottom: "slice-2-4-405"
  bottom: "slice-2-4-406"
  bottom: "slice-2-4-407"
  bottom: "slice-2-4-408"
  bottom: "slice-2-4-409"
  bottom: "slice-2-4-410"
  bottom: "slice-2-4-411"
  bottom: "slice-2-4-412"
  bottom: "slice-2-4-413"
  bottom: "slice-2-4-414"
  bottom: "slice-2-4-415"
  bottom: "slice-2-4-416"
  bottom: "slice-2-4-417"
  bottom: "slice-2-4-418"
  bottom: "slice-2-4-419"
  bottom: "slice-2-4-420"
  bottom: "slice-2-4-421"
  bottom: "slice-2-4-422"
  bottom: "slice-2-4-423"
  bottom: "slice-2-4-424"
  bottom: "slice-2-4-425"
  bottom: "slice-2-4-426"
  bottom: "slice-2-4-427"
  bottom: "slice-2-4-428"
  bottom: "slice-2-4-429"
  bottom: "slice-2-4-430"
  bottom: "slice-2-4-431"
  bottom: "slice-2-4-432"
  bottom: "slice-2-4-433"
  bottom: "slice-2-4-434"
  bottom: "slice-2-4-435"
  bottom: "slice-2-4-436"
  bottom: "slice-2-4-437"
  bottom: "slice-2-4-438"
  bottom: "slice-2-4-439"
  bottom: "slice-2-4-440"
  bottom: "slice-2-4-441"
  bottom: "slice-2-4-442"
  bottom: "slice-2-4-443"
  bottom: "slice-2-4-444"
  bottom: "slice-2-4-445"
  bottom: "slice-2-4-446"
  bottom: "slice-2-4-447"
  bottom: "slice-2-4-448"
  bottom: "slice-2-4-449"
  bottom: "slice-2-4-450"
  bottom: "slice-2-4-451"
  bottom: "slice-2-4-452"
  bottom: "slice-2-4-453"
  bottom: "slice-2-4-454"
  bottom: "slice-2-4-455"
  bottom: "slice-2-4-456"
  bottom: "slice-2-4-457"
  bottom: "slice-2-4-458"
  bottom: "slice-2-4-459"
  bottom: "slice-2-4-460"
  bottom: "slice-2-4-461"
  bottom: "slice-2-4-462"
  bottom: "slice-2-4-463"
  bottom: "slice-2-4-464"
  bottom: "slice-2-4-465"
  bottom: "slice-2-4-466"
  bottom: "slice-2-4-467"
  bottom: "slice-2-4-468"
  bottom: "slice-2-4-469"
  bottom: "slice-2-4-470"
  bottom: "slice-2-4-471"
  bottom: "slice-2-4-472"
  bottom: "slice-2-4-473"
  bottom: "slice-2-4-474"
  bottom: "slice-2-4-475"
  bottom: "slice-2-4-476"
  bottom: "slice-2-4-477"
  bottom: "slice-2-4-478"
  bottom: "slice-2-4-479"
  bottom: "slice-2-4-480"
  bottom: "slice-2-4-481"
  bottom: "slice-2-4-482"
  bottom: "slice-2-4-483"
  bottom: "slice-2-4-484"
  bottom: "slice-2-4-485"
  bottom: "slice-2-4-486"
  bottom: "slice-2-4-487"
  bottom: "slice-2-4-488"
  bottom: "slice-2-4-489"
  bottom: "slice-2-4-490"
  bottom: "slice-2-4-491"
  bottom: "slice-2-4-492"
  bottom: "slice-2-4-493"
  bottom: "slice-2-4-494"
  bottom: "slice-2-4-495"
  bottom: "slice-2-4-496"
  bottom: "slice-2-4-497"
  bottom: "slice-2-4-498"
  bottom: "slice-2-4-499"
  bottom: "slice-2-4-500"
  bottom: "slice-2-4-501"
  bottom: "slice-2-4-502"
  bottom: "slice-2-4-503"
  bottom: "slice-2-4-504"
  bottom: "slice-2-4-505"
  bottom: "slice-2-4-506"
  bottom: "slice-2-4-507"
  bottom: "slice-2-4-508"
  bottom: "slice-2-4-509"
  bottom: "slice-2-4-510"
  bottom: "slice-2-4-511"
  bottom: "slice-2-4-512"
  bottom: "slice-2-4-513"
  bottom: "slice-2-4-514"
  bottom: "slice-2-4-515"
  bottom: "slice-2-4-516"
  bottom: "slice-2-4-517"
  bottom: "slice-2-4-518"
  bottom: "slice-2-4-519"
  bottom: "slice-2-4-520"
  bottom: "slice-2-4-521"
  bottom: "slice-2-4-522"
  bottom: "slice-2-4-523"
  bottom: "slice-2-4-524"
  bottom: "slice-2-4-525"
  bottom: "slice-2-4-526"
  bottom: "slice-2-4-527"
  bottom: "slice-2-4-528"
  bottom: "slice-2-4-529"
  bottom: "slice-2-4-530"
  bottom: "slice-2-4-531"
  bottom: "slice-2-4-532"
  bottom: "slice-2-4-533"
  bottom: "slice-2-4-534"
  bottom: "slice-2-4-535"
  bottom: "slice-2-4-536"
  bottom: "slice-2-4-537"
  bottom: "slice-2-4-538"
  bottom: "slice-2-4-539"
  bottom: "slice-2-4-540"
  bottom: "slice-2-4-541"
  bottom: "slice-2-4-542"
  bottom: "slice-2-4-543"
  bottom: "slice-2-4-544"
  bottom: "slice-2-4-545"
  bottom: "slice-2-4-546"
  bottom: "slice-2-4-547"
  bottom: "slice-2-4-548"
  bottom: "slice-2-4-549"
  bottom: "slice-2-4-550"
  bottom: "slice-2-4-551"
  bottom: "slice-2-4-552"
  bottom: "slice-2-4-553"
  bottom: "slice-2-4-554"
  bottom: "slice-2-4-555"
  bottom: "slice-2-4-556"
  bottom: "slice-2-4-557"
  bottom: "slice-2-4-558"
  bottom: "slice-2-4-559"
  bottom: "slice-2-4-560"
  bottom: "slice-2-4-561"
  bottom: "slice-2-4-562"
  bottom: "slice-2-4-563"
  bottom: "slice-2-4-564"
  bottom: "slice-2-4-565"
  bottom: "slice-2-4-566"
  bottom: "slice-2-4-567"
  bottom: "slice-2-4-568"
  bottom: "slice-2-4-569"
  bottom: "slice-2-4-570"
  bottom: "slice-2-4-571"
  bottom: "slice-2-4-572"
  bottom: "slice-2-4-573"
  bottom: "slice-2-4-574"
  bottom: "slice-2-4-575"
  bottom: "slice-2-4-576"
  bottom: "slice-2-4-577"
  bottom: "slice-2-4-578"
  bottom: "slice-2-4-579"
  bottom: "slice-2-4-580"
  bottom: "slice-2-4-581"
  bottom: "slice-2-4-582"
  bottom: "slice-2-4-583"
  bottom: "slice-2-4-584"
  bottom: "slice-2-4-585"
  bottom: "slice-2-4-586"
  bottom: "slice-2-4-587"
  bottom: "slice-2-4-588"
  bottom: "slice-2-4-589"
  bottom: "slice-2-4-590"
  bottom: "slice-2-4-591"
  bottom: "slice-2-4-592"
  bottom: "slice-2-4-593"
  bottom: "slice-2-4-594"
  bottom: "slice-2-4-595"
  bottom: "slice-2-4-596"
  bottom: "slice-2-4-597"
  bottom: "slice-2-4-598"
  bottom: "slice-2-4-599"
  bottom: "slice-2-4-600"
  bottom: "slice-2-4-601"
  bottom: "slice-2-4-602"
  bottom: "slice-2-4-603"
  bottom: "slice-2-4-604"
  bottom: "slice-2-4-605"
  bottom: "slice-2-4-606"
  bottom: "slice-2-4-607"
  bottom: "slice-2-4-608"
  bottom: "slice-2-4-609"
  bottom: "slice-2-4-610"
  bottom: "slice-2-4-611"
  bottom: "slice-2-4-612"
  bottom: "slice-2-4-613"
  bottom: "slice-2-4-614"
  bottom: "slice-2-4-615"
  bottom: "slice-2-4-616"
  bottom: "slice-2-4-617"
  bottom: "slice-2-4-618"
  bottom: "slice-2-4-619"
  bottom: "slice-2-4-620"
  bottom: "slice-2-4-621"
  bottom: "slice-2-4-622"
  bottom: "slice-2-4-623"
  bottom: "slice-2-4-624"
  bottom: "slice-2-4-625"
  bottom: "slice-2-4-626"
  bottom: "slice-2-4-627"
  bottom: "slice-2-4-628"
  bottom: "slice-2-4-629"
  bottom: "slice-2-4-630"
  bottom: "slice-2-4-631"
  bottom: "slice-2-4-632"
  bottom: "slice-2-4-633"
  bottom: "slice-2-4-634"
  bottom: "slice-2-4-635"
  bottom: "slice-2-4-636"
  bottom: "slice-2-4-637"
  bottom: "slice-2-4-638"
  bottom: "slice-2-4-639"
  bottom: "slice-2-4-640"
  bottom: "slice-2-4-641"
  bottom: "slice-2-4-642"
  bottom: "slice-2-4-643"
  bottom: "slice-2-4-644"
  bottom: "slice-2-4-645"
  bottom: "slice-2-4-646"
  bottom: "slice-2-4-647"
  bottom: "slice-2-4-648"
  bottom: "slice-2-4-649"
  bottom: "slice-2-4-650"
  bottom: "slice-2-4-651"
  bottom: "slice-2-4-652"
  bottom: "slice-2-4-653"
  bottom: "slice-2-4-654"
  bottom: "slice-2-4-655"
  bottom: "slice-2-4-656"
  bottom: "slice-2-4-657"
  bottom: "slice-2-4-658"
  bottom: "slice-2-4-659"
  bottom: "slice-2-4-660"
  bottom: "slice-2-4-661"
  bottom: "slice-2-4-662"
  bottom: "slice-2-4-663"
  bottom: "slice-2-4-664"
  bottom: "slice-2-4-665"
  bottom: "slice-2-4-666"
  bottom: "slice-2-4-667"
  bottom: "slice-2-4-668"
  bottom: "slice-2-4-669"
  bottom: "slice-2-4-670"
  bottom: "slice-2-4-671"
  bottom: "slice-2-4-672"
  bottom: "slice-2-4-673"
  bottom: "slice-2-4-674"
  bottom: "slice-2-4-675"
  bottom: "slice-2-4-676"
  bottom: "slice-2-4-677"
  bottom: "slice-2-4-678"
  bottom: "slice-2-4-679"
  bottom: "slice-2-4-680"
  bottom: "slice-2-4-681"
  bottom: "slice-2-4-682"
  bottom: "slice-2-4-683"
  bottom: "slice-2-4-684"
  bottom: "slice-2-4-685"
  bottom: "slice-2-4-686"
  bottom: "slice-2-4-687"
  bottom: "slice-2-4-688"
  bottom: "slice-2-4-689"
  bottom: "slice-2-4-690"
  bottom: "slice-2-4-691"
  bottom: "slice-2-4-692"
  bottom: "slice-2-4-693"
  bottom: "slice-2-4-694"
  bottom: "slice-2-4-695"
  bottom: "slice-2-4-696"
  bottom: "slice-2-4-697"
  bottom: "slice-2-4-698"
  bottom: "slice-2-4-699"
  bottom: "slice-2-4-700"
  bottom: "slice-2-4-701"
  bottom: "slice-2-4-702"
  bottom: "slice-2-4-703"
  bottom: "slice-2-4-704"
  bottom: "slice-2-4-705"
  bottom: "slice-2-4-706"
  bottom: "slice-2-4-707"
  bottom: "slice-2-4-708"
  bottom: "slice-2-4-709"
  bottom: "slice-2-4-710"
  bottom: "slice-2-4-711"
  bottom: "slice-2-4-712"
  bottom: "slice-2-4-713"
  bottom: "slice-2-4-714"
  bottom: "slice-2-4-715"
  bottom: "slice-2-4-716"
  bottom: "slice-2-4-717"
  bottom: "slice-2-4-718"
  bottom: "slice-2-4-719"
  bottom: "slice-2-4-720"
  bottom: "slice-2-4-721"
  bottom: "slice-2-4-722"
  bottom: "slice-2-4-723"
  bottom: "slice-2-4-724"
  bottom: "slice-2-4-725"
  bottom: "slice-2-4-726"
  bottom: "slice-2-4-727"
  bottom: "slice-2-4-728"
  bottom: "slice-2-4-729"
  bottom: "slice-2-4-730"
  bottom: "slice-2-4-731"
  bottom: "slice-2-4-732"
  bottom: "slice-2-4-733"
  bottom: "slice-2-4-734"
  bottom: "slice-2-4-735"
  bottom: "slice-2-4-736"
  bottom: "slice-2-4-737"
  bottom: "slice-2-4-738"
  bottom: "slice-2-4-739"
  bottom: "slice-2-4-740"
  bottom: "slice-2-4-741"
  bottom: "slice-2-4-742"
  bottom: "slice-2-4-743"
  bottom: "slice-2-4-744"
  bottom: "slice-2-4-745"
  bottom: "slice-2-4-746"
  bottom: "slice-2-4-747"
  bottom: "slice-2-4-748"
  bottom: "slice-2-4-749"
  bottom: "slice-2-4-750"
  bottom: "slice-2-4-751"
  bottom: "slice-2-4-752"
  bottom: "slice-2-4-753"
  bottom: "slice-2-4-754"
  bottom: "slice-2-4-755"
  bottom: "slice-2-4-756"
  bottom: "slice-2-4-757"
  bottom: "slice-2-4-758"
  bottom: "slice-2-4-759"
  bottom: "slice-2-4-760"
  bottom: "slice-2-4-761"
  bottom: "slice-2-4-762"
  bottom: "slice-2-4-763"
  bottom: "slice-2-4-764"
  bottom: "slice-2-4-765"
  bottom: "slice-2-4-766"
  bottom: "slice-2-4-767"
  bottom: "slice-2-4-768"
  bottom: "slice-2-4-769"
  bottom: "slice-2-4-770"
  bottom: "slice-2-4-771"
  bottom: "slice-2-4-772"
  bottom: "slice-2-4-773"
  bottom: "slice-2-4-774"
  bottom: "slice-2-4-775"
  bottom: "slice-2-4-776"
  bottom: "slice-2-4-777"
  bottom: "slice-2-4-778"
  bottom: "slice-2-4-779"
  bottom: "slice-2-4-780"
  bottom: "slice-2-4-781"
  bottom: "slice-2-4-782"
  bottom: "slice-2-4-783"
  bottom: "slice-2-4-784"
  bottom: "slice-2-4-785"
  bottom: "slice-2-4-786"
  bottom: "slice-2-4-787"
  bottom: "slice-2-4-788"
  bottom: "slice-2-4-789"
  bottom: "slice-2-4-790"
  bottom: "slice-2-4-791"
  bottom: "slice-2-4-792"
  bottom: "slice-2-4-793"
  bottom: "slice-2-4-794"
  bottom: "slice-2-4-795"
  bottom: "slice-2-4-796"
  bottom: "slice-2-4-797"
  bottom: "slice-2-4-798"
  bottom: "slice-2-4-799"
  bottom: "slice-2-4-800"
  bottom: "slice-2-4-801"
  bottom: "slice-2-4-802"
  bottom: "slice-2-4-803"
  bottom: "slice-2-4-804"
  bottom: "slice-2-4-805"
  bottom: "slice-2-4-806"
  bottom: "slice-2-4-807"
  bottom: "slice-2-4-808"
  bottom: "slice-2-4-809"
  bottom: "slice-2-4-810"
  bottom: "slice-2-4-811"
  bottom: "slice-2-4-812"
  bottom: "slice-2-4-813"
  bottom: "slice-2-4-814"
  bottom: "slice-2-4-815"
  bottom: "slice-2-4-816"
  bottom: "slice-2-4-817"
  bottom: "slice-2-4-818"
  bottom: "slice-2-4-819"
  bottom: "slice-2-4-820"
  bottom: "slice-2-4-821"
  bottom: "slice-2-4-822"
  bottom: "slice-2-4-823"
  bottom: "slice-2-4-824"
  bottom: "slice-2-4-825"
  bottom: "slice-2-4-826"
  bottom: "slice-2-4-827"
  bottom: "slice-2-4-828"
  bottom: "slice-2-4-829"
  bottom: "slice-2-4-830"
  bottom: "slice-2-4-831"
  bottom: "slice-2-4-832"
  bottom: "slice-2-4-833"
  bottom: "slice-2-4-834"
  bottom: "slice-2-4-835"
  bottom: "slice-2-4-836"
  bottom: "slice-2-4-837"
  bottom: "slice-2-4-838"
  bottom: "slice-2-4-839"
  bottom: "slice-2-4-840"
  bottom: "slice-2-4-841"
  bottom: "slice-2-4-842"
  bottom: "slice-2-4-843"
  bottom: "slice-2-4-844"
  bottom: "slice-2-4-845"
  bottom: "slice-2-4-846"
  bottom: "slice-2-4-847"
  bottom: "slice-2-4-848"
  bottom: "slice-2-4-849"
  bottom: "slice-2-4-850"
  bottom: "slice-2-4-851"
  bottom: "slice-2-4-852"
  bottom: "slice-2-4-853"
  bottom: "slice-2-4-854"
  bottom: "slice-2-4-855"
  bottom: "slice-2-4-856"
  bottom: "slice-2-4-857"
  bottom: "slice-2-4-858"
  bottom: "slice-2-4-859"
  bottom: "slice-2-4-860"
  bottom: "slice-2-4-861"
  bottom: "slice-2-4-862"
  bottom: "slice-2-4-863"
  bottom: "slice-2-4-864"
  bottom: "slice-2-4-865"
  bottom: "slice-2-4-866"
  bottom: "slice-2-4-867"
  bottom: "slice-2-4-868"
  bottom: "slice-2-4-869"
  bottom: "slice-2-4-870"
  bottom: "slice-2-4-871"
  bottom: "slice-2-4-872"
  bottom: "slice-2-4-873"
  bottom: "slice-2-4-874"
  bottom: "slice-2-4-875"
  bottom: "slice-2-4-876"
  bottom: "slice-2-4-877"
  bottom: "slice-2-4-878"
  bottom: "slice-2-4-879"
  bottom: "slice-2-4-880"
  bottom: "slice-2-4-881"
  bottom: "slice-2-4-882"
  bottom: "slice-2-4-883"
  bottom: "slice-2-4-884"
  bottom: "slice-2-4-885"
  bottom: "slice-2-4-886"
  bottom: "slice-2-4-887"
  bottom: "slice-2-4-888"
  bottom: "slice-2-4-889"
  bottom: "slice-2-4-890"
  bottom: "slice-2-4-891"
  bottom: "slice-2-4-892"
  bottom: "slice-2-4-893"
  bottom: "slice-2-4-894"
  bottom: "slice-2-4-895"
  bottom: "slice-2-4-896"
  bottom: "slice-2-4-897"
  bottom: "slice-2-4-898"
  bottom: "slice-2-4-899"
  bottom: "slice-2-4-900"
  bottom: "slice-2-4-901"
  bottom: "slice-2-4-902"
  bottom: "slice-2-4-903"
  bottom: "slice-2-4-904"
  bottom: "slice-2-4-905"
  bottom: "slice-2-4-906"
  bottom: "slice-2-4-907"
  bottom: "slice-2-4-908"
  bottom: "slice-2-4-909"
  bottom: "slice-2-4-910"
  bottom: "slice-2-4-911"
  bottom: "slice-2-4-912"
  bottom: "slice-2-4-913"
  bottom: "slice-2-4-914"
  bottom: "slice-2-4-915"
  bottom: "slice-2-4-916"
  bottom: "slice-2-4-917"
  bottom: "slice-2-4-918"
  bottom: "slice-2-4-919"
  bottom: "slice-2-4-920"
  bottom: "slice-2-4-921"
  bottom: "slice-2-4-922"
  bottom: "slice-2-4-923"
  bottom: "slice-2-4-924"
  bottom: "slice-2-4-925"
  bottom: "slice-2-4-926"
  bottom: "slice-2-4-927"
  bottom: "slice-2-4-928"
  bottom: "slice-2-4-929"
  bottom: "slice-2-4-930"
  bottom: "slice-2-4-931"
  bottom: "slice-2-4-932"
  bottom: "slice-2-4-933"
  bottom: "slice-2-4-934"
  bottom: "slice-2-4-935"
  bottom: "slice-2-4-936"
  bottom: "slice-2-4-937"
  bottom: "slice-2-4-938"
  bottom: "slice-2-4-939"
  bottom: "slice-2-4-940"
  bottom: "slice-2-4-941"
  bottom: "slice-2-4-942"
  bottom: "slice-2-4-943"
  bottom: "slice-2-4-944"
  bottom: "slice-2-4-945"
  bottom: "slice-2-4-946"
  bottom: "slice-2-4-947"
  bottom: "slice-2-4-948"
  bottom: "slice-2-4-949"
  bottom: "slice-2-4-950"
  bottom: "slice-2-4-951"
  bottom: "slice-2-4-952"
  bottom: "slice-2-4-953"
  bottom: "slice-2-4-954"
  bottom: "slice-2-4-955"
  bottom: "slice-2-4-956"
  bottom: "slice-2-4-957"
  bottom: "slice-2-4-958"
  bottom: "slice-2-4-959"
  bottom: "slice-2-4-960"
  bottom: "slice-2-4-961"
  bottom: "slice-2-4-962"
  bottom: "slice-2-4-963"
  bottom: "slice-2-4-964"
  bottom: "slice-2-4-965"
  bottom: "slice-2-4-966"
  bottom: "slice-2-4-967"
  eltwise_param{
    operation:MAX
  }
}
layers {
  name: "concat"

  bottom: "max-fc8-se1"
  bottom: "max-fc8-se2"
  bottom: "max-fc8-se3"
  bottom: "max-fc8-se4"
  top: "conf-ss"
  type: CONCAT
  concat_param {
    concat_dim: 1
  }
}
layers {
  name: "prob-ss"
  type: SOFTMAX
  bottom: "conf-ss"
  top: "prob-ss"
}
layers {
  name: "slice-prob-ss"
  type: SLICE
  bottom: "prob-ss"
  top: "prob-sw1"
  top: "prob-sw2"
  top: "prob-sw3"
  top: "prob-sw4"
}
layers {
  name: "concat-1"

  bottom: "max-fc-1-se1"
  bottom: "max-fc-1-se2"
  bottom: "max-fc-1-se3"
  bottom: "max-fc-1-se4"
  top: "conf-ss-1"
  type: CONCAT
  concat_param {
    concat_dim: 1
  }
}
layers {
  name: "prob-ss-1"
  type: SOFTMAX
  bottom: "conf-ss-1"
  top: "prob-ss-1"
}
layers {
  name: "slice-prob-ss-1"
  type: SLICE
  bottom: "prob-ss-1"
  top: "prob-1-sw1"
  top: "prob-1-sw2"
  top: "prob-1-sw3"
  top: "prob-1-sw4"
}
layers {
  name: "concat-2"

  bottom: "max-fc-2-se1"
  bottom: "max-fc-2-se2"
  bottom: "max-fc-2-se3"
  bottom: "max-fc-2-se4"
  top: "conf-ss-2"
  type: CONCAT
  concat_param {
    concat_dim: 1
  }
}
layers {
  name: "prob-ss-2"
  type: SOFTMAX
  bottom: "conf-ss-2"
  top: "prob-ss-2"
}
layers {
  name: "slice-prob-ss-2"
  type: SLICE
  bottom: "prob-ss-2"
  top: "prob-2-sw1"
  top: "prob-2-sw2"
  top: "prob-2-sw3"
  top: "prob-2-sw4"
}
layers {
  name: "repmat-sw1"
  type: INNER_PRODUCT
  bottom: "prob-sw1"
  top: "repmat-sw1"
  blobs_lr: 0
  blobs_lr: 0
  weight_decay: 0
  weight_decay: 0
  inner_product_param {
    num_output: 967
    weight_filler {
      type: "constant"
      value: 1
    }
    bias_filler {
      type: "constant"
      value: 0
    }
  }
}
layers {
  type: ELTWISE
  name: "weighted-prob-ss1"
  bottom: "fc8-se1"
  bottom: "repmat-sw1"
  top: "weighted-prob-ss1"
  eltwise_param {
    operation: PROD
  }
}
layers {
  name: "repmat-sw2"
  type: INNER_PRODUCT
  bottom: "prob-sw2"
  top: "repmat-sw2"
  blobs_lr: 0
  blobs_lr: 0
  weight_decay: 0
  weight_decay: 0
  inner_product_param {
    num_output: 967
    weight_filler {
      type: "constant"
      value: 1
    }
    bias_filler {
      type: "constant"
      value: 0
    }
  }
}
layers {
  type: ELTWISE
  name: "weighted-prob-ss2"
  bottom: "fc8-se2"
  bottom: "repmat-sw2"
  top: "weighted-prob-ss2"
  eltwise_param {
    operation: PROD
  }
}
layers {
  name: "repmat-sw3"
  type: INNER_PRODUCT
  bottom: "prob-sw3"
  top: "repmat-sw3"
  blobs_lr: 0
  blobs_lr: 0
  weight_decay: 0
  weight_decay: 0
  inner_product_param {
    num_output: 967
    weight_filler {
      type: "constant"
      value: 1
    }
    bias_filler {
      type: "constant"
      value: 0
    }
  }
}
layers {
  type: ELTWISE
  name: "weighted-prob-ss3"
  bottom: "fc8-se3"
  bottom: "repmat-sw3"
  top: "weighted-prob-ss3"
  eltwise_param {
    operation: PROD
  }
}
layers {
  name: "repmat-sw4"
  type: INNER_PRODUCT
  bottom: "prob-sw4"
  top: "repmat-sw4"
  blobs_lr: 0
  blobs_lr: 0
  weight_decay: 0
  weight_decay: 0
  inner_product_param {
    num_output: 967
    weight_filler {
      type: "constant"
      value: 1
    }
    bias_filler {
      type: "constant"
      value: 0
    }
  }
}
layers {
  type: ELTWISE
  name: "weighted-prob-ss4"
  bottom: "fc8-se4"
  bottom: "repmat-sw4"
  top: "weighted-prob-ss4"
  eltwise_param {
    operation: PROD
  }
}
layers {
  name: "sum-weighted-prob"
  type: ELTWISE
  bottom: "weighted-prob-ss1"
  bottom: "weighted-prob-ss2"
  bottom: "weighted-prob-ss3"
  bottom: "weighted-prob-ss4"
  top: "prob"
  eltwise_param {
    operation: SUM
  }
}
layers {
  bottom: "prob"
  bottom: "label"
  top: "loss"
  name: "loss"
  type: SOFTMAX_LOSS
  loss_weight: 1
}
layers {
  name: "accuracy"
  type: ACCURACY
  bottom: "prob"
  bottom: "label"
  top: "accuracy"
  include: { phase: TEST }
}
layers {
  name: "repmat-1-sw1"
  type: INNER_PRODUCT
  bottom: "prob-1-sw1"
  top: "repmat-1-sw1"
  blobs_lr: 0
  blobs_lr: 0
  weight_decay: 0
  weight_decay: 0
  inner_product_param {
    num_output: 967
    weight_filler {
      type: "constant"
      value: 1
    }
    bias_filler {
      type: "constant"
      value: 0
    }
  }
}
layers {
  type: ELTWISE
  name: "weighted-prob-1-ss1"
  bottom: "fc-1-se1"
  bottom: "repmat-1-sw1"
  top: "weighted-prob-1-ss1"
  eltwise_param {
    operation: PROD
  }
}
layers {
  name: "repmat-1-sw2"
  type: INNER_PRODUCT
  bottom: "prob-1-sw2"
  top: "repmat-1-sw2"
  blobs_lr: 0
  blobs_lr: 0
  weight_decay: 0
  weight_decay: 0
  inner_product_param {
    num_output: 967
    weight_filler {
      type: "constant"
      value: 1
    }
    bias_filler {
      type: "constant"
      value: 0
    }
  }
}
layers {
  type: ELTWISE
  name: "weighted-prob-1-ss2"
  bottom: "fc-1-se2"
  bottom: "repmat-1-sw2"
  top: "weighted-prob-1-ss2"
  eltwise_param {
    operation: PROD
  }
}
layers {
  name: "repmat-1-sw3"
  type: INNER_PRODUCT
  bottom: "prob-1-sw3"
  top: "repmat-1-sw3"
  blobs_lr: 0
  blobs_lr: 0
  weight_decay: 0
  weight_decay: 0
  inner_product_param {
    num_output: 967
    weight_filler {
      type: "constant"
      value: 1
    }
    bias_filler {
      type: "constant"
      value: 0
    }
  }
}
layers {
  type: ELTWISE
  name: "weighted-prob-1-ss3"
  bottom: "fc-1-se3"
  bottom: "repmat-1-sw3"
  top: "weighted-prob-1-ss3"
  eltwise_param {
    operation: PROD
  }
}
layers {
  name: "repmat-1-sw4"
  type: INNER_PRODUCT
  bottom: "prob-1-sw4"
  top: "repmat-1-sw4"
  blobs_lr: 0
  blobs_lr: 0
  weight_decay: 0
  weight_decay: 0
  inner_product_param {
    num_output: 967
    weight_filler {
      type: "constant"
      value: 1
    }
    bias_filler {
      type: "constant"
      value: 0
    }
  }
}
layers {
  type: ELTWISE
  name: "weighted-prob-1-ss4"
  bottom: "fc-1-se4"
  bottom: "repmat-1-sw4"
  top: "weighted-prob-1-ss4"
  eltwise_param {
    operation: PROD
  }
}
layers {
  name: "sum-weighted-prob-1"
  type: ELTWISE
  bottom: "weighted-prob-1-ss1"
  bottom: "weighted-prob-1-ss2"
  bottom: "weighted-prob-1-ss3"
  bottom: "weighted-prob-1-ss4"
  top: "prob-1"
  eltwise_param {
    operation: SUM
  }
}
layers {
  bottom: "prob-1"
  bottom: "label"
  top: "loss-1"
  name: "loss-1"
  type: SOFTMAX_LOSS
  loss_weight: 1
}
layers {
  name: "accuracy-1"
  type: ACCURACY
  bottom: "prob-1"
  bottom: "label"
  top: "accuracy-1"
  include: { phase: TEST }
}
layers {
  name: "repmat-2-sw1"
  type: INNER_PRODUCT
  bottom: "prob-2-sw1"
  top: "repmat-2-sw1"
  blobs_lr: 0
  blobs_lr: 0
  weight_decay: 0
  weight_decay: 0
  inner_product_param {
    num_output: 967
    weight_filler {
      type: "constant"
      value: 1
    }
    bias_filler {
      type: "constant"
      value: 0
    }
  }
}
layers {
  type: ELTWISE
  name: "weighted-prob-2-ss1"
  bottom: "fc-2-se1"
  bottom: "repmat-2-sw1"
  top: "weighted-prob-2-ss1"
  eltwise_param {
    operation: PROD
  }
}
layers {
  name: "repmat-2-sw2"
  type: INNER_PRODUCT
  bottom: "prob-2-sw2"
  top: "repmat-2-sw2"
  blobs_lr: 0
  blobs_lr: 0
  weight_decay: 0
  weight_decay: 0
  inner_product_param {
    num_output: 967
    weight_filler {
      type: "constant"
      value: 1
    }
    bias_filler {
      type: "constant"
      value: 0
    }
  }
}
layers {
  type: ELTWISE
  name: "weighted-prob-2-ss2"
  bottom: "fc-2-se2"
  bottom: "repmat-2-sw2"
  top: "weighted-prob-2-ss2"
  eltwise_param {
    operation: PROD
  }
}
layers {
  name: "repmat-2-sw3"
  type: INNER_PRODUCT
  bottom: "prob-2-sw3"
  top: "repmat-2-sw3"
  blobs_lr: 0
  blobs_lr: 0
  weight_decay: 0
  weight_decay: 0
  inner_product_param {
    num_output: 967
    weight_filler {
      type: "constant"
      value: 1
    }
    bias_filler {
      type: "constant"
      value: 0
    }
  }
}
layers {
  type: ELTWISE
  name: "weighted-prob-2-ss3"
  bottom: "fc-2-se3"
  bottom: "repmat-2-sw3"
  top: "weighted-prob-2-ss3"
  eltwise_param {
    operation: PROD
  }
}
layers {
  name: "repmat-2-sw4"
  type: INNER_PRODUCT
  bottom: "prob-2-sw4"
  top: "repmat-2-sw4"
  blobs_lr: 0
  blobs_lr: 0
  weight_decay: 0
  weight_decay: 0
  inner_product_param {
    num_output: 967
    weight_filler {
      type: "constant"
      value: 1
    }
    bias_filler {
      type: "constant"
      value: 0
    }
  }
}
layers {
  type: ELTWISE
  name: "weighted-prob-2-ss4"
  bottom: "fc-2-se4"
  bottom: "repmat-2-sw4"
  top: "weighted-prob-2-ss4"
  eltwise_param {
    operation: PROD
  }
}
layers {
  name: "sum-weighted-prob-2"
  type: ELTWISE
  bottom: "weighted-prob-2-ss1"
  bottom: "weighted-prob-2-ss2"
  bottom: "weighted-prob-2-ss3"
  bottom: "weighted-prob-2-ss4"
  top: "prob-2"
  eltwise_param {
    operation: SUM
  }
}
layers {
  bottom: "prob-2"
  bottom: "label"
  top: "loss-2"
  name: "loss-2"
  type: SOFTMAX_LOSS
  loss_weight: 1
}
layers {
  name: "accuracy-2"
  type: ACCURACY
  bottom: "prob-2"
  bottom: "label"
  top: "accuracy-2"
  include: { phase: TEST }
}
