name: "CnnMixture" 

layers { 
 name: "data" 
 type: DATA 
 top:  "data" 
 top:  "label" 
 data_param { 
   source: "/home/ge9/WACV2016/dataset/train/birdsnap/lmdb/birdsnap_train_lmdb" 
   backend: LMDB 
   batch_size: 15 
 } 
 transform_param { 
    crop_size: 226 
    mean_file: "/home/ge9/WACV2016/dataset/models/ImageNet/imagenet_mean.binaryproto" 
    mirror: true 
  } 
  include: { phase: TRAIN } 
} 

layers { 
 name: "data" 
 type: DATA 
 top:  "data" 
 top:  "label" 
 data_param { 
   source: "/home/ge9/WACV2016/dataset/test/birdsnap/lmdb/birdsnap_test_lmdb" 
   backend: LMDB 
   batch_size: 15 
 } 
 transform_param { 
    crop_size: 226 
    mean_file: "/home/ge9/WACV2016/dataset/models/ImageNet/imagenet_mean.binaryproto" 
    mirror: false 
  } 
  include: { phase: TEST } 
} 

layers {

  bottom: "data"

  top: "conv1/7x7_s2-se1"

  name: "conv1/7x7_s2-se1"

  type: CONVOLUTION

  blobs_lr: 1

  blobs_lr: 2

  weight_decay: 1

  weight_decay: 0

  convolution_param {

    num_output: 64

    pad: 3

    kernel_size: 7

    stride: 2

    weight_filler {

      type: "xavier"

      std: 0.1

    }

    bias_filler {

      type: "constant"

      value: 0.2

    }

  }

}

layers {

  bottom: "conv1/7x7_s2-se1"

  top: "conv1/7x7_s2-se1"

  name: "conv1/relu_7x7-se1"

  type: RELU

}

layers {

  bottom: "conv1/7x7_s2-se1"

  top: "pool1/3x3_s2-se1"

  name: "pool1/3x3_s2-se1"

  type: POOLING

  pooling_param {

    pool: MAX

    kernel_size: 3

    stride: 2

  }

}

layers {

  bottom: "pool1/3x3_s2-se1"

  top: "pool1/norm1-se1"

  name: "pool1/norm1-se1"

  type: LRN

  lrn_param {

    local_size: 5

    alpha: 0.0001

    beta: 0.75

  }

}

layers {

  bottom: "pool1/norm1-se1"

  top: "conv2/3x3_reduce-se1"

  name: "conv2/3x3_reduce-se1"

  type: CONVOLUTION

  blobs_lr: 1

  blobs_lr: 2

  weight_decay: 1

  weight_decay: 0

  convolution_param {

    num_output: 64

    kernel_size: 1

    weight_filler {

      type: "xavier"

      std: 0.1

    }

    bias_filler {

      type: "constant"

      value: 0.2

    }

  }

}

layers {

  bottom: "conv2/3x3_reduce-se1"

  top: "conv2/3x3_reduce-se1"

  name: "conv2/relu_3x3_reduce-se1"

  type: RELU

}

layers {

  bottom: "conv2/3x3_reduce-se1"

  top: "conv2/3x3-se1"

  name: "conv2/3x3-se1"

  type: CONVOLUTION

  blobs_lr: 1

  blobs_lr: 2

  weight_decay: 1

  weight_decay: 0

  convolution_param {

    num_output: 192

    pad: 1

    kernel_size: 3

    weight_filler {

      type: "xavier"

      std: 0.03

    }

    bias_filler {

      type: "constant"

      value: 0.2

    }

  }

}

layers {

  bottom: "conv2/3x3-se1"

  top: "conv2/3x3-se1"

  name: "conv2/relu_3x3-se1"

  type: RELU

}

layers {

  bottom: "conv2/3x3-se1"

  top: "conv2/norm2-se1"

  name: "conv2/norm2-se1"

  type: LRN

  lrn_param {

    local_size: 5

    alpha: 0.0001

    beta: 0.75

  }

}

layers {

  bottom: "conv2/norm2-se1"

  top: "pool2/3x3_s2-se1"

  name: "pool2/3x3_s2-se1"

  type: POOLING

  pooling_param {

    pool: MAX

    kernel_size: 3

    stride: 2

  }

}

layers {

  bottom: "pool2/3x3_s2-se1"

  top: "inception_3a/1x1-se1"

  name: "inception_3a/1x1-se1"

  type: CONVOLUTION

  blobs_lr: 1

  blobs_lr: 2

  weight_decay: 1

  weight_decay: 0

  convolution_param {

    num_output: 64

    kernel_size: 1

    weight_filler {

      type: "xavier"

      std: 0.03

    }

    bias_filler {

      type: "constant"

      value: 0.2

    }

  }

}

layers {

  bottom: "inception_3a/1x1-se1"

  top: "inception_3a/1x1-se1"

  name: "inception_3a/relu_1x1-se1"

  type: RELU

}

layers {

  bottom: "pool2/3x3_s2-se1"

  top: "inception_3a/3x3_reduce-se1"

  name: "inception_3a/3x3_reduce-se1"

  type: CONVOLUTION

  blobs_lr: 1

  blobs_lr: 2

  weight_decay: 1

  weight_decay: 0

  convolution_param {

    num_output: 96

    kernel_size: 1

    weight_filler {

      type: "xavier"

      std: 0.09

    }

    bias_filler {

      type: "constant"

      value: 0.2

    }

  }

}

layers {

  bottom: "inception_3a/3x3_reduce-se1"

  top: "inception_3a/3x3_reduce-se1"

  name: "inception_3a/relu_3x3_reduce-se1"

  type: RELU

}

layers {

  bottom: "inception_3a/3x3_reduce-se1"

  top: "inception_3a/3x3-se1"

  name: "inception_3a/3x3-se1"

  type: CONVOLUTION

  blobs_lr: 1

  blobs_lr: 2

  weight_decay: 1

  weight_decay: 0

  convolution_param {

    num_output: 128

    pad: 1

    kernel_size: 3

    weight_filler {

      type: "xavier"

      std: 0.03

    }

    bias_filler {

      type: "constant"

      value: 0.2

    }

  }

}

layers {

  bottom: "inception_3a/3x3-se1"

  top: "inception_3a/3x3-se1"

  name: "inception_3a/relu_3x3-se1"

  type: RELU

}

layers {

  bottom: "pool2/3x3_s2-se1"

  top: "inception_3a/5x5_reduce-se1"

  name: "inception_3a/5x5_reduce-se1"

  type: CONVOLUTION

  blobs_lr: 1

  blobs_lr: 2

  weight_decay: 1

  weight_decay: 0

  convolution_param {

    num_output: 16

    kernel_size: 1

    weight_filler {

      type: "xavier"

      std: 0.2

    }

    bias_filler {

      type: "constant"

      value: 0.2

    }

  }

}

layers {

  bottom: "inception_3a/5x5_reduce-se1"

  top: "inception_3a/5x5_reduce-se1"

  name: "inception_3a/relu_5x5_reduce-se1"

  type: RELU

}

layers {

  bottom: "inception_3a/5x5_reduce-se1"

  top: "inception_3a/5x5-se1"

  name: "inception_3a/5x5-se1"

  type: CONVOLUTION

  blobs_lr: 1

  blobs_lr: 2

  weight_decay: 1

  weight_decay: 0

  convolution_param {

    num_output: 32

    pad: 2

    kernel_size: 5

    weight_filler {

      type: "xavier"

      std: 0.03

    }

    bias_filler {

      type: "constant"

      value: 0.2

    }

  }

}

layers {

  bottom: "inception_3a/5x5-se1"

  top: "inception_3a/5x5-se1"

  name: "inception_3a/relu_5x5-se1"

  type: RELU

}

layers {

  bottom: "pool2/3x3_s2-se1"

  top: "inception_3a/pool-se1"

  name: "inception_3a/pool-se1"

  type: POOLING

  pooling_param {

    pool: MAX

    kernel_size: 3

    stride: 1

    pad: 1

  }

}

layers {

  bottom: "inception_3a/pool-se1"

  top: "inception_3a/pool_proj-se1"

  name: "inception_3a/pool_proj-se1"

  type: CONVOLUTION

  blobs_lr: 1

  blobs_lr: 2

  weight_decay: 1

  weight_decay: 0

  convolution_param {

    num_output: 32

    kernel_size: 1

    weight_filler {

      type: "xavier"

      std: 0.1

    }

    bias_filler {

      type: "constant"

      value: 0.2

    }

  }

}

layers {

  bottom: "inception_3a/pool_proj-se1"

  top: "inception_3a/pool_proj-se1"

  name: "inception_3a/relu_pool_proj-se1"

  type: RELU

}

layers {

  bottom: "inception_3a/1x1-se1"

  bottom: "inception_3a/3x3-se1"

  bottom: "inception_3a/5x5-se1"

  bottom: "inception_3a/pool_proj-se1"

  top: "inception_3a/output-se1"

  name: "inception_3a/output-se1"

  type: CONCAT

}

layers {

  bottom: "inception_3a/output-se1"

  top: "inception_3b/1x1-se1"

  name: "inception_3b/1x1-se1"

  type: CONVOLUTION

  blobs_lr: 1

  blobs_lr: 2

  weight_decay: 1

  weight_decay: 0

  convolution_param {

    num_output: 128

    kernel_size: 1

    weight_filler {

      type: "xavier"

      std: 0.03

    }

    bias_filler {

      type: "constant"

      value: 0.2

    }

  }

}

layers {

  bottom: "inception_3b/1x1-se1"

  top: "inception_3b/1x1-se1"

  name: "inception_3b/relu_1x1-se1"

  type: RELU

}

layers {

  bottom: "inception_3a/output-se1"

  top: "inception_3b/3x3_reduce-se1"

  name: "inception_3b/3x3_reduce-se1"

  type: CONVOLUTION

  blobs_lr: 1

  blobs_lr: 2

  weight_decay: 1

  weight_decay: 0

  convolution_param {

    num_output: 128

    kernel_size: 1

    weight_filler {

      type: "xavier"

      std: 0.09

    }

    bias_filler {

      type: "constant"

      value: 0.2

    }

  }

}

layers {

  bottom: "inception_3b/3x3_reduce-se1"

  top: "inception_3b/3x3_reduce-se1"

  name: "inception_3b/relu_3x3_reduce-se1"

  type: RELU

}

layers {

  bottom: "inception_3b/3x3_reduce-se1"

  top: "inception_3b/3x3-se1"

  name: "inception_3b/3x3-se1"

  type: CONVOLUTION

  blobs_lr: 1

  blobs_lr: 2

  weight_decay: 1

  weight_decay: 0

  convolution_param {

    num_output: 192

    pad: 1

    kernel_size: 3

    weight_filler {

      type: "xavier"

      std: 0.03

    }

    bias_filler {

      type: "constant"

      value: 0.2

    }

  }

}

layers {

  bottom: "inception_3b/3x3-se1"

  top: "inception_3b/3x3-se1"

  name: "inception_3b/relu_3x3-se1"

  type: RELU

}

layers {

  bottom: "inception_3a/output-se1"

  top: "inception_3b/5x5_reduce-se1"

  name: "inception_3b/5x5_reduce-se1"

  type: CONVOLUTION

  blobs_lr: 1

  blobs_lr: 2

  weight_decay: 1

  weight_decay: 0

  convolution_param {

    num_output: 32

    kernel_size: 1

    weight_filler {

      type: "xavier"

      std: 0.2

    }

    bias_filler {

      type: "constant"

      value: 0.2

    }

  }

}

layers {

  bottom: "inception_3b/5x5_reduce-se1"

  top: "inception_3b/5x5_reduce-se1"

  name: "inception_3b/relu_5x5_reduce-se1"

  type: RELU

}

layers {

  bottom: "inception_3b/5x5_reduce-se1"

  top: "inception_3b/5x5-se1"

  name: "inception_3b/5x5-se1"

  type: CONVOLUTION

  blobs_lr: 1

  blobs_lr: 2

  weight_decay: 1

  weight_decay: 0

  convolution_param {

    num_output: 96

    pad: 2

    kernel_size: 5

    weight_filler {

      type: "xavier"

      std: 0.03

    }

    bias_filler {

      type: "constant"

      value: 0.2

    }

  }

}

layers {

  bottom: "inception_3b/5x5-se1"

  top: "inception_3b/5x5-se1"

  name: "inception_3b/relu_5x5-se1"

  type: RELU

}

layers {

  bottom: "inception_3a/output-se1"

  top: "inception_3b/pool-se1"

  name: "inception_3b/pool-se1"

  type: POOLING

  pooling_param {

    pool: MAX

    kernel_size: 3

    stride: 1

    pad: 1

  }

}

layers {

  bottom: "inception_3b/pool-se1"

  top: "inception_3b/pool_proj-se1"

  name: "inception_3b/pool_proj-se1"

  type: CONVOLUTION

  blobs_lr: 1

  blobs_lr: 2

  weight_decay: 1

  weight_decay: 0

  convolution_param {

    num_output: 64

    kernel_size: 1

    weight_filler {

      type: "xavier"

      std: 0.1

    }

    bias_filler {

      type: "constant"

      value: 0.2

    }

  }

}

layers {

  bottom: "inception_3b/pool_proj-se1"

  top: "inception_3b/pool_proj-se1"

  name: "inception_3b/relu_pool_proj-se1"

  type: RELU

}

layers {

  bottom: "inception_3b/1x1-se1"

  bottom: "inception_3b/3x3-se1"

  bottom: "inception_3b/5x5-se1"

  bottom: "inception_3b/pool_proj-se1"

  top: "inception_3b/output-se1"

  name: "inception_3b/output-se1"

  type: CONCAT

}

layers {

  bottom: "inception_3b/output-se1"

  top: "pool3/3x3_s2-se1"

  name: "pool3/3x3_s2-se1"

  type: POOLING

  pooling_param {

    pool: MAX

    kernel_size: 3

    stride: 2

  }

}

layers {

  bottom: "pool3/3x3_s2-se1"

  top: "inception_4a/1x1-se1"

  name: "inception_4a/1x1-se1"

  type: CONVOLUTION

  blobs_lr: 1

  blobs_lr: 2

  weight_decay: 1

  weight_decay: 0

  convolution_param {

    num_output: 192

    kernel_size: 1

    weight_filler {

      type: "xavier"

      std: 0.03

    }

    bias_filler {

      type: "constant"

      value: 0.2

    }

  }

}

layers {

  bottom: "inception_4a/1x1-se1"

  top: "inception_4a/1x1-se1"

  name: "inception_4a/relu_1x1-se1"

  type: RELU

}

layers {

  bottom: "pool3/3x3_s2-se1"

  top: "inception_4a/3x3_reduce-se1"

  name: "inception_4a/3x3_reduce-se1"

  type: CONVOLUTION

  blobs_lr: 1

  blobs_lr: 2

  weight_decay: 1

  weight_decay: 0

  convolution_param {

    num_output: 96

    kernel_size: 1

    weight_filler {

      type: "xavier"

      std: 0.09

    }

    bias_filler {

      type: "constant"

      value: 0.2

    }

  }

}

layers {

  bottom: "inception_4a/3x3_reduce-se1"

  top: "inception_4a/3x3_reduce-se1"

  name: "inception_4a/relu_3x3_reduce-se1"

  type: RELU

}

layers {

  bottom: "inception_4a/3x3_reduce-se1"

  top: "inception_4a/3x3-se1"

  name: "inception_4a/3x3-se1"

  type: CONVOLUTION

  blobs_lr: 1

  blobs_lr: 2

  weight_decay: 1

  weight_decay: 0

  convolution_param {

    num_output: 208

    pad: 1

    kernel_size: 3

    weight_filler {

      type: "xavier"

      std: 0.03

    }

    bias_filler {

      type: "constant"

      value: 0.2

    }

  }

}

layers {

  bottom: "inception_4a/3x3-se1"

  top: "inception_4a/3x3-se1"

  name: "inception_4a/relu_3x3-se1"

  type: RELU

}

layers {

  bottom: "pool3/3x3_s2-se1"

  top: "inception_4a/5x5_reduce-se1"

  name: "inception_4a/5x5_reduce-se1"

  type: CONVOLUTION

  blobs_lr: 1

  blobs_lr: 2

  weight_decay: 1

  weight_decay: 0

  convolution_param {

    num_output: 16

    kernel_size: 1

    weight_filler {

      type: "xavier"

      std: 0.2

    }

    bias_filler {

      type: "constant"

      value: 0.2

    }

  }

}

layers {

  bottom: "inception_4a/5x5_reduce-se1"

  top: "inception_4a/5x5_reduce-se1"

  name: "inception_4a/relu_5x5_reduce-se1"

  type: RELU

}

layers {

  bottom: "inception_4a/5x5_reduce-se1"

  top: "inception_4a/5x5-se1"

  name: "inception_4a/5x5-se1"

  type: CONVOLUTION

  blobs_lr: 1

  blobs_lr: 2

  weight_decay: 1

  weight_decay: 0

  convolution_param {

    num_output: 48

    pad: 2

    kernel_size: 5

    weight_filler {

      type: "xavier"

      std: 0.03

    }

    bias_filler {

      type: "constant"

      value: 0.2

    }

  }

}

layers {

  bottom: "inception_4a/5x5-se1"

  top: "inception_4a/5x5-se1"

  name: "inception_4a/relu_5x5-se1"

  type: RELU

}

layers {

  bottom: "pool3/3x3_s2-se1"

  top: "inception_4a/pool-se1"

  name: "inception_4a/pool-se1"

  type: POOLING

  pooling_param {

    pool: MAX

    kernel_size: 3

    stride: 1

    pad: 1

  }

}

layers {

  bottom: "inception_4a/pool-se1"

  top: "inception_4a/pool_proj-se1"

  name: "inception_4a/pool_proj-se1"

  type: CONVOLUTION

  blobs_lr: 1

  blobs_lr: 2

  weight_decay: 1

  weight_decay: 0

  convolution_param {

    num_output: 64

    kernel_size: 1

    weight_filler {

      type: "xavier"

      std: 0.1

    }

    bias_filler {

      type: "constant"

      value: 0.2

    }

  }

}

layers {

  bottom: "inception_4a/pool_proj-se1"

  top: "inception_4a/pool_proj-se1"

  name: "inception_4a/relu_pool_proj-se1"

  type: RELU

}

layers {

  bottom: "inception_4a/1x1-se1"

  bottom: "inception_4a/3x3-se1"

  bottom: "inception_4a/5x5-se1"

  bottom: "inception_4a/pool_proj-se1"

  top: "inception_4a/output-se1"

  name: "inception_4a/output-se1"

  type: CONCAT

}

layers {

  bottom: "inception_4a/output-se1"

  top: "loss1/ave_pool-se1"

  name: "loss1/ave_pool-se1"

  type: POOLING

  pooling_param {

    pool: AVE

    kernel_size: 5

    stride: 3

  }

}

layers {

  bottom: "loss1/ave_pool-se1"

  top: "loss1/conv-se1"

  name: "loss1/conv-se1"

  type: CONVOLUTION

  blobs_lr: 1

  blobs_lr: 2

  weight_decay: 1

  weight_decay: 0

  convolution_param {

    num_output: 128

    kernel_size: 1

    weight_filler {

      type: "xavier"

      std: 0.08

    }

    bias_filler {

      type: "constant"

      value: 0.2

    }

  }

}

layers {

  bottom: "loss1/conv-se1"

  top: "loss1/conv-se1"

  name: "loss1/relu_conv-se1"

  type: RELU

}

layers {

  bottom: "loss1/conv-se1"

  top: "loss1/fc-se1"

  name: "loss1/fc-se1"

  type: INNER_PRODUCT

  blobs_lr: 1

  blobs_lr: 2

  weight_decay: 1

  weight_decay: 0

  inner_product_param {

    num_output: 1024

    weight_filler {

      type: "xavier"

      std: 0.02

    }

    bias_filler {

      type: "constant"

      value: 0.2

    }

  }

}

layers {

  bottom: "loss1/fc-se1"

  top: "loss1/fc-se1"

  name: "loss1/relu_fc-se1"

  type: RELU

}

layers {

  bottom: "loss1/fc-se1"

  top: "loss1/fc-se1"

  name: "loss1/drop_fc-se1"

  type: DROPOUT

  dropout_param {

    dropout_ratio: 0.7

  }

}

layers {

  bottom: "loss1/fc-se1"

  top: "fc-1-se1"

  name: "loss1/classifier-se1"

  type: INNER_PRODUCT

  blobs_lr: 1

  blobs_lr: 2

  weight_decay: 1

  weight_decay: 0

  inner_product_param {

    num_output: 500

    weight_filler {

      type: "xavier"

      std: 0.0009765625

    }

    bias_filler { 

      type: "constant"

      value: 0

    }

  }

}

layers {

  name: "prob_layer-se1"

  type: BNLL    

  bottom: "fc-1-se1"

  top: "fc-1-se1"

}

layers {

  bottom: "inception_4a/output-se1"

  top: "inception_4b/1x1-se1"

  name: "inception_4b/1x1-se1"

  type: CONVOLUTION

  blobs_lr: 1

  blobs_lr: 2

  weight_decay: 1

  weight_decay: 0

  convolution_param {

    num_output: 160

    kernel_size: 1

    weight_filler {

      type: "xavier"

      std: 0.03

    }

    bias_filler {

      type: "constant"

      value: 0.2

    }

  }

}

layers {

  bottom: "inception_4b/1x1-se1"

  top: "inception_4b/1x1-se1"

  name: "inception_4b/relu_1x1-se1"

  type: RELU

}

layers {

  bottom: "inception_4a/output-se1"

  top: "inception_4b/3x3_reduce-se1"

  name: "inception_4b/3x3_reduce-se1"

  type: CONVOLUTION

  blobs_lr: 1

  blobs_lr: 2

  weight_decay: 1

  weight_decay: 0

  convolution_param {

    num_output: 112

    kernel_size: 1

    weight_filler {

      type: "xavier"

      std: 0.09

    }

    bias_filler {

      type: "constant"

      value: 0.2

    }

  }

}

layers {

  bottom: "inception_4b/3x3_reduce-se1"

  top: "inception_4b/3x3_reduce-se1"

  name: "inception_4b/relu_3x3_reduce-se1"

  type: RELU

}

layers {

  bottom: "inception_4b/3x3_reduce-se1"

  top: "inception_4b/3x3-se1"

  name: "inception_4b/3x3-se1"

  type: CONVOLUTION

  blobs_lr: 1

  blobs_lr: 2

  weight_decay: 1

  weight_decay: 0

  convolution_param {

    num_output: 224

    pad: 1

    kernel_size: 3

    weight_filler {

      type: "xavier"

      std: 0.03

    }

    bias_filler {

      type: "constant"

      value: 0.2

    }

  }

}

layers {

  bottom: "inception_4b/3x3-se1"

  top: "inception_4b/3x3-se1"

  name: "inception_4b/relu_3x3-se1"

  type: RELU

}

layers {

  bottom: "inception_4a/output-se1"

  top: "inception_4b/5x5_reduce-se1"

  name: "inception_4b/5x5_reduce-se1"

  type: CONVOLUTION

  blobs_lr: 1

  blobs_lr: 2

  weight_decay: 1

  weight_decay: 0

  convolution_param {

    num_output: 24

    kernel_size: 1

    weight_filler {

      type: "xavier"

      std: 0.2

    }

    bias_filler {

      type: "constant"

      value: 0.2

    }

  }

}

layers {

  bottom: "inception_4b/5x5_reduce-se1"

  top: "inception_4b/5x5_reduce-se1"

  name: "inception_4b/relu_5x5_reduce-se1"

  type: RELU

}

layers {

  bottom: "inception_4b/5x5_reduce-se1"

  top: "inception_4b/5x5-se1"

  name: "inception_4b/5x5-se1"

  type: CONVOLUTION

  blobs_lr: 1

  blobs_lr: 2

  weight_decay: 1

  weight_decay: 0

  convolution_param {

    num_output: 64

    pad: 2

    kernel_size: 5

    weight_filler {

      type: "xavier"

      std: 0.03

    }

    bias_filler {

      type: "constant"

      value: 0.2

    }

  }

}

layers {

  bottom: "inception_4b/5x5-se1"

  top: "inception_4b/5x5-se1"

  name: "inception_4b/relu_5x5-se1"

  type: RELU

}

layers {

  bottom: "inception_4a/output-se1"

  top: "inception_4b/pool-se1"

  name: "inception_4b/pool-se1"

  type: POOLING

  pooling_param {

    pool: MAX

    kernel_size: 3

    stride: 1

    pad: 1

  }

}

layers {

  bottom: "inception_4b/pool-se1"

  top: "inception_4b/pool_proj-se1"

  name: "inception_4b/pool_proj-se1"

  type: CONVOLUTION

  blobs_lr: 1

  blobs_lr: 2

  weight_decay: 1

  weight_decay: 0

  convolution_param {

    num_output: 64

    kernel_size: 1

    weight_filler {

      type: "xavier"

      std: 0.1

    }

    bias_filler {

      type: "constant"

      value: 0.2

    }

  }

}

layers {

  bottom: "inception_4b/pool_proj-se1"

  top: "inception_4b/pool_proj-se1"

  name: "inception_4b/relu_pool_proj-se1"

  type: RELU

}

layers {

  bottom: "inception_4b/1x1-se1"

  bottom: "inception_4b/3x3-se1"

  bottom: "inception_4b/5x5-se1"

  bottom: "inception_4b/pool_proj-se1"

  top: "inception_4b/output-se1"

  name: "inception_4b/output-se1"

  type: CONCAT

}

layers {

  bottom: "inception_4b/output-se1"

  top: "inception_4c/1x1-se1"

  name: "inception_4c/1x1-se1"

  type: CONVOLUTION

  blobs_lr: 1

  blobs_lr: 2

  weight_decay: 1

  weight_decay: 0

  convolution_param {

    num_output: 128

    kernel_size: 1

    weight_filler {

      type: "xavier"

      std: 0.03

    }

    bias_filler {

      type: "constant"

      value: 0.2

    }

  }

}

layers {

  bottom: "inception_4c/1x1-se1"

  top: "inception_4c/1x1-se1"

  name: "inception_4c/relu_1x1-se1"

  type: RELU

}

layers {

  bottom: "inception_4b/output-se1"

  top: "inception_4c/3x3_reduce-se1"

  name: "inception_4c/3x3_reduce-se1"

  type: CONVOLUTION

  blobs_lr: 1

  blobs_lr: 2

  weight_decay: 1

  weight_decay: 0

  convolution_param {

    num_output: 128

    kernel_size: 1

    weight_filler {

      type: "xavier"

      std: 0.09

    }

    bias_filler {

      type: "constant"

      value: 0.2

    }

  }

}

layers {

  bottom: "inception_4c/3x3_reduce-se1"

  top: "inception_4c/3x3_reduce-se1"

  name: "inception_4c/relu_3x3_reduce-se1"

  type: RELU

}

layers {

  bottom: "inception_4c/3x3_reduce-se1"

  top: "inception_4c/3x3-se1"

  name: "inception_4c/3x3-se1"

  type: CONVOLUTION

  blobs_lr: 1

  blobs_lr: 2

  weight_decay: 1

  weight_decay: 0

  convolution_param {

    num_output: 256

    pad: 1

    kernel_size: 3

    weight_filler {

      type: "xavier"

      std: 0.03

    }

    bias_filler {

      type: "constant"

      value: 0.2

    }

  }

}

layers {

  bottom: "inception_4c/3x3-se1"

  top: "inception_4c/3x3-se1"

  name: "inception_4c/relu_3x3-se1"

  type: RELU

}

layers {

  bottom: "inception_4b/output-se1"

  top: "inception_4c/5x5_reduce-se1"

  name: "inception_4c/5x5_reduce-se1"

  type: CONVOLUTION

  blobs_lr: 1

  blobs_lr: 2

  weight_decay: 1

  weight_decay: 0

  convolution_param {

    num_output: 24

    kernel_size: 1

    weight_filler {

      type: "xavier"

      std: 0.2

    }

    bias_filler {

      type: "constant"

      value: 0.2

    }

  }

}

layers {

  bottom: "inception_4c/5x5_reduce-se1"

  top: "inception_4c/5x5_reduce-se1"

  name: "inception_4c/relu_5x5_reduce-se1"

  type: RELU

}

layers {

  bottom: "inception_4c/5x5_reduce-se1"

  top: "inception_4c/5x5-se1"

  name: "inception_4c/5x5-se1"

  type: CONVOLUTION

  blobs_lr: 1

  blobs_lr: 2

  weight_decay: 1

  weight_decay: 0

  convolution_param {

    num_output: 64

    pad: 2

    kernel_size: 5

    weight_filler {

      type: "xavier"

      std: 0.03

    }

    bias_filler {

      type: "constant"

      value: 0.2

    }

  }

}

layers {

  bottom: "inception_4c/5x5-se1"

  top: "inception_4c/5x5-se1"

  name: "inception_4c/relu_5x5-se1"

  type: RELU

}

layers {

  bottom: "inception_4b/output-se1"

  top: "inception_4c/pool-se1"

  name: "inception_4c/pool-se1"

  type: POOLING

  pooling_param {

    pool: MAX

    kernel_size: 3

    stride: 1

    pad: 1

  }

}

layers {

  bottom: "inception_4c/pool-se1"

  top: "inception_4c/pool_proj-se1"

  name: "inception_4c/pool_proj-se1"

  type: CONVOLUTION

  blobs_lr: 1

  blobs_lr: 2

  weight_decay: 1

  weight_decay: 0

  convolution_param {

    num_output: 64

    kernel_size: 1

    weight_filler {

      type: "xavier"

      std: 0.1

    }

    bias_filler {

      type: "constant"

      value: 0.2

    }

  }

}

layers {

  bottom: "inception_4c/pool_proj-se1"

  top: "inception_4c/pool_proj-se1"

  name: "inception_4c/relu_pool_proj-se1"

  type: RELU

}

layers {

  bottom: "inception_4c/1x1-se1"

  bottom: "inception_4c/3x3-se1"

  bottom: "inception_4c/5x5-se1"

  bottom: "inception_4c/pool_proj-se1"

  top: "inception_4c/output-se1"

  name: "inception_4c/output-se1"

  type: CONCAT

}

layers {

  bottom: "inception_4c/output-se1"

  top: "inception_4d/1x1-se1"

  name: "inception_4d/1x1-se1"

  type: CONVOLUTION

  blobs_lr: 1

  blobs_lr: 2

  weight_decay: 1

  weight_decay: 0

  convolution_param {

    num_output: 112

    kernel_size: 1

    weight_filler {

      type: "xavier"

      std: 0.03

    }

    bias_filler {

      type: "constant"

      value: 0.2

    }

  }

}

layers {

  bottom: "inception_4d/1x1-se1"

  top: "inception_4d/1x1-se1"

  name: "inception_4d/relu_1x1-se1"

  type: RELU

}

layers {

  bottom: "inception_4c/output-se1"

  top: "inception_4d/3x3_reduce-se1"

  name: "inception_4d/3x3_reduce-se1"

  type: CONVOLUTION

  blobs_lr: 1

  blobs_lr: 2

  weight_decay: 1

  weight_decay: 0

  convolution_param {

    num_output: 144

    kernel_size: 1

    weight_filler {

      type: "xavier"

      std: 0.09

    }

    bias_filler {

      type: "constant"

      value: 0.2

    }

  }

}

layers {

  bottom: "inception_4d/3x3_reduce-se1"

  top: "inception_4d/3x3_reduce-se1"

  name: "inception_4d/relu_3x3_reduce-se1"

  type: RELU

}

layers {

  bottom: "inception_4d/3x3_reduce-se1"

  top: "inception_4d/3x3-se1"

  name: "inception_4d/3x3-se1"

  type: CONVOLUTION

  blobs_lr: 1

  blobs_lr: 2

  weight_decay: 1

  weight_decay: 0

  convolution_param {

    num_output: 288

    pad: 1

    kernel_size: 3

    weight_filler {

      type: "xavier"

      std: 0.03

    }

    bias_filler {

      type: "constant"

      value: 0.2

    }

  }

}

layers {

  bottom: "inception_4d/3x3-se1"

  top: "inception_4d/3x3-se1"

  name: "inception_4d/relu_3x3-se1"

  type: RELU

}

layers {

  bottom: "inception_4c/output-se1"

  top: "inception_4d/5x5_reduce-se1"

  name: "inception_4d/5x5_reduce-se1"

  type: CONVOLUTION

  blobs_lr: 1

  blobs_lr: 2

  weight_decay: 1

  weight_decay: 0

  convolution_param {

    num_output: 32

    kernel_size: 1

    weight_filler {

      type: "xavier"

      std: 0.2

    }

    bias_filler {

      type: "constant"

      value: 0.2

    }

  }

}

layers {

  bottom: "inception_4d/5x5_reduce-se1"

  top: "inception_4d/5x5_reduce-se1"

  name: "inception_4d/relu_5x5_reduce-se1"

  type: RELU

}

layers {

  bottom: "inception_4d/5x5_reduce-se1"

  top: "inception_4d/5x5-se1"

  name: "inception_4d/5x5-se1"

  type: CONVOLUTION

  blobs_lr: 1

  blobs_lr: 2

  weight_decay: 1

  weight_decay: 0

  convolution_param {

    num_output: 64

    pad: 2

    kernel_size: 5

    weight_filler {

      type: "xavier"

      std: 0.03

    }

    bias_filler {

      type: "constant"

      value: 0.2

    }

  }

}

layers {

  bottom: "inception_4d/5x5-se1"

  top: "inception_4d/5x5-se1"

  name: "inception_4d/relu_5x5-se1"

  type: RELU

}

layers {

  bottom: "inception_4c/output-se1"

  top: "inception_4d/pool-se1"

  name: "inception_4d/pool-se1"

  type: POOLING

  pooling_param {

    pool: MAX

    kernel_size: 3

    stride: 1

    pad: 1

  }

}

layers {

  bottom: "inception_4d/pool-se1"

  top: "inception_4d/pool_proj-se1"

  name: "inception_4d/pool_proj-se1"

  type: CONVOLUTION

  blobs_lr: 1

  blobs_lr: 2

  weight_decay: 1

  weight_decay: 0

  convolution_param {

    num_output: 64

    kernel_size: 1

    weight_filler {

      type: "xavier"

      std: 0.1

    }

    bias_filler {

      type: "constant"

      value: 0.2

    }

  }

}

layers {

  bottom: "inception_4d/pool_proj-se1"

  top: "inception_4d/pool_proj-se1"

  name: "inception_4d/relu_pool_proj-se1"

  type: RELU

}

layers {

  bottom: "inception_4d/1x1-se1"

  bottom: "inception_4d/3x3-se1"

  bottom: "inception_4d/5x5-se1"

  bottom: "inception_4d/pool_proj-se1"

  top: "inception_4d/output-se1"

  name: "inception_4d/output-se1"

  type: CONCAT

}



layers {

  bottom: "inception_4d/output-se1"

  top: "loss2/ave_pool-se1"

  name: "loss2/ave_pool-se1"

  type: POOLING

  pooling_param {

    pool: AVE

    kernel_size: 5

    stride: 3

  }

}

layers {

  bottom: "loss2/ave_pool-se1"

  top: "loss2/conv-se1"

  name: "loss2/conv-se1"

  type: CONVOLUTION

  blobs_lr: 1

  blobs_lr: 2

  weight_decay: 1

  weight_decay: 0

  convolution_param {

    num_output: 128

    kernel_size: 1

    weight_filler {

      type: "xavier"

      std: 0.08

    }

    bias_filler {

      type: "constant"

      value: 0.2

    }

  }

}

layers {

  bottom: "loss2/conv-se1"

  top: "loss2/conv-se1"

  name: "loss2/relu_conv-se1"

  type: RELU

}

layers {

  bottom: "loss2/conv-se1"

  top: "loss2/fc-se1"

  name: "loss2/fc-se1"

  type: INNER_PRODUCT

  blobs_lr: 1

  blobs_lr: 2

  weight_decay: 1

  weight_decay: 0

  inner_product_param {

    num_output: 1024

    weight_filler {

      type: "xavier"

      std: 0.02

    }

    bias_filler {

      type: "constant"

      value: 0.2

    }

  }

}

layers {

  bottom: "loss2/fc-se1"

  top: "loss2/fc-se1"

  name: "loss2/relu_fc-se1"

  type: RELU

}

layers {

  bottom: "loss2/fc-se1"

  top: "loss2/fc-se1"

  name: "loss2/drop_fc-se1"

  type: DROPOUT

  dropout_param {

    dropout_ratio: 0.7

  }

}

layers {

  bottom: "loss2/fc-se1"

  top: "fc-2-se1"

  name: "loss2/classifier-se1"

  type: INNER_PRODUCT

  blobs_lr: 1

  blobs_lr: 2

  weight_decay: 1

  weight_decay: 0

  inner_product_param {

    num_output: 500

    weight_filler {

      type: "xavier"

      std: 0.0009765625

    }

    bias_filler {

      type: "constant"

      value: 0

    }

  }

}

layers {

  name: "prob_layer-se1"

  type: BNLL    

  bottom: "fc-2-se1"

  top: "fc-2-se1"

}

layers {

  bottom: "inception_4d/output-se1"

  top: "inception_4e/1x1-se1"

  name: "inception_4e/1x1-se1"

  type: CONVOLUTION

  blobs_lr: 1

  blobs_lr: 2

  weight_decay: 1

  weight_decay: 0

  convolution_param {

    num_output: 256

    kernel_size: 1

    weight_filler {

      type: "xavier"

      std: 0.03

    }

    bias_filler {

      type: "constant"

      value: 0.2

    }

  }

}

layers {

  bottom: "inception_4e/1x1-se1"

  top: "inception_4e/1x1-se1"

  name: "inception_4e/relu_1x1-se1"

  type: RELU

}

layers {

  bottom: "inception_4d/output-se1"

  top: "inception_4e/3x3_reduce-se1"

  name: "inception_4e/3x3_reduce-se1"

  type: CONVOLUTION

  blobs_lr: 1

  blobs_lr: 2

  weight_decay: 1

  weight_decay: 0

  convolution_param {

    num_output: 160

    kernel_size: 1

    weight_filler {

      type: "xavier"

      std: 0.09

    }

    bias_filler {

      type: "constant"

      value: 0.2

    }

  }

}

layers {

  bottom: "inception_4e/3x3_reduce-se1"

  top: "inception_4e/3x3_reduce-se1"

  name: "inception_4e/relu_3x3_reduce-se1"

  type: RELU

}

layers {

  bottom: "inception_4e/3x3_reduce-se1"

  top: "inception_4e/3x3-se1"

  name: "inception_4e/3x3-se1"

  type: CONVOLUTION

  blobs_lr: 1

  blobs_lr: 2

  weight_decay: 1

  weight_decay: 0

  convolution_param {

    num_output: 320

    pad: 1

    kernel_size: 3

    weight_filler {

      type: "xavier"

      std: 0.03

    }

    bias_filler {

      type: "constant"

      value: 0.2

    }

  }

}

layers {

  bottom: "inception_4e/3x3-se1"

  top: "inception_4e/3x3-se1"

  name: "inception_4e/relu_3x3-se1"

  type: RELU

}

layers {

  bottom: "inception_4d/output-se1"

  top: "inception_4e/5x5_reduce-se1"

  name: "inception_4e/5x5_reduce-se1"

  type: CONVOLUTION

  blobs_lr: 1

  blobs_lr: 2

  weight_decay: 1

  weight_decay: 0

  convolution_param {

    num_output: 32

    kernel_size: 1

    weight_filler {

      type: "xavier"

      std: 0.2

    }

    bias_filler {

      type: "constant"

      value: 0.2

    }

  }

}

layers {

  bottom: "inception_4e/5x5_reduce-se1"

  top: "inception_4e/5x5_reduce-se1"

  name: "inception_4e/relu_5x5_reduce-se1"

  type: RELU

}

layers {

  bottom: "inception_4e/5x5_reduce-se1"

  top: "inception_4e/5x5-se1"

  name: "inception_4e/5x5-se1"

  type: CONVOLUTION

  blobs_lr: 1

  blobs_lr: 2

  weight_decay: 1

  weight_decay: 0

  convolution_param {

    num_output: 128

    pad: 2

    kernel_size: 5

    weight_filler {

      type: "xavier"

      std: 0.03

    }

    bias_filler {

      type: "constant"

      value: 0.2

    }

  }

}

layers {

  bottom: "inception_4e/5x5-se1"

  top: "inception_4e/5x5-se1"

  name: "inception_4e/relu_5x5-se1"

  type: RELU

}

layers {

  bottom: "inception_4d/output-se1"

  top: "inception_4e/pool-se1"

  name: "inception_4e/pool-se1"

  type: POOLING

  pooling_param {

    pool: MAX

    kernel_size: 3

    stride: 1

    pad: 1

  }

}

layers {

  bottom: "inception_4e/pool-se1"

  top: "inception_4e/pool_proj-se1"

  name: "inception_4e/pool_proj-se1"

  type: CONVOLUTION

  blobs_lr: 1

  blobs_lr: 2

  weight_decay: 1

  weight_decay: 0

  convolution_param {

    num_output: 128

    kernel_size: 1

    weight_filler {

      type: "xavier"

      std: 0.1

    }

    bias_filler {

      type: "constant"

      value: 0.2

    }

  }

}

layers {

  bottom: "inception_4e/pool_proj-se1"

  top: "inception_4e/pool_proj-se1"

  name: "inception_4e/relu_pool_proj-se1"

  type: RELU

}

layers {

  bottom: "inception_4e/1x1-se1"

  bottom: "inception_4e/3x3-se1"

  bottom: "inception_4e/5x5-se1"

  bottom: "inception_4e/pool_proj-se1"

  top: "inception_4e/output-se1"

  name: "inception_4e/output-se1"

  type: CONCAT

}

layers {

  bottom: "inception_4e/output-se1"

  top: "pool4/3x3_s2-se1"

  name: "pool4/3x3_s2-se1"

  type: POOLING

  pooling_param {

    pool: MAX

    kernel_size: 3

    stride: 2

  }

}

layers {

  bottom: "pool4/3x3_s2-se1"

  top: "inception_5a/1x1-se1"

  name: "inception_5a/1x1-se1"

  type: CONVOLUTION

  blobs_lr: 1

  blobs_lr: 2

  weight_decay: 1

  weight_decay: 0

  convolution_param {

    num_output: 256

    kernel_size: 1

    weight_filler {

      type: "xavier"

      std: 0.03

    }

    bias_filler {

      type: "constant"

      value: 0.2

    }

  }

}

layers {

  bottom: "inception_5a/1x1-se1"

  top: "inception_5a/1x1-se1"

  name: "inception_5a/relu_1x1-se1"

  type: RELU

}

layers {

  bottom: "pool4/3x3_s2-se1"

  top: "inception_5a/3x3_reduce-se1"

  name: "inception_5a/3x3_reduce-se1"

  type: CONVOLUTION

  blobs_lr: 1

  blobs_lr: 2

  weight_decay: 1

  weight_decay: 0

  convolution_param {

    num_output: 160

    kernel_size: 1

    weight_filler {

      type: "xavier"

      std: 0.09

    }

    bias_filler {

      type: "constant"

      value: 0.2

    }

  }

}

layers {

  bottom: "inception_5a/3x3_reduce-se1"

  top: "inception_5a/3x3_reduce-se1"

  name: "inception_5a/relu_3x3_reduce-se1"

  type: RELU

}

layers {

  bottom: "inception_5a/3x3_reduce-se1"

  top: "inception_5a/3x3-se1"

  name: "inception_5a/3x3-se1"

  type: CONVOLUTION

  blobs_lr: 1

  blobs_lr: 2

  weight_decay: 1

  weight_decay: 0

  convolution_param {

    num_output: 320

    pad: 1

    kernel_size: 3

    weight_filler {

      type: "xavier"

      std: 0.03

    }

    bias_filler {

      type: "constant"

      value: 0.2

    }

  }

}

layers {

  bottom: "inception_5a/3x3-se1"

  top: "inception_5a/3x3-se1"

  name: "inception_5a/relu_3x3-se1"

  type: RELU

}

layers {

  bottom: "pool4/3x3_s2-se1"

  top: "inception_5a/5x5_reduce-se1"

  name: "inception_5a/5x5_reduce-se1"

  type: CONVOLUTION

  blobs_lr: 1

  blobs_lr: 2

  weight_decay: 1

  weight_decay: 0

  convolution_param {

    num_output: 32

    kernel_size: 1

    weight_filler {

      type: "xavier"

      std: 0.2

    }

    bias_filler {

      type: "constant"

      value: 0.2

    }

  }

}

layers {

  bottom: "inception_5a/5x5_reduce-se1"

  top: "inception_5a/5x5_reduce-se1"

  name: "inception_5a/relu_5x5_reduce-se1"

  type: RELU

}

layers {

  bottom: "inception_5a/5x5_reduce-se1"

  top: "inception_5a/5x5-se1"

  name: "inception_5a/5x5-se1"

  type: CONVOLUTION

  blobs_lr: 1

  blobs_lr: 2

  weight_decay: 1

  weight_decay: 0

  convolution_param {

    num_output: 128

    pad: 2

    kernel_size: 5

    weight_filler {

      type: "xavier"

      std: 0.03

    }

    bias_filler {

      type: "constant"

      value: 0.2

    }

  }

}

layers {

  bottom: "inception_5a/5x5-se1"

  top: "inception_5a/5x5-se1"

  name: "inception_5a/relu_5x5-se1"

  type: RELU

}

layers {

  bottom: "pool4/3x3_s2-se1"

  top: "inception_5a/pool-se1"

  name: "inception_5a/pool-se1"

  type: POOLING

  pooling_param {

    pool: MAX

    kernel_size: 3

    stride: 1

    pad: 1

  }

}

layers {

  bottom: "inception_5a/pool-se1"

  top: "inception_5a/pool_proj-se1"

  name: "inception_5a/pool_proj-se1"

  type: CONVOLUTION

  blobs_lr: 1

  blobs_lr: 2

  weight_decay: 1

  weight_decay: 0

  convolution_param {

    num_output: 128

    kernel_size: 1

    weight_filler {

      type: "xavier"

      std: 0.1

    }

    bias_filler {

      type: "constant"

      value: 0.2

    }

  }

}

layers {

  bottom: "inception_5a/pool_proj-se1"

  top: "inception_5a/pool_proj-se1"

  name: "inception_5a/relu_pool_proj-se1"

  type: RELU

}

layers {

  bottom: "inception_5a/1x1-se1"

  bottom: "inception_5a/3x3-se1"

  bottom: "inception_5a/5x5-se1"

  bottom: "inception_5a/pool_proj-se1"

  top: "inception_5a/output-se1"

  name: "inception_5a/output-se1"

  type: CONCAT

}

layers {

  bottom: "inception_5a/output-se1"

  top: "inception_5b/1x1-se1"

  name: "inception_5b/1x1-se1"

  type: CONVOLUTION

  blobs_lr: 1

  blobs_lr: 2

  weight_decay: 1

  weight_decay: 0

  convolution_param {

    num_output: 384

    kernel_size: 1

    weight_filler {

      type: "xavier"

      std: 0.03

    }

    bias_filler {

      type: "constant"

      value: 0.2

    }

  }

}

layers {

  bottom: "inception_5b/1x1-se1"

  top: "inception_5b/1x1-se1"

  name: "inception_5b/relu_1x1-se1"

  type: RELU

}

layers {

  bottom: "inception_5a/output-se1"

  top: "inception_5b/3x3_reduce-se1"

  name: "inception_5b/3x3_reduce-se1"

  type: CONVOLUTION

  blobs_lr: 1

  blobs_lr: 2

  weight_decay: 1

  weight_decay: 0

  convolution_param {

    num_output: 192

    kernel_size: 1

    weight_filler {

      type: "xavier"

      std: 0.09

    }

    bias_filler {

      type: "constant"

      value: 0.2

    }

  }

}

layers {

  bottom: "inception_5b/3x3_reduce-se1"

  top: "inception_5b/3x3_reduce-se1"

  name: "inception_5b/relu_3x3_reduce-se1"

  type: RELU

}

layers {

  bottom: "inception_5b/3x3_reduce-se1"

  top: "inception_5b/3x3-se1"

  name: "inception_5b/3x3-se1"

  type: CONVOLUTION

  blobs_lr: 1

  blobs_lr: 2

  weight_decay: 1

  weight_decay: 0

  convolution_param {

    num_output: 384

    pad: 1

    kernel_size: 3

    weight_filler {

      type: "xavier"

      std: 0.03

    }

    bias_filler {

      type: "constant"

      value: 0.2

    }

  }

}

layers {

  bottom: "inception_5b/3x3-se1"

  top: "inception_5b/3x3-se1"

  name: "inception_5b/relu_3x3-se1"

  type: RELU

}

layers {

  bottom: "inception_5a/output-se1"

  top: "inception_5b/5x5_reduce-se1"

  name: "inception_5b/5x5_reduce-se1"

  type: CONVOLUTION

  blobs_lr: 1

  blobs_lr: 2

  weight_decay: 1

  weight_decay: 0

  convolution_param {

    num_output: 48

    kernel_size: 1

    weight_filler {

      type: "xavier"

      std: 0.2

    }

    bias_filler {

      type: "constant"

      value: 0.2

    }

  }

}

layers {

  bottom: "inception_5b/5x5_reduce-se1"

  top: "inception_5b/5x5_reduce-se1"

  name: "inception_5b/relu_5x5_reduce-se1"

  type: RELU

}

layers {

  bottom: "inception_5b/5x5_reduce-se1"

  top: "inception_5b/5x5-se1"

  name: "inception_5b/5x5-se1"

  type: CONVOLUTION

  blobs_lr: 1

  blobs_lr: 2

  weight_decay: 1

  weight_decay: 0

  convolution_param {

    num_output: 128

    pad: 2

    kernel_size: 5

    weight_filler {

      type: "xavier"

      std: 0.03

    }

    bias_filler {

      type: "constant"

      value: 0.2

    }

  }

}

layers {

  bottom: "inception_5b/5x5-se1"

  top: "inception_5b/5x5-se1"

  name: "inception_5b/relu_5x5-se1"

  type: RELU

}

layers {

  bottom: "inception_5a/output-se1"

  top: "inception_5b/pool-se1"

  name: "inception_5b/pool-se1"

  type: POOLING

  pooling_param {

    pool: MAX

    kernel_size: 3

    stride: 1

    pad: 1

  }

}

layers {

  bottom: "inception_5b/pool-se1"

  top: "inception_5b/pool_proj-se1"

  name: "inception_5b/pool_proj-se1"

  type: CONVOLUTION

  blobs_lr: 1

  blobs_lr: 2

  weight_decay: 1

  weight_decay: 0

  convolution_param {

    num_output: 128

    kernel_size: 1

    weight_filler {

      type: "xavier"

      std: 0.1

    }

    bias_filler {

      type: "constant"

      value: 0.2

    }

  }

}

layers {

  bottom: "inception_5b/pool_proj-se1"

  top: "inception_5b/pool_proj-se1"

  name: "inception_5b/relu_pool_proj-se1"

  type: RELU

}

layers {

  bottom: "inception_5b/1x1-se1"

  bottom: "inception_5b/3x3-se1"

  bottom: "inception_5b/5x5-se1"

  bottom: "inception_5b/pool_proj-se1"

  top: "inception_5b/output-se1"

  name: "inception_5b/output-se1"

  type: CONCAT

}

layers {

  bottom: "inception_5b/output-se1"

  top: "pool5/7x7_s1-se1"

  name: "pool5/7x7_s1-se1"

  type: POOLING

  pooling_param {

    pool: AVE

    kernel_size: 7

    stride: 1

  }

}

layers {

  bottom: "pool5/7x7_s1-se1"

  top: "pool5/7x7_s1-se1"

  name: "pool5/drop_7x7_s1-se1"

  type: DROPOUT

  dropout_param {

    dropout_ratio: 0.4

  }

}

layers {

  bottom: "pool5/7x7_s1-se1"

  top: "fc8-se1"

  name: "loss3/classifier-se1"

  type: INNER_PRODUCT

  blobs_lr: 1

  blobs_lr: 2

  weight_decay: 1

  weight_decay: 0

  inner_product_param {

    num_output: 500

    weight_filler {

      type: "xavier"

    }

    bias_filler {

      type: "constant"

      value: 0

    }

  }

}

layers {

  name: "prob_layer-se1"

  type: BNLL    

  bottom: "fc8-se1"

  top: "fc8-se1"

}







 
layers {

  bottom: "data"

  top: "conv1/7x7_s2-se2"

  name: "conv1/7x7_s2-se2"

  type: CONVOLUTION

  blobs_lr: 1

  blobs_lr: 2

  weight_decay: 1

  weight_decay: 0

  convolution_param {

    num_output: 64

    pad: 3

    kernel_size: 7

    stride: 2

    weight_filler {

      type: "xavier"

      std: 0.1

    }

    bias_filler {

      type: "constant"

      value: 0.2

    }

  }

}

layers {

  bottom: "conv1/7x7_s2-se2"

  top: "conv1/7x7_s2-se2"

  name: "conv1/relu_7x7-se2"

  type: RELU

}

layers {

  bottom: "conv1/7x7_s2-se2"

  top: "pool1/3x3_s2-se2"

  name: "pool1/3x3_s2-se2"

  type: POOLING

  pooling_param {

    pool: MAX

    kernel_size: 3

    stride: 2

  }

}

layers {

  bottom: "pool1/3x3_s2-se2"

  top: "pool1/norm1-se2"

  name: "pool1/norm1-se2"

  type: LRN

  lrn_param {

    local_size: 5

    alpha: 0.0001

    beta: 0.75

  }

}

layers {

  bottom: "pool1/norm1-se2"

  top: "conv2/3x3_reduce-se2"

  name: "conv2/3x3_reduce-se2"

  type: CONVOLUTION

  blobs_lr: 1

  blobs_lr: 2

  weight_decay: 1

  weight_decay: 0

  convolution_param {

    num_output: 64

    kernel_size: 1

    weight_filler {

      type: "xavier"

      std: 0.1

    }

    bias_filler {

      type: "constant"

      value: 0.2

    }

  }

}

layers {

  bottom: "conv2/3x3_reduce-se2"

  top: "conv2/3x3_reduce-se2"

  name: "conv2/relu_3x3_reduce-se2"

  type: RELU

}

layers {

  bottom: "conv2/3x3_reduce-se2"

  top: "conv2/3x3-se2"

  name: "conv2/3x3-se2"

  type: CONVOLUTION

  blobs_lr: 1

  blobs_lr: 2

  weight_decay: 1

  weight_decay: 0

  convolution_param {

    num_output: 192

    pad: 1

    kernel_size: 3

    weight_filler {

      type: "xavier"

      std: 0.03

    }

    bias_filler {

      type: "constant"

      value: 0.2

    }

  }

}

layers {

  bottom: "conv2/3x3-se2"

  top: "conv2/3x3-se2"

  name: "conv2/relu_3x3-se2"

  type: RELU

}

layers {

  bottom: "conv2/3x3-se2"

  top: "conv2/norm2-se2"

  name: "conv2/norm2-se2"

  type: LRN

  lrn_param {

    local_size: 5

    alpha: 0.0001

    beta: 0.75

  }

}

layers {

  bottom: "conv2/norm2-se2"

  top: "pool2/3x3_s2-se2"

  name: "pool2/3x3_s2-se2"

  type: POOLING

  pooling_param {

    pool: MAX

    kernel_size: 3

    stride: 2

  }

}

layers {

  bottom: "pool2/3x3_s2-se2"

  top: "inception_3a/1x1-se2"

  name: "inception_3a/1x1-se2"

  type: CONVOLUTION

  blobs_lr: 1

  blobs_lr: 2

  weight_decay: 1

  weight_decay: 0

  convolution_param {

    num_output: 64

    kernel_size: 1

    weight_filler {

      type: "xavier"

      std: 0.03

    }

    bias_filler {

      type: "constant"

      value: 0.2

    }

  }

}

layers {

  bottom: "inception_3a/1x1-se2"

  top: "inception_3a/1x1-se2"

  name: "inception_3a/relu_1x1-se2"

  type: RELU

}

layers {

  bottom: "pool2/3x3_s2-se2"

  top: "inception_3a/3x3_reduce-se2"

  name: "inception_3a/3x3_reduce-se2"

  type: CONVOLUTION

  blobs_lr: 1

  blobs_lr: 2

  weight_decay: 1

  weight_decay: 0

  convolution_param {

    num_output: 96

    kernel_size: 1

    weight_filler {

      type: "xavier"

      std: 0.09

    }

    bias_filler {

      type: "constant"

      value: 0.2

    }

  }

}

layers {

  bottom: "inception_3a/3x3_reduce-se2"

  top: "inception_3a/3x3_reduce-se2"

  name: "inception_3a/relu_3x3_reduce-se2"

  type: RELU

}

layers {

  bottom: "inception_3a/3x3_reduce-se2"

  top: "inception_3a/3x3-se2"

  name: "inception_3a/3x3-se2"

  type: CONVOLUTION

  blobs_lr: 1

  blobs_lr: 2

  weight_decay: 1

  weight_decay: 0

  convolution_param {

    num_output: 128

    pad: 1

    kernel_size: 3

    weight_filler {

      type: "xavier"

      std: 0.03

    }

    bias_filler {

      type: "constant"

      value: 0.2

    }

  }

}

layers {

  bottom: "inception_3a/3x3-se2"

  top: "inception_3a/3x3-se2"

  name: "inception_3a/relu_3x3-se2"

  type: RELU

}

layers {

  bottom: "pool2/3x3_s2-se2"

  top: "inception_3a/5x5_reduce-se2"

  name: "inception_3a/5x5_reduce-se2"

  type: CONVOLUTION

  blobs_lr: 1

  blobs_lr: 2

  weight_decay: 1

  weight_decay: 0

  convolution_param {

    num_output: 16

    kernel_size: 1

    weight_filler {

      type: "xavier"

      std: 0.2

    }

    bias_filler {

      type: "constant"

      value: 0.2

    }

  }

}

layers {

  bottom: "inception_3a/5x5_reduce-se2"

  top: "inception_3a/5x5_reduce-se2"

  name: "inception_3a/relu_5x5_reduce-se2"

  type: RELU

}

layers {

  bottom: "inception_3a/5x5_reduce-se2"

  top: "inception_3a/5x5-se2"

  name: "inception_3a/5x5-se2"

  type: CONVOLUTION

  blobs_lr: 1

  blobs_lr: 2

  weight_decay: 1

  weight_decay: 0

  convolution_param {

    num_output: 32

    pad: 2

    kernel_size: 5

    weight_filler {

      type: "xavier"

      std: 0.03

    }

    bias_filler {

      type: "constant"

      value: 0.2

    }

  }

}

layers {

  bottom: "inception_3a/5x5-se2"

  top: "inception_3a/5x5-se2"

  name: "inception_3a/relu_5x5-se2"

  type: RELU

}

layers {

  bottom: "pool2/3x3_s2-se2"

  top: "inception_3a/pool-se2"

  name: "inception_3a/pool-se2"

  type: POOLING

  pooling_param {

    pool: MAX

    kernel_size: 3

    stride: 1

    pad: 1

  }

}

layers {

  bottom: "inception_3a/pool-se2"

  top: "inception_3a/pool_proj-se2"

  name: "inception_3a/pool_proj-se2"

  type: CONVOLUTION

  blobs_lr: 1

  blobs_lr: 2

  weight_decay: 1

  weight_decay: 0

  convolution_param {

    num_output: 32

    kernel_size: 1

    weight_filler {

      type: "xavier"

      std: 0.1

    }

    bias_filler {

      type: "constant"

      value: 0.2

    }

  }

}

layers {

  bottom: "inception_3a/pool_proj-se2"

  top: "inception_3a/pool_proj-se2"

  name: "inception_3a/relu_pool_proj-se2"

  type: RELU

}

layers {

  bottom: "inception_3a/1x1-se2"

  bottom: "inception_3a/3x3-se2"

  bottom: "inception_3a/5x5-se2"

  bottom: "inception_3a/pool_proj-se2"

  top: "inception_3a/output-se2"

  name: "inception_3a/output-se2"

  type: CONCAT

}

layers {

  bottom: "inception_3a/output-se2"

  top: "inception_3b/1x1-se2"

  name: "inception_3b/1x1-se2"

  type: CONVOLUTION

  blobs_lr: 1

  blobs_lr: 2

  weight_decay: 1

  weight_decay: 0

  convolution_param {

    num_output: 128

    kernel_size: 1

    weight_filler {

      type: "xavier"

      std: 0.03

    }

    bias_filler {

      type: "constant"

      value: 0.2

    }

  }

}

layers {

  bottom: "inception_3b/1x1-se2"

  top: "inception_3b/1x1-se2"

  name: "inception_3b/relu_1x1-se2"

  type: RELU

}

layers {

  bottom: "inception_3a/output-se2"

  top: "inception_3b/3x3_reduce-se2"

  name: "inception_3b/3x3_reduce-se2"

  type: CONVOLUTION

  blobs_lr: 1

  blobs_lr: 2

  weight_decay: 1

  weight_decay: 0

  convolution_param {

    num_output: 128

    kernel_size: 1

    weight_filler {

      type: "xavier"

      std: 0.09

    }

    bias_filler {

      type: "constant"

      value: 0.2

    }

  }

}

layers {

  bottom: "inception_3b/3x3_reduce-se2"

  top: "inception_3b/3x3_reduce-se2"

  name: "inception_3b/relu_3x3_reduce-se2"

  type: RELU

}

layers {

  bottom: "inception_3b/3x3_reduce-se2"

  top: "inception_3b/3x3-se2"

  name: "inception_3b/3x3-se2"

  type: CONVOLUTION

  blobs_lr: 1

  blobs_lr: 2

  weight_decay: 1

  weight_decay: 0

  convolution_param {

    num_output: 192

    pad: 1

    kernel_size: 3

    weight_filler {

      type: "xavier"

      std: 0.03

    }

    bias_filler {

      type: "constant"

      value: 0.2

    }

  }

}

layers {

  bottom: "inception_3b/3x3-se2"

  top: "inception_3b/3x3-se2"

  name: "inception_3b/relu_3x3-se2"

  type: RELU

}

layers {

  bottom: "inception_3a/output-se2"

  top: "inception_3b/5x5_reduce-se2"

  name: "inception_3b/5x5_reduce-se2"

  type: CONVOLUTION

  blobs_lr: 1

  blobs_lr: 2

  weight_decay: 1

  weight_decay: 0

  convolution_param {

    num_output: 32

    kernel_size: 1

    weight_filler {

      type: "xavier"

      std: 0.2

    }

    bias_filler {

      type: "constant"

      value: 0.2

    }

  }

}

layers {

  bottom: "inception_3b/5x5_reduce-se2"

  top: "inception_3b/5x5_reduce-se2"

  name: "inception_3b/relu_5x5_reduce-se2"

  type: RELU

}

layers {

  bottom: "inception_3b/5x5_reduce-se2"

  top: "inception_3b/5x5-se2"

  name: "inception_3b/5x5-se2"

  type: CONVOLUTION

  blobs_lr: 1

  blobs_lr: 2

  weight_decay: 1

  weight_decay: 0

  convolution_param {

    num_output: 96

    pad: 2

    kernel_size: 5

    weight_filler {

      type: "xavier"

      std: 0.03

    }

    bias_filler {

      type: "constant"

      value: 0.2

    }

  }

}

layers {

  bottom: "inception_3b/5x5-se2"

  top: "inception_3b/5x5-se2"

  name: "inception_3b/relu_5x5-se2"

  type: RELU

}

layers {

  bottom: "inception_3a/output-se2"

  top: "inception_3b/pool-se2"

  name: "inception_3b/pool-se2"

  type: POOLING

  pooling_param {

    pool: MAX

    kernel_size: 3

    stride: 1

    pad: 1

  }

}

layers {

  bottom: "inception_3b/pool-se2"

  top: "inception_3b/pool_proj-se2"

  name: "inception_3b/pool_proj-se2"

  type: CONVOLUTION

  blobs_lr: 1

  blobs_lr: 2

  weight_decay: 1

  weight_decay: 0

  convolution_param {

    num_output: 64

    kernel_size: 1

    weight_filler {

      type: "xavier"

      std: 0.1

    }

    bias_filler {

      type: "constant"

      value: 0.2

    }

  }

}

layers {

  bottom: "inception_3b/pool_proj-se2"

  top: "inception_3b/pool_proj-se2"

  name: "inception_3b/relu_pool_proj-se2"

  type: RELU

}

layers {

  bottom: "inception_3b/1x1-se2"

  bottom: "inception_3b/3x3-se2"

  bottom: "inception_3b/5x5-se2"

  bottom: "inception_3b/pool_proj-se2"

  top: "inception_3b/output-se2"

  name: "inception_3b/output-se2"

  type: CONCAT

}

layers {

  bottom: "inception_3b/output-se2"

  top: "pool3/3x3_s2-se2"

  name: "pool3/3x3_s2-se2"

  type: POOLING

  pooling_param {

    pool: MAX

    kernel_size: 3

    stride: 2

  }

}

layers {

  bottom: "pool3/3x3_s2-se2"

  top: "inception_4a/1x1-se2"

  name: "inception_4a/1x1-se2"

  type: CONVOLUTION

  blobs_lr: 1

  blobs_lr: 2

  weight_decay: 1

  weight_decay: 0

  convolution_param {

    num_output: 192

    kernel_size: 1

    weight_filler {

      type: "xavier"

      std: 0.03

    }

    bias_filler {

      type: "constant"

      value: 0.2

    }

  }

}

layers {

  bottom: "inception_4a/1x1-se2"

  top: "inception_4a/1x1-se2"

  name: "inception_4a/relu_1x1-se2"

  type: RELU

}

layers {

  bottom: "pool3/3x3_s2-se2"

  top: "inception_4a/3x3_reduce-se2"

  name: "inception_4a/3x3_reduce-se2"

  type: CONVOLUTION

  blobs_lr: 1

  blobs_lr: 2

  weight_decay: 1

  weight_decay: 0

  convolution_param {

    num_output: 96

    kernel_size: 1

    weight_filler {

      type: "xavier"

      std: 0.09

    }

    bias_filler {

      type: "constant"

      value: 0.2

    }

  }

}

layers {

  bottom: "inception_4a/3x3_reduce-se2"

  top: "inception_4a/3x3_reduce-se2"

  name: "inception_4a/relu_3x3_reduce-se2"

  type: RELU

}

layers {

  bottom: "inception_4a/3x3_reduce-se2"

  top: "inception_4a/3x3-se2"

  name: "inception_4a/3x3-se2"

  type: CONVOLUTION

  blobs_lr: 1

  blobs_lr: 2

  weight_decay: 1

  weight_decay: 0

  convolution_param {

    num_output: 208

    pad: 1

    kernel_size: 3

    weight_filler {

      type: "xavier"

      std: 0.03

    }

    bias_filler {

      type: "constant"

      value: 0.2

    }

  }

}

layers {

  bottom: "inception_4a/3x3-se2"

  top: "inception_4a/3x3-se2"

  name: "inception_4a/relu_3x3-se2"

  type: RELU

}

layers {

  bottom: "pool3/3x3_s2-se2"

  top: "inception_4a/5x5_reduce-se2"

  name: "inception_4a/5x5_reduce-se2"

  type: CONVOLUTION

  blobs_lr: 1

  blobs_lr: 2

  weight_decay: 1

  weight_decay: 0

  convolution_param {

    num_output: 16

    kernel_size: 1

    weight_filler {

      type: "xavier"

      std: 0.2

    }

    bias_filler {

      type: "constant"

      value: 0.2

    }

  }

}

layers {

  bottom: "inception_4a/5x5_reduce-se2"

  top: "inception_4a/5x5_reduce-se2"

  name: "inception_4a/relu_5x5_reduce-se2"

  type: RELU

}

layers {

  bottom: "inception_4a/5x5_reduce-se2"

  top: "inception_4a/5x5-se2"

  name: "inception_4a/5x5-se2"

  type: CONVOLUTION

  blobs_lr: 1

  blobs_lr: 2

  weight_decay: 1

  weight_decay: 0

  convolution_param {

    num_output: 48

    pad: 2

    kernel_size: 5

    weight_filler {

      type: "xavier"

      std: 0.03

    }

    bias_filler {

      type: "constant"

      value: 0.2

    }

  }

}

layers {

  bottom: "inception_4a/5x5-se2"

  top: "inception_4a/5x5-se2"

  name: "inception_4a/relu_5x5-se2"

  type: RELU

}

layers {

  bottom: "pool3/3x3_s2-se2"

  top: "inception_4a/pool-se2"

  name: "inception_4a/pool-se2"

  type: POOLING

  pooling_param {

    pool: MAX

    kernel_size: 3

    stride: 1

    pad: 1

  }

}

layers {

  bottom: "inception_4a/pool-se2"

  top: "inception_4a/pool_proj-se2"

  name: "inception_4a/pool_proj-se2"

  type: CONVOLUTION

  blobs_lr: 1

  blobs_lr: 2

  weight_decay: 1

  weight_decay: 0

  convolution_param {

    num_output: 64

    kernel_size: 1

    weight_filler {

      type: "xavier"

      std: 0.1

    }

    bias_filler {

      type: "constant"

      value: 0.2

    }

  }

}

layers {

  bottom: "inception_4a/pool_proj-se2"

  top: "inception_4a/pool_proj-se2"

  name: "inception_4a/relu_pool_proj-se2"

  type: RELU

}

layers {

  bottom: "inception_4a/1x1-se2"

  bottom: "inception_4a/3x3-se2"

  bottom: "inception_4a/5x5-se2"

  bottom: "inception_4a/pool_proj-se2"

  top: "inception_4a/output-se2"

  name: "inception_4a/output-se2"

  type: CONCAT

}

layers {

  bottom: "inception_4a/output-se2"

  top: "loss1/ave_pool-se2"

  name: "loss1/ave_pool-se2"

  type: POOLING

  pooling_param {

    pool: AVE

    kernel_size: 5

    stride: 3

  }

}

layers {

  bottom: "loss1/ave_pool-se2"

  top: "loss1/conv-se2"

  name: "loss1/conv-se2"

  type: CONVOLUTION

  blobs_lr: 1

  blobs_lr: 2

  weight_decay: 1

  weight_decay: 0

  convolution_param {

    num_output: 128

    kernel_size: 1

    weight_filler {

      type: "xavier"

      std: 0.08

    }

    bias_filler {

      type: "constant"

      value: 0.2

    }

  }

}

layers {

  bottom: "loss1/conv-se2"

  top: "loss1/conv-se2"

  name: "loss1/relu_conv-se2"

  type: RELU

}

layers {

  bottom: "loss1/conv-se2"

  top: "loss1/fc-se2"

  name: "loss1/fc-se2"

  type: INNER_PRODUCT

  blobs_lr: 1

  blobs_lr: 2

  weight_decay: 1

  weight_decay: 0

  inner_product_param {

    num_output: 1024

    weight_filler {

      type: "xavier"

      std: 0.02

    }

    bias_filler {

      type: "constant"

      value: 0.2

    }

  }

}

layers {

  bottom: "loss1/fc-se2"

  top: "loss1/fc-se2"

  name: "loss1/relu_fc-se2"

  type: RELU

}

layers {

  bottom: "loss1/fc-se2"

  top: "loss1/fc-se2"

  name: "loss1/drop_fc-se2"

  type: DROPOUT

  dropout_param {

    dropout_ratio: 0.7

  }

}

layers {

  bottom: "loss1/fc-se2"

  top: "fc-1-se2"

  name: "loss1/classifier-se2"

  type: INNER_PRODUCT

  blobs_lr: 1

  blobs_lr: 2

  weight_decay: 1

  weight_decay: 0

  inner_product_param {

    num_output: 500

    weight_filler {

      type: "xavier"

      std: 0.0009765625

    }

    bias_filler { 

      type: "constant"

      value: 0

    }

  }

}

layers {

  name: "prob_layer-se2"

  type: BNLL    

  bottom: "fc-1-se2"

  top: "fc-1-se2"

}

layers {

  bottom: "inception_4a/output-se2"

  top: "inception_4b/1x1-se2"

  name: "inception_4b/1x1-se2"

  type: CONVOLUTION

  blobs_lr: 1

  blobs_lr: 2

  weight_decay: 1

  weight_decay: 0

  convolution_param {

    num_output: 160

    kernel_size: 1

    weight_filler {

      type: "xavier"

      std: 0.03

    }

    bias_filler {

      type: "constant"

      value: 0.2

    }

  }

}

layers {

  bottom: "inception_4b/1x1-se2"

  top: "inception_4b/1x1-se2"

  name: "inception_4b/relu_1x1-se2"

  type: RELU

}

layers {

  bottom: "inception_4a/output-se2"

  top: "inception_4b/3x3_reduce-se2"

  name: "inception_4b/3x3_reduce-se2"

  type: CONVOLUTION

  blobs_lr: 1

  blobs_lr: 2

  weight_decay: 1

  weight_decay: 0

  convolution_param {

    num_output: 112

    kernel_size: 1

    weight_filler {

      type: "xavier"

      std: 0.09

    }

    bias_filler {

      type: "constant"

      value: 0.2

    }

  }

}

layers {

  bottom: "inception_4b/3x3_reduce-se2"

  top: "inception_4b/3x3_reduce-se2"

  name: "inception_4b/relu_3x3_reduce-se2"

  type: RELU

}

layers {

  bottom: "inception_4b/3x3_reduce-se2"

  top: "inception_4b/3x3-se2"

  name: "inception_4b/3x3-se2"

  type: CONVOLUTION

  blobs_lr: 1

  blobs_lr: 2

  weight_decay: 1

  weight_decay: 0

  convolution_param {

    num_output: 224

    pad: 1

    kernel_size: 3

    weight_filler {

      type: "xavier"

      std: 0.03

    }

    bias_filler {

      type: "constant"

      value: 0.2

    }

  }

}

layers {

  bottom: "inception_4b/3x3-se2"

  top: "inception_4b/3x3-se2"

  name: "inception_4b/relu_3x3-se2"

  type: RELU

}

layers {

  bottom: "inception_4a/output-se2"

  top: "inception_4b/5x5_reduce-se2"

  name: "inception_4b/5x5_reduce-se2"

  type: CONVOLUTION

  blobs_lr: 1

  blobs_lr: 2

  weight_decay: 1

  weight_decay: 0

  convolution_param {

    num_output: 24

    kernel_size: 1

    weight_filler {

      type: "xavier"

      std: 0.2

    }

    bias_filler {

      type: "constant"

      value: 0.2

    }

  }

}

layers {

  bottom: "inception_4b/5x5_reduce-se2"

  top: "inception_4b/5x5_reduce-se2"

  name: "inception_4b/relu_5x5_reduce-se2"

  type: RELU

}

layers {

  bottom: "inception_4b/5x5_reduce-se2"

  top: "inception_4b/5x5-se2"

  name: "inception_4b/5x5-se2"

  type: CONVOLUTION

  blobs_lr: 1

  blobs_lr: 2

  weight_decay: 1

  weight_decay: 0

  convolution_param {

    num_output: 64

    pad: 2

    kernel_size: 5

    weight_filler {

      type: "xavier"

      std: 0.03

    }

    bias_filler {

      type: "constant"

      value: 0.2

    }

  }

}

layers {

  bottom: "inception_4b/5x5-se2"

  top: "inception_4b/5x5-se2"

  name: "inception_4b/relu_5x5-se2"

  type: RELU

}

layers {

  bottom: "inception_4a/output-se2"

  top: "inception_4b/pool-se2"

  name: "inception_4b/pool-se2"

  type: POOLING

  pooling_param {

    pool: MAX

    kernel_size: 3

    stride: 1

    pad: 1

  }

}

layers {

  bottom: "inception_4b/pool-se2"

  top: "inception_4b/pool_proj-se2"

  name: "inception_4b/pool_proj-se2"

  type: CONVOLUTION

  blobs_lr: 1

  blobs_lr: 2

  weight_decay: 1

  weight_decay: 0

  convolution_param {

    num_output: 64

    kernel_size: 1

    weight_filler {

      type: "xavier"

      std: 0.1

    }

    bias_filler {

      type: "constant"

      value: 0.2

    }

  }

}

layers {

  bottom: "inception_4b/pool_proj-se2"

  top: "inception_4b/pool_proj-se2"

  name: "inception_4b/relu_pool_proj-se2"

  type: RELU

}

layers {

  bottom: "inception_4b/1x1-se2"

  bottom: "inception_4b/3x3-se2"

  bottom: "inception_4b/5x5-se2"

  bottom: "inception_4b/pool_proj-se2"

  top: "inception_4b/output-se2"

  name: "inception_4b/output-se2"

  type: CONCAT

}

layers {

  bottom: "inception_4b/output-se2"

  top: "inception_4c/1x1-se2"

  name: "inception_4c/1x1-se2"

  type: CONVOLUTION

  blobs_lr: 1

  blobs_lr: 2

  weight_decay: 1

  weight_decay: 0

  convolution_param {

    num_output: 128

    kernel_size: 1

    weight_filler {

      type: "xavier"

      std: 0.03

    }

    bias_filler {

      type: "constant"

      value: 0.2

    }

  }

}

layers {

  bottom: "inception_4c/1x1-se2"

  top: "inception_4c/1x1-se2"

  name: "inception_4c/relu_1x1-se2"

  type: RELU

}

layers {

  bottom: "inception_4b/output-se2"

  top: "inception_4c/3x3_reduce-se2"

  name: "inception_4c/3x3_reduce-se2"

  type: CONVOLUTION

  blobs_lr: 1

  blobs_lr: 2

  weight_decay: 1

  weight_decay: 0

  convolution_param {

    num_output: 128

    kernel_size: 1

    weight_filler {

      type: "xavier"

      std: 0.09

    }

    bias_filler {

      type: "constant"

      value: 0.2

    }

  }

}

layers {

  bottom: "inception_4c/3x3_reduce-se2"

  top: "inception_4c/3x3_reduce-se2"

  name: "inception_4c/relu_3x3_reduce-se2"

  type: RELU

}

layers {

  bottom: "inception_4c/3x3_reduce-se2"

  top: "inception_4c/3x3-se2"

  name: "inception_4c/3x3-se2"

  type: CONVOLUTION

  blobs_lr: 1

  blobs_lr: 2

  weight_decay: 1

  weight_decay: 0

  convolution_param {

    num_output: 256

    pad: 1

    kernel_size: 3

    weight_filler {

      type: "xavier"

      std: 0.03

    }

    bias_filler {

      type: "constant"

      value: 0.2

    }

  }

}

layers {

  bottom: "inception_4c/3x3-se2"

  top: "inception_4c/3x3-se2"

  name: "inception_4c/relu_3x3-se2"

  type: RELU

}

layers {

  bottom: "inception_4b/output-se2"

  top: "inception_4c/5x5_reduce-se2"

  name: "inception_4c/5x5_reduce-se2"

  type: CONVOLUTION

  blobs_lr: 1

  blobs_lr: 2

  weight_decay: 1

  weight_decay: 0

  convolution_param {

    num_output: 24

    kernel_size: 1

    weight_filler {

      type: "xavier"

      std: 0.2

    }

    bias_filler {

      type: "constant"

      value: 0.2

    }

  }

}

layers {

  bottom: "inception_4c/5x5_reduce-se2"

  top: "inception_4c/5x5_reduce-se2"

  name: "inception_4c/relu_5x5_reduce-se2"

  type: RELU

}

layers {

  bottom: "inception_4c/5x5_reduce-se2"

  top: "inception_4c/5x5-se2"

  name: "inception_4c/5x5-se2"

  type: CONVOLUTION

  blobs_lr: 1

  blobs_lr: 2

  weight_decay: 1

  weight_decay: 0

  convolution_param {

    num_output: 64

    pad: 2

    kernel_size: 5

    weight_filler {

      type: "xavier"

      std: 0.03

    }

    bias_filler {

      type: "constant"

      value: 0.2

    }

  }

}

layers {

  bottom: "inception_4c/5x5-se2"

  top: "inception_4c/5x5-se2"

  name: "inception_4c/relu_5x5-se2"

  type: RELU

}

layers {

  bottom: "inception_4b/output-se2"

  top: "inception_4c/pool-se2"

  name: "inception_4c/pool-se2"

  type: POOLING

  pooling_param {

    pool: MAX

    kernel_size: 3

    stride: 1

    pad: 1

  }

}

layers {

  bottom: "inception_4c/pool-se2"

  top: "inception_4c/pool_proj-se2"

  name: "inception_4c/pool_proj-se2"

  type: CONVOLUTION

  blobs_lr: 1

  blobs_lr: 2

  weight_decay: 1

  weight_decay: 0

  convolution_param {

    num_output: 64

    kernel_size: 1

    weight_filler {

      type: "xavier"

      std: 0.1

    }

    bias_filler {

      type: "constant"

      value: 0.2

    }

  }

}

layers {

  bottom: "inception_4c/pool_proj-se2"

  top: "inception_4c/pool_proj-se2"

  name: "inception_4c/relu_pool_proj-se2"

  type: RELU

}

layers {

  bottom: "inception_4c/1x1-se2"

  bottom: "inception_4c/3x3-se2"

  bottom: "inception_4c/5x5-se2"

  bottom: "inception_4c/pool_proj-se2"

  top: "inception_4c/output-se2"

  name: "inception_4c/output-se2"

  type: CONCAT

}

layers {

  bottom: "inception_4c/output-se2"

  top: "inception_4d/1x1-se2"

  name: "inception_4d/1x1-se2"

  type: CONVOLUTION

  blobs_lr: 1

  blobs_lr: 2

  weight_decay: 1

  weight_decay: 0

  convolution_param {

    num_output: 112

    kernel_size: 1

    weight_filler {

      type: "xavier"

      std: 0.03

    }

    bias_filler {

      type: "constant"

      value: 0.2

    }

  }

}

layers {

  bottom: "inception_4d/1x1-se2"

  top: "inception_4d/1x1-se2"

  name: "inception_4d/relu_1x1-se2"

  type: RELU

}

layers {

  bottom: "inception_4c/output-se2"

  top: "inception_4d/3x3_reduce-se2"

  name: "inception_4d/3x3_reduce-se2"

  type: CONVOLUTION

  blobs_lr: 1

  blobs_lr: 2

  weight_decay: 1

  weight_decay: 0

  convolution_param {

    num_output: 144

    kernel_size: 1

    weight_filler {

      type: "xavier"

      std: 0.09

    }

    bias_filler {

      type: "constant"

      value: 0.2

    }

  }

}

layers {

  bottom: "inception_4d/3x3_reduce-se2"

  top: "inception_4d/3x3_reduce-se2"

  name: "inception_4d/relu_3x3_reduce-se2"

  type: RELU

}

layers {

  bottom: "inception_4d/3x3_reduce-se2"

  top: "inception_4d/3x3-se2"

  name: "inception_4d/3x3-se2"

  type: CONVOLUTION

  blobs_lr: 1

  blobs_lr: 2

  weight_decay: 1

  weight_decay: 0

  convolution_param {

    num_output: 288

    pad: 1

    kernel_size: 3

    weight_filler {

      type: "xavier"

      std: 0.03

    }

    bias_filler {

      type: "constant"

      value: 0.2

    }

  }

}

layers {

  bottom: "inception_4d/3x3-se2"

  top: "inception_4d/3x3-se2"

  name: "inception_4d/relu_3x3-se2"

  type: RELU

}

layers {

  bottom: "inception_4c/output-se2"

  top: "inception_4d/5x5_reduce-se2"

  name: "inception_4d/5x5_reduce-se2"

  type: CONVOLUTION

  blobs_lr: 1

  blobs_lr: 2

  weight_decay: 1

  weight_decay: 0

  convolution_param {

    num_output: 32

    kernel_size: 1

    weight_filler {

      type: "xavier"

      std: 0.2

    }

    bias_filler {

      type: "constant"

      value: 0.2

    }

  }

}

layers {

  bottom: "inception_4d/5x5_reduce-se2"

  top: "inception_4d/5x5_reduce-se2"

  name: "inception_4d/relu_5x5_reduce-se2"

  type: RELU

}

layers {

  bottom: "inception_4d/5x5_reduce-se2"

  top: "inception_4d/5x5-se2"

  name: "inception_4d/5x5-se2"

  type: CONVOLUTION

  blobs_lr: 1

  blobs_lr: 2

  weight_decay: 1

  weight_decay: 0

  convolution_param {

    num_output: 64

    pad: 2

    kernel_size: 5

    weight_filler {

      type: "xavier"

      std: 0.03

    }

    bias_filler {

      type: "constant"

      value: 0.2

    }

  }

}

layers {

  bottom: "inception_4d/5x5-se2"

  top: "inception_4d/5x5-se2"

  name: "inception_4d/relu_5x5-se2"

  type: RELU

}

layers {

  bottom: "inception_4c/output-se2"

  top: "inception_4d/pool-se2"

  name: "inception_4d/pool-se2"

  type: POOLING

  pooling_param {

    pool: MAX

    kernel_size: 3

    stride: 1

    pad: 1

  }

}

layers {

  bottom: "inception_4d/pool-se2"

  top: "inception_4d/pool_proj-se2"

  name: "inception_4d/pool_proj-se2"

  type: CONVOLUTION

  blobs_lr: 1

  blobs_lr: 2

  weight_decay: 1

  weight_decay: 0

  convolution_param {

    num_output: 64

    kernel_size: 1

    weight_filler {

      type: "xavier"

      std: 0.1

    }

    bias_filler {

      type: "constant"

      value: 0.2

    }

  }

}

layers {

  bottom: "inception_4d/pool_proj-se2"

  top: "inception_4d/pool_proj-se2"

  name: "inception_4d/relu_pool_proj-se2"

  type: RELU

}

layers {

  bottom: "inception_4d/1x1-se2"

  bottom: "inception_4d/3x3-se2"

  bottom: "inception_4d/5x5-se2"

  bottom: "inception_4d/pool_proj-se2"

  top: "inception_4d/output-se2"

  name: "inception_4d/output-se2"

  type: CONCAT

}



layers {

  bottom: "inception_4d/output-se2"

  top: "loss2/ave_pool-se2"

  name: "loss2/ave_pool-se2"

  type: POOLING

  pooling_param {

    pool: AVE

    kernel_size: 5

    stride: 3

  }

}

layers {

  bottom: "loss2/ave_pool-se2"

  top: "loss2/conv-se2"

  name: "loss2/conv-se2"

  type: CONVOLUTION

  blobs_lr: 1

  blobs_lr: 2

  weight_decay: 1

  weight_decay: 0

  convolution_param {

    num_output: 128

    kernel_size: 1

    weight_filler {

      type: "xavier"

      std: 0.08

    }

    bias_filler {

      type: "constant"

      value: 0.2

    }

  }

}

layers {

  bottom: "loss2/conv-se2"

  top: "loss2/conv-se2"

  name: "loss2/relu_conv-se2"

  type: RELU

}

layers {

  bottom: "loss2/conv-se2"

  top: "loss2/fc-se2"

  name: "loss2/fc-se2"

  type: INNER_PRODUCT

  blobs_lr: 1

  blobs_lr: 2

  weight_decay: 1

  weight_decay: 0

  inner_product_param {

    num_output: 1024

    weight_filler {

      type: "xavier"

      std: 0.02

    }

    bias_filler {

      type: "constant"

      value: 0.2

    }

  }

}

layers {

  bottom: "loss2/fc-se2"

  top: "loss2/fc-se2"

  name: "loss2/relu_fc-se2"

  type: RELU

}

layers {

  bottom: "loss2/fc-se2"

  top: "loss2/fc-se2"

  name: "loss2/drop_fc-se2"

  type: DROPOUT

  dropout_param {

    dropout_ratio: 0.7

  }

}

layers {

  bottom: "loss2/fc-se2"

  top: "fc-2-se2"

  name: "loss2/classifier-se2"

  type: INNER_PRODUCT

  blobs_lr: 1

  blobs_lr: 2

  weight_decay: 1

  weight_decay: 0

  inner_product_param {

    num_output: 500

    weight_filler {

      type: "xavier"

      std: 0.0009765625

    }

    bias_filler {

      type: "constant"

      value: 0

    }

  }

}

layers {

  name: "prob_layer-se2"

  type: BNLL    

  bottom: "fc-2-se2"

  top: "fc-2-se2"

}

layers {

  bottom: "inception_4d/output-se2"

  top: "inception_4e/1x1-se2"

  name: "inception_4e/1x1-se2"

  type: CONVOLUTION

  blobs_lr: 1

  blobs_lr: 2

  weight_decay: 1

  weight_decay: 0

  convolution_param {

    num_output: 256

    kernel_size: 1

    weight_filler {

      type: "xavier"

      std: 0.03

    }

    bias_filler {

      type: "constant"

      value: 0.2

    }

  }

}

layers {

  bottom: "inception_4e/1x1-se2"

  top: "inception_4e/1x1-se2"

  name: "inception_4e/relu_1x1-se2"

  type: RELU

}

layers {

  bottom: "inception_4d/output-se2"

  top: "inception_4e/3x3_reduce-se2"

  name: "inception_4e/3x3_reduce-se2"

  type: CONVOLUTION

  blobs_lr: 1

  blobs_lr: 2

  weight_decay: 1

  weight_decay: 0

  convolution_param {

    num_output: 160

    kernel_size: 1

    weight_filler {

      type: "xavier"

      std: 0.09

    }

    bias_filler {

      type: "constant"

      value: 0.2

    }

  }

}

layers {

  bottom: "inception_4e/3x3_reduce-se2"

  top: "inception_4e/3x3_reduce-se2"

  name: "inception_4e/relu_3x3_reduce-se2"

  type: RELU

}

layers {

  bottom: "inception_4e/3x3_reduce-se2"

  top: "inception_4e/3x3-se2"

  name: "inception_4e/3x3-se2"

  type: CONVOLUTION

  blobs_lr: 1

  blobs_lr: 2

  weight_decay: 1

  weight_decay: 0

  convolution_param {

    num_output: 320

    pad: 1

    kernel_size: 3

    weight_filler {

      type: "xavier"

      std: 0.03

    }

    bias_filler {

      type: "constant"

      value: 0.2

    }

  }

}

layers {

  bottom: "inception_4e/3x3-se2"

  top: "inception_4e/3x3-se2"

  name: "inception_4e/relu_3x3-se2"

  type: RELU

}

layers {

  bottom: "inception_4d/output-se2"

  top: "inception_4e/5x5_reduce-se2"

  name: "inception_4e/5x5_reduce-se2"

  type: CONVOLUTION

  blobs_lr: 1

  blobs_lr: 2

  weight_decay: 1

  weight_decay: 0

  convolution_param {

    num_output: 32

    kernel_size: 1

    weight_filler {

      type: "xavier"

      std: 0.2

    }

    bias_filler {

      type: "constant"

      value: 0.2

    }

  }

}

layers {

  bottom: "inception_4e/5x5_reduce-se2"

  top: "inception_4e/5x5_reduce-se2"

  name: "inception_4e/relu_5x5_reduce-se2"

  type: RELU

}

layers {

  bottom: "inception_4e/5x5_reduce-se2"

  top: "inception_4e/5x5-se2"

  name: "inception_4e/5x5-se2"

  type: CONVOLUTION

  blobs_lr: 1

  blobs_lr: 2

  weight_decay: 1

  weight_decay: 0

  convolution_param {

    num_output: 128

    pad: 2

    kernel_size: 5

    weight_filler {

      type: "xavier"

      std: 0.03

    }

    bias_filler {

      type: "constant"

      value: 0.2

    }

  }

}

layers {

  bottom: "inception_4e/5x5-se2"

  top: "inception_4e/5x5-se2"

  name: "inception_4e/relu_5x5-se2"

  type: RELU

}

layers {

  bottom: "inception_4d/output-se2"

  top: "inception_4e/pool-se2"

  name: "inception_4e/pool-se2"

  type: POOLING

  pooling_param {

    pool: MAX

    kernel_size: 3

    stride: 1

    pad: 1

  }

}

layers {

  bottom: "inception_4e/pool-se2"

  top: "inception_4e/pool_proj-se2"

  name: "inception_4e/pool_proj-se2"

  type: CONVOLUTION

  blobs_lr: 1

  blobs_lr: 2

  weight_decay: 1

  weight_decay: 0

  convolution_param {

    num_output: 128

    kernel_size: 1

    weight_filler {

      type: "xavier"

      std: 0.1

    }

    bias_filler {

      type: "constant"

      value: 0.2

    }

  }

}

layers {

  bottom: "inception_4e/pool_proj-se2"

  top: "inception_4e/pool_proj-se2"

  name: "inception_4e/relu_pool_proj-se2"

  type: RELU

}

layers {

  bottom: "inception_4e/1x1-se2"

  bottom: "inception_4e/3x3-se2"

  bottom: "inception_4e/5x5-se2"

  bottom: "inception_4e/pool_proj-se2"

  top: "inception_4e/output-se2"

  name: "inception_4e/output-se2"

  type: CONCAT

}

layers {

  bottom: "inception_4e/output-se2"

  top: "pool4/3x3_s2-se2"

  name: "pool4/3x3_s2-se2"

  type: POOLING

  pooling_param {

    pool: MAX

    kernel_size: 3

    stride: 2

  }

}

layers {

  bottom: "pool4/3x3_s2-se2"

  top: "inception_5a/1x1-se2"

  name: "inception_5a/1x1-se2"

  type: CONVOLUTION

  blobs_lr: 1

  blobs_lr: 2

  weight_decay: 1

  weight_decay: 0

  convolution_param {

    num_output: 256

    kernel_size: 1

    weight_filler {

      type: "xavier"

      std: 0.03

    }

    bias_filler {

      type: "constant"

      value: 0.2

    }

  }

}

layers {

  bottom: "inception_5a/1x1-se2"

  top: "inception_5a/1x1-se2"

  name: "inception_5a/relu_1x1-se2"

  type: RELU

}

layers {

  bottom: "pool4/3x3_s2-se2"

  top: "inception_5a/3x3_reduce-se2"

  name: "inception_5a/3x3_reduce-se2"

  type: CONVOLUTION

  blobs_lr: 1

  blobs_lr: 2

  weight_decay: 1

  weight_decay: 0

  convolution_param {

    num_output: 160

    kernel_size: 1

    weight_filler {

      type: "xavier"

      std: 0.09

    }

    bias_filler {

      type: "constant"

      value: 0.2

    }

  }

}

layers {

  bottom: "inception_5a/3x3_reduce-se2"

  top: "inception_5a/3x3_reduce-se2"

  name: "inception_5a/relu_3x3_reduce-se2"

  type: RELU

}

layers {

  bottom: "inception_5a/3x3_reduce-se2"

  top: "inception_5a/3x3-se2"

  name: "inception_5a/3x3-se2"

  type: CONVOLUTION

  blobs_lr: 1

  blobs_lr: 2

  weight_decay: 1

  weight_decay: 0

  convolution_param {

    num_output: 320

    pad: 1

    kernel_size: 3

    weight_filler {

      type: "xavier"

      std: 0.03

    }

    bias_filler {

      type: "constant"

      value: 0.2

    }

  }

}

layers {

  bottom: "inception_5a/3x3-se2"

  top: "inception_5a/3x3-se2"

  name: "inception_5a/relu_3x3-se2"

  type: RELU

}

layers {

  bottom: "pool4/3x3_s2-se2"

  top: "inception_5a/5x5_reduce-se2"

  name: "inception_5a/5x5_reduce-se2"

  type: CONVOLUTION

  blobs_lr: 1

  blobs_lr: 2

  weight_decay: 1

  weight_decay: 0

  convolution_param {

    num_output: 32

    kernel_size: 1

    weight_filler {

      type: "xavier"

      std: 0.2

    }

    bias_filler {

      type: "constant"

      value: 0.2

    }

  }

}

layers {

  bottom: "inception_5a/5x5_reduce-se2"

  top: "inception_5a/5x5_reduce-se2"

  name: "inception_5a/relu_5x5_reduce-se2"

  type: RELU

}

layers {

  bottom: "inception_5a/5x5_reduce-se2"

  top: "inception_5a/5x5-se2"

  name: "inception_5a/5x5-se2"

  type: CONVOLUTION

  blobs_lr: 1

  blobs_lr: 2

  weight_decay: 1

  weight_decay: 0

  convolution_param {

    num_output: 128

    pad: 2

    kernel_size: 5

    weight_filler {

      type: "xavier"

      std: 0.03

    }

    bias_filler {

      type: "constant"

      value: 0.2

    }

  }

}

layers {

  bottom: "inception_5a/5x5-se2"

  top: "inception_5a/5x5-se2"

  name: "inception_5a/relu_5x5-se2"

  type: RELU

}

layers {

  bottom: "pool4/3x3_s2-se2"

  top: "inception_5a/pool-se2"

  name: "inception_5a/pool-se2"

  type: POOLING

  pooling_param {

    pool: MAX

    kernel_size: 3

    stride: 1

    pad: 1

  }

}

layers {

  bottom: "inception_5a/pool-se2"

  top: "inception_5a/pool_proj-se2"

  name: "inception_5a/pool_proj-se2"

  type: CONVOLUTION

  blobs_lr: 1

  blobs_lr: 2

  weight_decay: 1

  weight_decay: 0

  convolution_param {

    num_output: 128

    kernel_size: 1

    weight_filler {

      type: "xavier"

      std: 0.1

    }

    bias_filler {

      type: "constant"

      value: 0.2

    }

  }

}

layers {

  bottom: "inception_5a/pool_proj-se2"

  top: "inception_5a/pool_proj-se2"

  name: "inception_5a/relu_pool_proj-se2"

  type: RELU

}

layers {

  bottom: "inception_5a/1x1-se2"

  bottom: "inception_5a/3x3-se2"

  bottom: "inception_5a/5x5-se2"

  bottom: "inception_5a/pool_proj-se2"

  top: "inception_5a/output-se2"

  name: "inception_5a/output-se2"

  type: CONCAT

}

layers {

  bottom: "inception_5a/output-se2"

  top: "inception_5b/1x1-se2"

  name: "inception_5b/1x1-se2"

  type: CONVOLUTION

  blobs_lr: 1

  blobs_lr: 2

  weight_decay: 1

  weight_decay: 0

  convolution_param {

    num_output: 384

    kernel_size: 1

    weight_filler {

      type: "xavier"

      std: 0.03

    }

    bias_filler {

      type: "constant"

      value: 0.2

    }

  }

}

layers {

  bottom: "inception_5b/1x1-se2"

  top: "inception_5b/1x1-se2"

  name: "inception_5b/relu_1x1-se2"

  type: RELU

}

layers {

  bottom: "inception_5a/output-se2"

  top: "inception_5b/3x3_reduce-se2"

  name: "inception_5b/3x3_reduce-se2"

  type: CONVOLUTION

  blobs_lr: 1

  blobs_lr: 2

  weight_decay: 1

  weight_decay: 0

  convolution_param {

    num_output: 192

    kernel_size: 1

    weight_filler {

      type: "xavier"

      std: 0.09

    }

    bias_filler {

      type: "constant"

      value: 0.2

    }

  }

}

layers {

  bottom: "inception_5b/3x3_reduce-se2"

  top: "inception_5b/3x3_reduce-se2"

  name: "inception_5b/relu_3x3_reduce-se2"

  type: RELU

}

layers {

  bottom: "inception_5b/3x3_reduce-se2"

  top: "inception_5b/3x3-se2"

  name: "inception_5b/3x3-se2"

  type: CONVOLUTION

  blobs_lr: 1

  blobs_lr: 2

  weight_decay: 1

  weight_decay: 0

  convolution_param {

    num_output: 384

    pad: 1

    kernel_size: 3

    weight_filler {

      type: "xavier"

      std: 0.03

    }

    bias_filler {

      type: "constant"

      value: 0.2

    }

  }

}

layers {

  bottom: "inception_5b/3x3-se2"

  top: "inception_5b/3x3-se2"

  name: "inception_5b/relu_3x3-se2"

  type: RELU

}

layers {

  bottom: "inception_5a/output-se2"

  top: "inception_5b/5x5_reduce-se2"

  name: "inception_5b/5x5_reduce-se2"

  type: CONVOLUTION

  blobs_lr: 1

  blobs_lr: 2

  weight_decay: 1

  weight_decay: 0

  convolution_param {

    num_output: 48

    kernel_size: 1

    weight_filler {

      type: "xavier"

      std: 0.2

    }

    bias_filler {

      type: "constant"

      value: 0.2

    }

  }

}

layers {

  bottom: "inception_5b/5x5_reduce-se2"

  top: "inception_5b/5x5_reduce-se2"

  name: "inception_5b/relu_5x5_reduce-se2"

  type: RELU

}

layers {

  bottom: "inception_5b/5x5_reduce-se2"

  top: "inception_5b/5x5-se2"

  name: "inception_5b/5x5-se2"

  type: CONVOLUTION

  blobs_lr: 1

  blobs_lr: 2

  weight_decay: 1

  weight_decay: 0

  convolution_param {

    num_output: 128

    pad: 2

    kernel_size: 5

    weight_filler {

      type: "xavier"

      std: 0.03

    }

    bias_filler {

      type: "constant"

      value: 0.2

    }

  }

}

layers {

  bottom: "inception_5b/5x5-se2"

  top: "inception_5b/5x5-se2"

  name: "inception_5b/relu_5x5-se2"

  type: RELU

}

layers {

  bottom: "inception_5a/output-se2"

  top: "inception_5b/pool-se2"

  name: "inception_5b/pool-se2"

  type: POOLING

  pooling_param {

    pool: MAX

    kernel_size: 3

    stride: 1

    pad: 1

  }

}

layers {

  bottom: "inception_5b/pool-se2"

  top: "inception_5b/pool_proj-se2"

  name: "inception_5b/pool_proj-se2"

  type: CONVOLUTION

  blobs_lr: 1

  blobs_lr: 2

  weight_decay: 1

  weight_decay: 0

  convolution_param {

    num_output: 128

    kernel_size: 1

    weight_filler {

      type: "xavier"

      std: 0.1

    }

    bias_filler {

      type: "constant"

      value: 0.2

    }

  }

}

layers {

  bottom: "inception_5b/pool_proj-se2"

  top: "inception_5b/pool_proj-se2"

  name: "inception_5b/relu_pool_proj-se2"

  type: RELU

}

layers {

  bottom: "inception_5b/1x1-se2"

  bottom: "inception_5b/3x3-se2"

  bottom: "inception_5b/5x5-se2"

  bottom: "inception_5b/pool_proj-se2"

  top: "inception_5b/output-se2"

  name: "inception_5b/output-se2"

  type: CONCAT

}

layers {

  bottom: "inception_5b/output-se2"

  top: "pool5/7x7_s1-se2"

  name: "pool5/7x7_s1-se2"

  type: POOLING

  pooling_param {

    pool: AVE

    kernel_size: 7

    stride: 1

  }

}

layers {

  bottom: "pool5/7x7_s1-se2"

  top: "pool5/7x7_s1-se2"

  name: "pool5/drop_7x7_s1-se2"

  type: DROPOUT

  dropout_param {

    dropout_ratio: 0.4

  }

}

layers {

  bottom: "pool5/7x7_s1-se2"

  top: "fc8-se2"

  name: "loss3/classifier-se2"

  type: INNER_PRODUCT

  blobs_lr: 1

  blobs_lr: 2

  weight_decay: 1

  weight_decay: 0

  inner_product_param {

    num_output: 500

    weight_filler {

      type: "xavier"

    }

    bias_filler {

      type: "constant"

      value: 0

    }

  }

}

layers {

  name: "prob_layer-se2"

  type: BNLL    

  bottom: "fc8-se2"

  top: "fc8-se2"

}







 
layers {

  bottom: "data"

  top: "conv1/7x7_s2-se3"

  name: "conv1/7x7_s2-se3"

  type: CONVOLUTION

  blobs_lr: 1

  blobs_lr: 2

  weight_decay: 1

  weight_decay: 0

  convolution_param {

    num_output: 64

    pad: 3

    kernel_size: 7

    stride: 2

    weight_filler {

      type: "xavier"

      std: 0.1

    }

    bias_filler {

      type: "constant"

      value: 0.2

    }

  }

}

layers {

  bottom: "conv1/7x7_s2-se3"

  top: "conv1/7x7_s2-se3"

  name: "conv1/relu_7x7-se3"

  type: RELU

}

layers {

  bottom: "conv1/7x7_s2-se3"

  top: "pool1/3x3_s2-se3"

  name: "pool1/3x3_s2-se3"

  type: POOLING

  pooling_param {

    pool: MAX

    kernel_size: 3

    stride: 2

  }

}

layers {

  bottom: "pool1/3x3_s2-se3"

  top: "pool1/norm1-se3"

  name: "pool1/norm1-se3"

  type: LRN

  lrn_param {

    local_size: 5

    alpha: 0.0001

    beta: 0.75

  }

}

layers {

  bottom: "pool1/norm1-se3"

  top: "conv2/3x3_reduce-se3"

  name: "conv2/3x3_reduce-se3"

  type: CONVOLUTION

  blobs_lr: 1

  blobs_lr: 2

  weight_decay: 1

  weight_decay: 0

  convolution_param {

    num_output: 64

    kernel_size: 1

    weight_filler {

      type: "xavier"

      std: 0.1

    }

    bias_filler {

      type: "constant"

      value: 0.2

    }

  }

}

layers {

  bottom: "conv2/3x3_reduce-se3"

  top: "conv2/3x3_reduce-se3"

  name: "conv2/relu_3x3_reduce-se3"

  type: RELU

}

layers {

  bottom: "conv2/3x3_reduce-se3"

  top: "conv2/3x3-se3"

  name: "conv2/3x3-se3"

  type: CONVOLUTION

  blobs_lr: 1

  blobs_lr: 2

  weight_decay: 1

  weight_decay: 0

  convolution_param {

    num_output: 192

    pad: 1

    kernel_size: 3

    weight_filler {

      type: "xavier"

      std: 0.03

    }

    bias_filler {

      type: "constant"

      value: 0.2

    }

  }

}

layers {

  bottom: "conv2/3x3-se3"

  top: "conv2/3x3-se3"

  name: "conv2/relu_3x3-se3"

  type: RELU

}

layers {

  bottom: "conv2/3x3-se3"

  top: "conv2/norm2-se3"

  name: "conv2/norm2-se3"

  type: LRN

  lrn_param {

    local_size: 5

    alpha: 0.0001

    beta: 0.75

  }

}

layers {

  bottom: "conv2/norm2-se3"

  top: "pool2/3x3_s2-se3"

  name: "pool2/3x3_s2-se3"

  type: POOLING

  pooling_param {

    pool: MAX

    kernel_size: 3

    stride: 2

  }

}

layers {

  bottom: "pool2/3x3_s2-se3"

  top: "inception_3a/1x1-se3"

  name: "inception_3a/1x1-se3"

  type: CONVOLUTION

  blobs_lr: 1

  blobs_lr: 2

  weight_decay: 1

  weight_decay: 0

  convolution_param {

    num_output: 64

    kernel_size: 1

    weight_filler {

      type: "xavier"

      std: 0.03

    }

    bias_filler {

      type: "constant"

      value: 0.2

    }

  }

}

layers {

  bottom: "inception_3a/1x1-se3"

  top: "inception_3a/1x1-se3"

  name: "inception_3a/relu_1x1-se3"

  type: RELU

}

layers {

  bottom: "pool2/3x3_s2-se3"

  top: "inception_3a/3x3_reduce-se3"

  name: "inception_3a/3x3_reduce-se3"

  type: CONVOLUTION

  blobs_lr: 1

  blobs_lr: 2

  weight_decay: 1

  weight_decay: 0

  convolution_param {

    num_output: 96

    kernel_size: 1

    weight_filler {

      type: "xavier"

      std: 0.09

    }

    bias_filler {

      type: "constant"

      value: 0.2

    }

  }

}

layers {

  bottom: "inception_3a/3x3_reduce-se3"

  top: "inception_3a/3x3_reduce-se3"

  name: "inception_3a/relu_3x3_reduce-se3"

  type: RELU

}

layers {

  bottom: "inception_3a/3x3_reduce-se3"

  top: "inception_3a/3x3-se3"

  name: "inception_3a/3x3-se3"

  type: CONVOLUTION

  blobs_lr: 1

  blobs_lr: 2

  weight_decay: 1

  weight_decay: 0

  convolution_param {

    num_output: 128

    pad: 1

    kernel_size: 3

    weight_filler {

      type: "xavier"

      std: 0.03

    }

    bias_filler {

      type: "constant"

      value: 0.2

    }

  }

}

layers {

  bottom: "inception_3a/3x3-se3"

  top: "inception_3a/3x3-se3"

  name: "inception_3a/relu_3x3-se3"

  type: RELU

}

layers {

  bottom: "pool2/3x3_s2-se3"

  top: "inception_3a/5x5_reduce-se3"

  name: "inception_3a/5x5_reduce-se3"

  type: CONVOLUTION

  blobs_lr: 1

  blobs_lr: 2

  weight_decay: 1

  weight_decay: 0

  convolution_param {

    num_output: 16

    kernel_size: 1

    weight_filler {

      type: "xavier"

      std: 0.2

    }

    bias_filler {

      type: "constant"

      value: 0.2

    }

  }

}

layers {

  bottom: "inception_3a/5x5_reduce-se3"

  top: "inception_3a/5x5_reduce-se3"

  name: "inception_3a/relu_5x5_reduce-se3"

  type: RELU

}

layers {

  bottom: "inception_3a/5x5_reduce-se3"

  top: "inception_3a/5x5-se3"

  name: "inception_3a/5x5-se3"

  type: CONVOLUTION

  blobs_lr: 1

  blobs_lr: 2

  weight_decay: 1

  weight_decay: 0

  convolution_param {

    num_output: 32

    pad: 2

    kernel_size: 5

    weight_filler {

      type: "xavier"

      std: 0.03

    }

    bias_filler {

      type: "constant"

      value: 0.2

    }

  }

}

layers {

  bottom: "inception_3a/5x5-se3"

  top: "inception_3a/5x5-se3"

  name: "inception_3a/relu_5x5-se3"

  type: RELU

}

layers {

  bottom: "pool2/3x3_s2-se3"

  top: "inception_3a/pool-se3"

  name: "inception_3a/pool-se3"

  type: POOLING

  pooling_param {

    pool: MAX

    kernel_size: 3

    stride: 1

    pad: 1

  }

}

layers {

  bottom: "inception_3a/pool-se3"

  top: "inception_3a/pool_proj-se3"

  name: "inception_3a/pool_proj-se3"

  type: CONVOLUTION

  blobs_lr: 1

  blobs_lr: 2

  weight_decay: 1

  weight_decay: 0

  convolution_param {

    num_output: 32

    kernel_size: 1

    weight_filler {

      type: "xavier"

      std: 0.1

    }

    bias_filler {

      type: "constant"

      value: 0.2

    }

  }

}

layers {

  bottom: "inception_3a/pool_proj-se3"

  top: "inception_3a/pool_proj-se3"

  name: "inception_3a/relu_pool_proj-se3"

  type: RELU

}

layers {

  bottom: "inception_3a/1x1-se3"

  bottom: "inception_3a/3x3-se3"

  bottom: "inception_3a/5x5-se3"

  bottom: "inception_3a/pool_proj-se3"

  top: "inception_3a/output-se3"

  name: "inception_3a/output-se3"

  type: CONCAT

}

layers {

  bottom: "inception_3a/output-se3"

  top: "inception_3b/1x1-se3"

  name: "inception_3b/1x1-se3"

  type: CONVOLUTION

  blobs_lr: 1

  blobs_lr: 2

  weight_decay: 1

  weight_decay: 0

  convolution_param {

    num_output: 128

    kernel_size: 1

    weight_filler {

      type: "xavier"

      std: 0.03

    }

    bias_filler {

      type: "constant"

      value: 0.2

    }

  }

}

layers {

  bottom: "inception_3b/1x1-se3"

  top: "inception_3b/1x1-se3"

  name: "inception_3b/relu_1x1-se3"

  type: RELU

}

layers {

  bottom: "inception_3a/output-se3"

  top: "inception_3b/3x3_reduce-se3"

  name: "inception_3b/3x3_reduce-se3"

  type: CONVOLUTION

  blobs_lr: 1

  blobs_lr: 2

  weight_decay: 1

  weight_decay: 0

  convolution_param {

    num_output: 128

    kernel_size: 1

    weight_filler {

      type: "xavier"

      std: 0.09

    }

    bias_filler {

      type: "constant"

      value: 0.2

    }

  }

}

layers {

  bottom: "inception_3b/3x3_reduce-se3"

  top: "inception_3b/3x3_reduce-se3"

  name: "inception_3b/relu_3x3_reduce-se3"

  type: RELU

}

layers {

  bottom: "inception_3b/3x3_reduce-se3"

  top: "inception_3b/3x3-se3"

  name: "inception_3b/3x3-se3"

  type: CONVOLUTION

  blobs_lr: 1

  blobs_lr: 2

  weight_decay: 1

  weight_decay: 0

  convolution_param {

    num_output: 192

    pad: 1

    kernel_size: 3

    weight_filler {

      type: "xavier"

      std: 0.03

    }

    bias_filler {

      type: "constant"

      value: 0.2

    }

  }

}

layers {

  bottom: "inception_3b/3x3-se3"

  top: "inception_3b/3x3-se3"

  name: "inception_3b/relu_3x3-se3"

  type: RELU

}

layers {

  bottom: "inception_3a/output-se3"

  top: "inception_3b/5x5_reduce-se3"

  name: "inception_3b/5x5_reduce-se3"

  type: CONVOLUTION

  blobs_lr: 1

  blobs_lr: 2

  weight_decay: 1

  weight_decay: 0

  convolution_param {

    num_output: 32

    kernel_size: 1

    weight_filler {

      type: "xavier"

      std: 0.2

    }

    bias_filler {

      type: "constant"

      value: 0.2

    }

  }

}

layers {

  bottom: "inception_3b/5x5_reduce-se3"

  top: "inception_3b/5x5_reduce-se3"

  name: "inception_3b/relu_5x5_reduce-se3"

  type: RELU

}

layers {

  bottom: "inception_3b/5x5_reduce-se3"

  top: "inception_3b/5x5-se3"

  name: "inception_3b/5x5-se3"

  type: CONVOLUTION

  blobs_lr: 1

  blobs_lr: 2

  weight_decay: 1

  weight_decay: 0

  convolution_param {

    num_output: 96

    pad: 2

    kernel_size: 5

    weight_filler {

      type: "xavier"

      std: 0.03

    }

    bias_filler {

      type: "constant"

      value: 0.2

    }

  }

}

layers {

  bottom: "inception_3b/5x5-se3"

  top: "inception_3b/5x5-se3"

  name: "inception_3b/relu_5x5-se3"

  type: RELU

}

layers {

  bottom: "inception_3a/output-se3"

  top: "inception_3b/pool-se3"

  name: "inception_3b/pool-se3"

  type: POOLING

  pooling_param {

    pool: MAX

    kernel_size: 3

    stride: 1

    pad: 1

  }

}

layers {

  bottom: "inception_3b/pool-se3"

  top: "inception_3b/pool_proj-se3"

  name: "inception_3b/pool_proj-se3"

  type: CONVOLUTION

  blobs_lr: 1

  blobs_lr: 2

  weight_decay: 1

  weight_decay: 0

  convolution_param {

    num_output: 64

    kernel_size: 1

    weight_filler {

      type: "xavier"

      std: 0.1

    }

    bias_filler {

      type: "constant"

      value: 0.2

    }

  }

}

layers {

  bottom: "inception_3b/pool_proj-se3"

  top: "inception_3b/pool_proj-se3"

  name: "inception_3b/relu_pool_proj-se3"

  type: RELU

}

layers {

  bottom: "inception_3b/1x1-se3"

  bottom: "inception_3b/3x3-se3"

  bottom: "inception_3b/5x5-se3"

  bottom: "inception_3b/pool_proj-se3"

  top: "inception_3b/output-se3"

  name: "inception_3b/output-se3"

  type: CONCAT

}

layers {

  bottom: "inception_3b/output-se3"

  top: "pool3/3x3_s2-se3"

  name: "pool3/3x3_s2-se3"

  type: POOLING

  pooling_param {

    pool: MAX

    kernel_size: 3

    stride: 2

  }

}

layers {

  bottom: "pool3/3x3_s2-se3"

  top: "inception_4a/1x1-se3"

  name: "inception_4a/1x1-se3"

  type: CONVOLUTION

  blobs_lr: 1

  blobs_lr: 2

  weight_decay: 1

  weight_decay: 0

  convolution_param {

    num_output: 192

    kernel_size: 1

    weight_filler {

      type: "xavier"

      std: 0.03

    }

    bias_filler {

      type: "constant"

      value: 0.2

    }

  }

}

layers {

  bottom: "inception_4a/1x1-se3"

  top: "inception_4a/1x1-se3"

  name: "inception_4a/relu_1x1-se3"

  type: RELU

}

layers {

  bottom: "pool3/3x3_s2-se3"

  top: "inception_4a/3x3_reduce-se3"

  name: "inception_4a/3x3_reduce-se3"

  type: CONVOLUTION

  blobs_lr: 1

  blobs_lr: 2

  weight_decay: 1

  weight_decay: 0

  convolution_param {

    num_output: 96

    kernel_size: 1

    weight_filler {

      type: "xavier"

      std: 0.09

    }

    bias_filler {

      type: "constant"

      value: 0.2

    }

  }

}

layers {

  bottom: "inception_4a/3x3_reduce-se3"

  top: "inception_4a/3x3_reduce-se3"

  name: "inception_4a/relu_3x3_reduce-se3"

  type: RELU

}

layers {

  bottom: "inception_4a/3x3_reduce-se3"

  top: "inception_4a/3x3-se3"

  name: "inception_4a/3x3-se3"

  type: CONVOLUTION

  blobs_lr: 1

  blobs_lr: 2

  weight_decay: 1

  weight_decay: 0

  convolution_param {

    num_output: 208

    pad: 1

    kernel_size: 3

    weight_filler {

      type: "xavier"

      std: 0.03

    }

    bias_filler {

      type: "constant"

      value: 0.2

    }

  }

}

layers {

  bottom: "inception_4a/3x3-se3"

  top: "inception_4a/3x3-se3"

  name: "inception_4a/relu_3x3-se3"

  type: RELU

}

layers {

  bottom: "pool3/3x3_s2-se3"

  top: "inception_4a/5x5_reduce-se3"

  name: "inception_4a/5x5_reduce-se3"

  type: CONVOLUTION

  blobs_lr: 1

  blobs_lr: 2

  weight_decay: 1

  weight_decay: 0

  convolution_param {

    num_output: 16

    kernel_size: 1

    weight_filler {

      type: "xavier"

      std: 0.2

    }

    bias_filler {

      type: "constant"

      value: 0.2

    }

  }

}

layers {

  bottom: "inception_4a/5x5_reduce-se3"

  top: "inception_4a/5x5_reduce-se3"

  name: "inception_4a/relu_5x5_reduce-se3"

  type: RELU

}

layers {

  bottom: "inception_4a/5x5_reduce-se3"

  top: "inception_4a/5x5-se3"

  name: "inception_4a/5x5-se3"

  type: CONVOLUTION

  blobs_lr: 1

  blobs_lr: 2

  weight_decay: 1

  weight_decay: 0

  convolution_param {

    num_output: 48

    pad: 2

    kernel_size: 5

    weight_filler {

      type: "xavier"

      std: 0.03

    }

    bias_filler {

      type: "constant"

      value: 0.2

    }

  }

}

layers {

  bottom: "inception_4a/5x5-se3"

  top: "inception_4a/5x5-se3"

  name: "inception_4a/relu_5x5-se3"

  type: RELU

}

layers {

  bottom: "pool3/3x3_s2-se3"

  top: "inception_4a/pool-se3"

  name: "inception_4a/pool-se3"

  type: POOLING

  pooling_param {

    pool: MAX

    kernel_size: 3

    stride: 1

    pad: 1

  }

}

layers {

  bottom: "inception_4a/pool-se3"

  top: "inception_4a/pool_proj-se3"

  name: "inception_4a/pool_proj-se3"

  type: CONVOLUTION

  blobs_lr: 1

  blobs_lr: 2

  weight_decay: 1

  weight_decay: 0

  convolution_param {

    num_output: 64

    kernel_size: 1

    weight_filler {

      type: "xavier"

      std: 0.1

    }

    bias_filler {

      type: "constant"

      value: 0.2

    }

  }

}

layers {

  bottom: "inception_4a/pool_proj-se3"

  top: "inception_4a/pool_proj-se3"

  name: "inception_4a/relu_pool_proj-se3"

  type: RELU

}

layers {

  bottom: "inception_4a/1x1-se3"

  bottom: "inception_4a/3x3-se3"

  bottom: "inception_4a/5x5-se3"

  bottom: "inception_4a/pool_proj-se3"

  top: "inception_4a/output-se3"

  name: "inception_4a/output-se3"

  type: CONCAT

}

layers {

  bottom: "inception_4a/output-se3"

  top: "loss1/ave_pool-se3"

  name: "loss1/ave_pool-se3"

  type: POOLING

  pooling_param {

    pool: AVE

    kernel_size: 5

    stride: 3

  }

}

layers {

  bottom: "loss1/ave_pool-se3"

  top: "loss1/conv-se3"

  name: "loss1/conv-se3"

  type: CONVOLUTION

  blobs_lr: 1

  blobs_lr: 2

  weight_decay: 1

  weight_decay: 0

  convolution_param {

    num_output: 128

    kernel_size: 1

    weight_filler {

      type: "xavier"

      std: 0.08

    }

    bias_filler {

      type: "constant"

      value: 0.2

    }

  }

}

layers {

  bottom: "loss1/conv-se3"

  top: "loss1/conv-se3"

  name: "loss1/relu_conv-se3"

  type: RELU

}

layers {

  bottom: "loss1/conv-se3"

  top: "loss1/fc-se3"

  name: "loss1/fc-se3"

  type: INNER_PRODUCT

  blobs_lr: 1

  blobs_lr: 2

  weight_decay: 1

  weight_decay: 0

  inner_product_param {

    num_output: 1024

    weight_filler {

      type: "xavier"

      std: 0.02

    }

    bias_filler {

      type: "constant"

      value: 0.2

    }

  }

}

layers {

  bottom: "loss1/fc-se3"

  top: "loss1/fc-se3"

  name: "loss1/relu_fc-se3"

  type: RELU

}

layers {

  bottom: "loss1/fc-se3"

  top: "loss1/fc-se3"

  name: "loss1/drop_fc-se3"

  type: DROPOUT

  dropout_param {

    dropout_ratio: 0.7

  }

}

layers {

  bottom: "loss1/fc-se3"

  top: "fc-1-se3"

  name: "loss1/classifier-se3"

  type: INNER_PRODUCT

  blobs_lr: 1

  blobs_lr: 2

  weight_decay: 1

  weight_decay: 0

  inner_product_param {

    num_output: 500

    weight_filler {

      type: "xavier"

      std: 0.0009765625

    }

    bias_filler { 

      type: "constant"

      value: 0

    }

  }

}

layers {

  name: "prob_layer-se3"

  type: BNLL    

  bottom: "fc-1-se3"

  top: "fc-1-se3"

}

layers {

  bottom: "inception_4a/output-se3"

  top: "inception_4b/1x1-se3"

  name: "inception_4b/1x1-se3"

  type: CONVOLUTION

  blobs_lr: 1

  blobs_lr: 2

  weight_decay: 1

  weight_decay: 0

  convolution_param {

    num_output: 160

    kernel_size: 1

    weight_filler {

      type: "xavier"

      std: 0.03

    }

    bias_filler {

      type: "constant"

      value: 0.2

    }

  }

}

layers {

  bottom: "inception_4b/1x1-se3"

  top: "inception_4b/1x1-se3"

  name: "inception_4b/relu_1x1-se3"

  type: RELU

}

layers {

  bottom: "inception_4a/output-se3"

  top: "inception_4b/3x3_reduce-se3"

  name: "inception_4b/3x3_reduce-se3"

  type: CONVOLUTION

  blobs_lr: 1

  blobs_lr: 2

  weight_decay: 1

  weight_decay: 0

  convolution_param {

    num_output: 112

    kernel_size: 1

    weight_filler {

      type: "xavier"

      std: 0.09

    }

    bias_filler {

      type: "constant"

      value: 0.2

    }

  }

}

layers {

  bottom: "inception_4b/3x3_reduce-se3"

  top: "inception_4b/3x3_reduce-se3"

  name: "inception_4b/relu_3x3_reduce-se3"

  type: RELU

}

layers {

  bottom: "inception_4b/3x3_reduce-se3"

  top: "inception_4b/3x3-se3"

  name: "inception_4b/3x3-se3"

  type: CONVOLUTION

  blobs_lr: 1

  blobs_lr: 2

  weight_decay: 1

  weight_decay: 0

  convolution_param {

    num_output: 224

    pad: 1

    kernel_size: 3

    weight_filler {

      type: "xavier"

      std: 0.03

    }

    bias_filler {

      type: "constant"

      value: 0.2

    }

  }

}

layers {

  bottom: "inception_4b/3x3-se3"

  top: "inception_4b/3x3-se3"

  name: "inception_4b/relu_3x3-se3"

  type: RELU

}

layers {

  bottom: "inception_4a/output-se3"

  top: "inception_4b/5x5_reduce-se3"

  name: "inception_4b/5x5_reduce-se3"

  type: CONVOLUTION

  blobs_lr: 1

  blobs_lr: 2

  weight_decay: 1

  weight_decay: 0

  convolution_param {

    num_output: 24

    kernel_size: 1

    weight_filler {

      type: "xavier"

      std: 0.2

    }

    bias_filler {

      type: "constant"

      value: 0.2

    }

  }

}

layers {

  bottom: "inception_4b/5x5_reduce-se3"

  top: "inception_4b/5x5_reduce-se3"

  name: "inception_4b/relu_5x5_reduce-se3"

  type: RELU

}

layers {

  bottom: "inception_4b/5x5_reduce-se3"

  top: "inception_4b/5x5-se3"

  name: "inception_4b/5x5-se3"

  type: CONVOLUTION

  blobs_lr: 1

  blobs_lr: 2

  weight_decay: 1

  weight_decay: 0

  convolution_param {

    num_output: 64

    pad: 2

    kernel_size: 5

    weight_filler {

      type: "xavier"

      std: 0.03

    }

    bias_filler {

      type: "constant"

      value: 0.2

    }

  }

}

layers {

  bottom: "inception_4b/5x5-se3"

  top: "inception_4b/5x5-se3"

  name: "inception_4b/relu_5x5-se3"

  type: RELU

}

layers {

  bottom: "inception_4a/output-se3"

  top: "inception_4b/pool-se3"

  name: "inception_4b/pool-se3"

  type: POOLING

  pooling_param {

    pool: MAX

    kernel_size: 3

    stride: 1

    pad: 1

  }

}

layers {

  bottom: "inception_4b/pool-se3"

  top: "inception_4b/pool_proj-se3"

  name: "inception_4b/pool_proj-se3"

  type: CONVOLUTION

  blobs_lr: 1

  blobs_lr: 2

  weight_decay: 1

  weight_decay: 0

  convolution_param {

    num_output: 64

    kernel_size: 1

    weight_filler {

      type: "xavier"

      std: 0.1

    }

    bias_filler {

      type: "constant"

      value: 0.2

    }

  }

}

layers {

  bottom: "inception_4b/pool_proj-se3"

  top: "inception_4b/pool_proj-se3"

  name: "inception_4b/relu_pool_proj-se3"

  type: RELU

}

layers {

  bottom: "inception_4b/1x1-se3"

  bottom: "inception_4b/3x3-se3"

  bottom: "inception_4b/5x5-se3"

  bottom: "inception_4b/pool_proj-se3"

  top: "inception_4b/output-se3"

  name: "inception_4b/output-se3"

  type: CONCAT

}

layers {

  bottom: "inception_4b/output-se3"

  top: "inception_4c/1x1-se3"

  name: "inception_4c/1x1-se3"

  type: CONVOLUTION

  blobs_lr: 1

  blobs_lr: 2

  weight_decay: 1

  weight_decay: 0

  convolution_param {

    num_output: 128

    kernel_size: 1

    weight_filler {

      type: "xavier"

      std: 0.03

    }

    bias_filler {

      type: "constant"

      value: 0.2

    }

  }

}

layers {

  bottom: "inception_4c/1x1-se3"

  top: "inception_4c/1x1-se3"

  name: "inception_4c/relu_1x1-se3"

  type: RELU

}

layers {

  bottom: "inception_4b/output-se3"

  top: "inception_4c/3x3_reduce-se3"

  name: "inception_4c/3x3_reduce-se3"

  type: CONVOLUTION

  blobs_lr: 1

  blobs_lr: 2

  weight_decay: 1

  weight_decay: 0

  convolution_param {

    num_output: 128

    kernel_size: 1

    weight_filler {

      type: "xavier"

      std: 0.09

    }

    bias_filler {

      type: "constant"

      value: 0.2

    }

  }

}

layers {

  bottom: "inception_4c/3x3_reduce-se3"

  top: "inception_4c/3x3_reduce-se3"

  name: "inception_4c/relu_3x3_reduce-se3"

  type: RELU

}

layers {

  bottom: "inception_4c/3x3_reduce-se3"

  top: "inception_4c/3x3-se3"

  name: "inception_4c/3x3-se3"

  type: CONVOLUTION

  blobs_lr: 1

  blobs_lr: 2

  weight_decay: 1

  weight_decay: 0

  convolution_param {

    num_output: 256

    pad: 1

    kernel_size: 3

    weight_filler {

      type: "xavier"

      std: 0.03

    }

    bias_filler {

      type: "constant"

      value: 0.2

    }

  }

}

layers {

  bottom: "inception_4c/3x3-se3"

  top: "inception_4c/3x3-se3"

  name: "inception_4c/relu_3x3-se3"

  type: RELU

}

layers {

  bottom: "inception_4b/output-se3"

  top: "inception_4c/5x5_reduce-se3"

  name: "inception_4c/5x5_reduce-se3"

  type: CONVOLUTION

  blobs_lr: 1

  blobs_lr: 2

  weight_decay: 1

  weight_decay: 0

  convolution_param {

    num_output: 24

    kernel_size: 1

    weight_filler {

      type: "xavier"

      std: 0.2

    }

    bias_filler {

      type: "constant"

      value: 0.2

    }

  }

}

layers {

  bottom: "inception_4c/5x5_reduce-se3"

  top: "inception_4c/5x5_reduce-se3"

  name: "inception_4c/relu_5x5_reduce-se3"

  type: RELU

}

layers {

  bottom: "inception_4c/5x5_reduce-se3"

  top: "inception_4c/5x5-se3"

  name: "inception_4c/5x5-se3"

  type: CONVOLUTION

  blobs_lr: 1

  blobs_lr: 2

  weight_decay: 1

  weight_decay: 0

  convolution_param {

    num_output: 64

    pad: 2

    kernel_size: 5

    weight_filler {

      type: "xavier"

      std: 0.03

    }

    bias_filler {

      type: "constant"

      value: 0.2

    }

  }

}

layers {

  bottom: "inception_4c/5x5-se3"

  top: "inception_4c/5x5-se3"

  name: "inception_4c/relu_5x5-se3"

  type: RELU

}

layers {

  bottom: "inception_4b/output-se3"

  top: "inception_4c/pool-se3"

  name: "inception_4c/pool-se3"

  type: POOLING

  pooling_param {

    pool: MAX

    kernel_size: 3

    stride: 1

    pad: 1

  }

}

layers {

  bottom: "inception_4c/pool-se3"

  top: "inception_4c/pool_proj-se3"

  name: "inception_4c/pool_proj-se3"

  type: CONVOLUTION

  blobs_lr: 1

  blobs_lr: 2

  weight_decay: 1

  weight_decay: 0

  convolution_param {

    num_output: 64

    kernel_size: 1

    weight_filler {

      type: "xavier"

      std: 0.1

    }

    bias_filler {

      type: "constant"

      value: 0.2

    }

  }

}

layers {

  bottom: "inception_4c/pool_proj-se3"

  top: "inception_4c/pool_proj-se3"

  name: "inception_4c/relu_pool_proj-se3"

  type: RELU

}

layers {

  bottom: "inception_4c/1x1-se3"

  bottom: "inception_4c/3x3-se3"

  bottom: "inception_4c/5x5-se3"

  bottom: "inception_4c/pool_proj-se3"

  top: "inception_4c/output-se3"

  name: "inception_4c/output-se3"

  type: CONCAT

}

layers {

  bottom: "inception_4c/output-se3"

  top: "inception_4d/1x1-se3"

  name: "inception_4d/1x1-se3"

  type: CONVOLUTION

  blobs_lr: 1

  blobs_lr: 2

  weight_decay: 1

  weight_decay: 0

  convolution_param {

    num_output: 112

    kernel_size: 1

    weight_filler {

      type: "xavier"

      std: 0.03

    }

    bias_filler {

      type: "constant"

      value: 0.2

    }

  }

}

layers {

  bottom: "inception_4d/1x1-se3"

  top: "inception_4d/1x1-se3"

  name: "inception_4d/relu_1x1-se3"

  type: RELU

}

layers {

  bottom: "inception_4c/output-se3"

  top: "inception_4d/3x3_reduce-se3"

  name: "inception_4d/3x3_reduce-se3"

  type: CONVOLUTION

  blobs_lr: 1

  blobs_lr: 2

  weight_decay: 1

  weight_decay: 0

  convolution_param {

    num_output: 144

    kernel_size: 1

    weight_filler {

      type: "xavier"

      std: 0.09

    }

    bias_filler {

      type: "constant"

      value: 0.2

    }

  }

}

layers {

  bottom: "inception_4d/3x3_reduce-se3"

  top: "inception_4d/3x3_reduce-se3"

  name: "inception_4d/relu_3x3_reduce-se3"

  type: RELU

}

layers {

  bottom: "inception_4d/3x3_reduce-se3"

  top: "inception_4d/3x3-se3"

  name: "inception_4d/3x3-se3"

  type: CONVOLUTION

  blobs_lr: 1

  blobs_lr: 2

  weight_decay: 1

  weight_decay: 0

  convolution_param {

    num_output: 288

    pad: 1

    kernel_size: 3

    weight_filler {

      type: "xavier"

      std: 0.03

    }

    bias_filler {

      type: "constant"

      value: 0.2

    }

  }

}

layers {

  bottom: "inception_4d/3x3-se3"

  top: "inception_4d/3x3-se3"

  name: "inception_4d/relu_3x3-se3"

  type: RELU

}

layers {

  bottom: "inception_4c/output-se3"

  top: "inception_4d/5x5_reduce-se3"

  name: "inception_4d/5x5_reduce-se3"

  type: CONVOLUTION

  blobs_lr: 1

  blobs_lr: 2

  weight_decay: 1

  weight_decay: 0

  convolution_param {

    num_output: 32

    kernel_size: 1

    weight_filler {

      type: "xavier"

      std: 0.2

    }

    bias_filler {

      type: "constant"

      value: 0.2

    }

  }

}

layers {

  bottom: "inception_4d/5x5_reduce-se3"

  top: "inception_4d/5x5_reduce-se3"

  name: "inception_4d/relu_5x5_reduce-se3"

  type: RELU

}

layers {

  bottom: "inception_4d/5x5_reduce-se3"

  top: "inception_4d/5x5-se3"

  name: "inception_4d/5x5-se3"

  type: CONVOLUTION

  blobs_lr: 1

  blobs_lr: 2

  weight_decay: 1

  weight_decay: 0

  convolution_param {

    num_output: 64

    pad: 2

    kernel_size: 5

    weight_filler {

      type: "xavier"

      std: 0.03

    }

    bias_filler {

      type: "constant"

      value: 0.2

    }

  }

}

layers {

  bottom: "inception_4d/5x5-se3"

  top: "inception_4d/5x5-se3"

  name: "inception_4d/relu_5x5-se3"

  type: RELU

}

layers {

  bottom: "inception_4c/output-se3"

  top: "inception_4d/pool-se3"

  name: "inception_4d/pool-se3"

  type: POOLING

  pooling_param {

    pool: MAX

    kernel_size: 3

    stride: 1

    pad: 1

  }

}

layers {

  bottom: "inception_4d/pool-se3"

  top: "inception_4d/pool_proj-se3"

  name: "inception_4d/pool_proj-se3"

  type: CONVOLUTION

  blobs_lr: 1

  blobs_lr: 2

  weight_decay: 1

  weight_decay: 0

  convolution_param {

    num_output: 64

    kernel_size: 1

    weight_filler {

      type: "xavier"

      std: 0.1

    }

    bias_filler {

      type: "constant"

      value: 0.2

    }

  }

}

layers {

  bottom: "inception_4d/pool_proj-se3"

  top: "inception_4d/pool_proj-se3"

  name: "inception_4d/relu_pool_proj-se3"

  type: RELU

}

layers {

  bottom: "inception_4d/1x1-se3"

  bottom: "inception_4d/3x3-se3"

  bottom: "inception_4d/5x5-se3"

  bottom: "inception_4d/pool_proj-se3"

  top: "inception_4d/output-se3"

  name: "inception_4d/output-se3"

  type: CONCAT

}



layers {

  bottom: "inception_4d/output-se3"

  top: "loss2/ave_pool-se3"

  name: "loss2/ave_pool-se3"

  type: POOLING

  pooling_param {

    pool: AVE

    kernel_size: 5

    stride: 3

  }

}

layers {

  bottom: "loss2/ave_pool-se3"

  top: "loss2/conv-se3"

  name: "loss2/conv-se3"

  type: CONVOLUTION

  blobs_lr: 1

  blobs_lr: 2

  weight_decay: 1

  weight_decay: 0

  convolution_param {

    num_output: 128

    kernel_size: 1

    weight_filler {

      type: "xavier"

      std: 0.08

    }

    bias_filler {

      type: "constant"

      value: 0.2

    }

  }

}

layers {

  bottom: "loss2/conv-se3"

  top: "loss2/conv-se3"

  name: "loss2/relu_conv-se3"

  type: RELU

}

layers {

  bottom: "loss2/conv-se3"

  top: "loss2/fc-se3"

  name: "loss2/fc-se3"

  type: INNER_PRODUCT

  blobs_lr: 1

  blobs_lr: 2

  weight_decay: 1

  weight_decay: 0

  inner_product_param {

    num_output: 1024

    weight_filler {

      type: "xavier"

      std: 0.02

    }

    bias_filler {

      type: "constant"

      value: 0.2

    }

  }

}

layers {

  bottom: "loss2/fc-se3"

  top: "loss2/fc-se3"

  name: "loss2/relu_fc-se3"

  type: RELU

}

layers {

  bottom: "loss2/fc-se3"

  top: "loss2/fc-se3"

  name: "loss2/drop_fc-se3"

  type: DROPOUT

  dropout_param {

    dropout_ratio: 0.7

  }

}

layers {

  bottom: "loss2/fc-se3"

  top: "fc-2-se3"

  name: "loss2/classifier-se3"

  type: INNER_PRODUCT

  blobs_lr: 1

  blobs_lr: 2

  weight_decay: 1

  weight_decay: 0

  inner_product_param {

    num_output: 500

    weight_filler {

      type: "xavier"

      std: 0.0009765625

    }

    bias_filler {

      type: "constant"

      value: 0

    }

  }

}

layers {

  name: "prob_layer-se3"

  type: BNLL    

  bottom: "fc-2-se3"

  top: "fc-2-se3"

}

layers {

  bottom: "inception_4d/output-se3"

  top: "inception_4e/1x1-se3"

  name: "inception_4e/1x1-se3"

  type: CONVOLUTION

  blobs_lr: 1

  blobs_lr: 2

  weight_decay: 1

  weight_decay: 0

  convolution_param {

    num_output: 256

    kernel_size: 1

    weight_filler {

      type: "xavier"

      std: 0.03

    }

    bias_filler {

      type: "constant"

      value: 0.2

    }

  }

}

layers {

  bottom: "inception_4e/1x1-se3"

  top: "inception_4e/1x1-se3"

  name: "inception_4e/relu_1x1-se3"

  type: RELU

}

layers {

  bottom: "inception_4d/output-se3"

  top: "inception_4e/3x3_reduce-se3"

  name: "inception_4e/3x3_reduce-se3"

  type: CONVOLUTION

  blobs_lr: 1

  blobs_lr: 2

  weight_decay: 1

  weight_decay: 0

  convolution_param {

    num_output: 160

    kernel_size: 1

    weight_filler {

      type: "xavier"

      std: 0.09

    }

    bias_filler {

      type: "constant"

      value: 0.2

    }

  }

}

layers {

  bottom: "inception_4e/3x3_reduce-se3"

  top: "inception_4e/3x3_reduce-se3"

  name: "inception_4e/relu_3x3_reduce-se3"

  type: RELU

}

layers {

  bottom: "inception_4e/3x3_reduce-se3"

  top: "inception_4e/3x3-se3"

  name: "inception_4e/3x3-se3"

  type: CONVOLUTION

  blobs_lr: 1

  blobs_lr: 2

  weight_decay: 1

  weight_decay: 0

  convolution_param {

    num_output: 320

    pad: 1

    kernel_size: 3

    weight_filler {

      type: "xavier"

      std: 0.03

    }

    bias_filler {

      type: "constant"

      value: 0.2

    }

  }

}

layers {

  bottom: "inception_4e/3x3-se3"

  top: "inception_4e/3x3-se3"

  name: "inception_4e/relu_3x3-se3"

  type: RELU

}

layers {

  bottom: "inception_4d/output-se3"

  top: "inception_4e/5x5_reduce-se3"

  name: "inception_4e/5x5_reduce-se3"

  type: CONVOLUTION

  blobs_lr: 1

  blobs_lr: 2

  weight_decay: 1

  weight_decay: 0

  convolution_param {

    num_output: 32

    kernel_size: 1

    weight_filler {

      type: "xavier"

      std: 0.2

    }

    bias_filler {

      type: "constant"

      value: 0.2

    }

  }

}

layers {

  bottom: "inception_4e/5x5_reduce-se3"

  top: "inception_4e/5x5_reduce-se3"

  name: "inception_4e/relu_5x5_reduce-se3"

  type: RELU

}

layers {

  bottom: "inception_4e/5x5_reduce-se3"

  top: "inception_4e/5x5-se3"

  name: "inception_4e/5x5-se3"

  type: CONVOLUTION

  blobs_lr: 1

  blobs_lr: 2

  weight_decay: 1

  weight_decay: 0

  convolution_param {

    num_output: 128

    pad: 2

    kernel_size: 5

    weight_filler {

      type: "xavier"

      std: 0.03

    }

    bias_filler {

      type: "constant"

      value: 0.2

    }

  }

}

layers {

  bottom: "inception_4e/5x5-se3"

  top: "inception_4e/5x5-se3"

  name: "inception_4e/relu_5x5-se3"

  type: RELU

}

layers {

  bottom: "inception_4d/output-se3"

  top: "inception_4e/pool-se3"

  name: "inception_4e/pool-se3"

  type: POOLING

  pooling_param {

    pool: MAX

    kernel_size: 3

    stride: 1

    pad: 1

  }

}

layers {

  bottom: "inception_4e/pool-se3"

  top: "inception_4e/pool_proj-se3"

  name: "inception_4e/pool_proj-se3"

  type: CONVOLUTION

  blobs_lr: 1

  blobs_lr: 2

  weight_decay: 1

  weight_decay: 0

  convolution_param {

    num_output: 128

    kernel_size: 1

    weight_filler {

      type: "xavier"

      std: 0.1

    }

    bias_filler {

      type: "constant"

      value: 0.2

    }

  }

}

layers {

  bottom: "inception_4e/pool_proj-se3"

  top: "inception_4e/pool_proj-se3"

  name: "inception_4e/relu_pool_proj-se3"

  type: RELU

}

layers {

  bottom: "inception_4e/1x1-se3"

  bottom: "inception_4e/3x3-se3"

  bottom: "inception_4e/5x5-se3"

  bottom: "inception_4e/pool_proj-se3"

  top: "inception_4e/output-se3"

  name: "inception_4e/output-se3"

  type: CONCAT

}

layers {

  bottom: "inception_4e/output-se3"

  top: "pool4/3x3_s2-se3"

  name: "pool4/3x3_s2-se3"

  type: POOLING

  pooling_param {

    pool: MAX

    kernel_size: 3

    stride: 2

  }

}

layers {

  bottom: "pool4/3x3_s2-se3"

  top: "inception_5a/1x1-se3"

  name: "inception_5a/1x1-se3"

  type: CONVOLUTION

  blobs_lr: 1

  blobs_lr: 2

  weight_decay: 1

  weight_decay: 0

  convolution_param {

    num_output: 256

    kernel_size: 1

    weight_filler {

      type: "xavier"

      std: 0.03

    }

    bias_filler {

      type: "constant"

      value: 0.2

    }

  }

}

layers {

  bottom: "inception_5a/1x1-se3"

  top: "inception_5a/1x1-se3"

  name: "inception_5a/relu_1x1-se3"

  type: RELU

}

layers {

  bottom: "pool4/3x3_s2-se3"

  top: "inception_5a/3x3_reduce-se3"

  name: "inception_5a/3x3_reduce-se3"

  type: CONVOLUTION

  blobs_lr: 1

  blobs_lr: 2

  weight_decay: 1

  weight_decay: 0

  convolution_param {

    num_output: 160

    kernel_size: 1

    weight_filler {

      type: "xavier"

      std: 0.09

    }

    bias_filler {

      type: "constant"

      value: 0.2

    }

  }

}

layers {

  bottom: "inception_5a/3x3_reduce-se3"

  top: "inception_5a/3x3_reduce-se3"

  name: "inception_5a/relu_3x3_reduce-se3"

  type: RELU

}

layers {

  bottom: "inception_5a/3x3_reduce-se3"

  top: "inception_5a/3x3-se3"

  name: "inception_5a/3x3-se3"

  type: CONVOLUTION

  blobs_lr: 1

  blobs_lr: 2

  weight_decay: 1

  weight_decay: 0

  convolution_param {

    num_output: 320

    pad: 1

    kernel_size: 3

    weight_filler {

      type: "xavier"

      std: 0.03

    }

    bias_filler {

      type: "constant"

      value: 0.2

    }

  }

}

layers {

  bottom: "inception_5a/3x3-se3"

  top: "inception_5a/3x3-se3"

  name: "inception_5a/relu_3x3-se3"

  type: RELU

}

layers {

  bottom: "pool4/3x3_s2-se3"

  top: "inception_5a/5x5_reduce-se3"

  name: "inception_5a/5x5_reduce-se3"

  type: CONVOLUTION

  blobs_lr: 1

  blobs_lr: 2

  weight_decay: 1

  weight_decay: 0

  convolution_param {

    num_output: 32

    kernel_size: 1

    weight_filler {

      type: "xavier"

      std: 0.2

    }

    bias_filler {

      type: "constant"

      value: 0.2

    }

  }

}

layers {

  bottom: "inception_5a/5x5_reduce-se3"

  top: "inception_5a/5x5_reduce-se3"

  name: "inception_5a/relu_5x5_reduce-se3"

  type: RELU

}

layers {

  bottom: "inception_5a/5x5_reduce-se3"

  top: "inception_5a/5x5-se3"

  name: "inception_5a/5x5-se3"

  type: CONVOLUTION

  blobs_lr: 1

  blobs_lr: 2

  weight_decay: 1

  weight_decay: 0

  convolution_param {

    num_output: 128

    pad: 2

    kernel_size: 5

    weight_filler {

      type: "xavier"

      std: 0.03

    }

    bias_filler {

      type: "constant"

      value: 0.2

    }

  }

}

layers {

  bottom: "inception_5a/5x5-se3"

  top: "inception_5a/5x5-se3"

  name: "inception_5a/relu_5x5-se3"

  type: RELU

}

layers {

  bottom: "pool4/3x3_s2-se3"

  top: "inception_5a/pool-se3"

  name: "inception_5a/pool-se3"

  type: POOLING

  pooling_param {

    pool: MAX

    kernel_size: 3

    stride: 1

    pad: 1

  }

}

layers {

  bottom: "inception_5a/pool-se3"

  top: "inception_5a/pool_proj-se3"

  name: "inception_5a/pool_proj-se3"

  type: CONVOLUTION

  blobs_lr: 1

  blobs_lr: 2

  weight_decay: 1

  weight_decay: 0

  convolution_param {

    num_output: 128

    kernel_size: 1

    weight_filler {

      type: "xavier"

      std: 0.1

    }

    bias_filler {

      type: "constant"

      value: 0.2

    }

  }

}

layers {

  bottom: "inception_5a/pool_proj-se3"

  top: "inception_5a/pool_proj-se3"

  name: "inception_5a/relu_pool_proj-se3"

  type: RELU

}

layers {

  bottom: "inception_5a/1x1-se3"

  bottom: "inception_5a/3x3-se3"

  bottom: "inception_5a/5x5-se3"

  bottom: "inception_5a/pool_proj-se3"

  top: "inception_5a/output-se3"

  name: "inception_5a/output-se3"

  type: CONCAT

}

layers {

  bottom: "inception_5a/output-se3"

  top: "inception_5b/1x1-se3"

  name: "inception_5b/1x1-se3"

  type: CONVOLUTION

  blobs_lr: 1

  blobs_lr: 2

  weight_decay: 1

  weight_decay: 0

  convolution_param {

    num_output: 384

    kernel_size: 1

    weight_filler {

      type: "xavier"

      std: 0.03

    }

    bias_filler {

      type: "constant"

      value: 0.2

    }

  }

}

layers {

  bottom: "inception_5b/1x1-se3"

  top: "inception_5b/1x1-se3"

  name: "inception_5b/relu_1x1-se3"

  type: RELU

}

layers {

  bottom: "inception_5a/output-se3"

  top: "inception_5b/3x3_reduce-se3"

  name: "inception_5b/3x3_reduce-se3"

  type: CONVOLUTION

  blobs_lr: 1

  blobs_lr: 2

  weight_decay: 1

  weight_decay: 0

  convolution_param {

    num_output: 192

    kernel_size: 1

    weight_filler {

      type: "xavier"

      std: 0.09

    }

    bias_filler {

      type: "constant"

      value: 0.2

    }

  }

}

layers {

  bottom: "inception_5b/3x3_reduce-se3"

  top: "inception_5b/3x3_reduce-se3"

  name: "inception_5b/relu_3x3_reduce-se3"

  type: RELU

}

layers {

  bottom: "inception_5b/3x3_reduce-se3"

  top: "inception_5b/3x3-se3"

  name: "inception_5b/3x3-se3"

  type: CONVOLUTION

  blobs_lr: 1

  blobs_lr: 2

  weight_decay: 1

  weight_decay: 0

  convolution_param {

    num_output: 384

    pad: 1

    kernel_size: 3

    weight_filler {

      type: "xavier"

      std: 0.03

    }

    bias_filler {

      type: "constant"

      value: 0.2

    }

  }

}

layers {

  bottom: "inception_5b/3x3-se3"

  top: "inception_5b/3x3-se3"

  name: "inception_5b/relu_3x3-se3"

  type: RELU

}

layers {

  bottom: "inception_5a/output-se3"

  top: "inception_5b/5x5_reduce-se3"

  name: "inception_5b/5x5_reduce-se3"

  type: CONVOLUTION

  blobs_lr: 1

  blobs_lr: 2

  weight_decay: 1

  weight_decay: 0

  convolution_param {

    num_output: 48

    kernel_size: 1

    weight_filler {

      type: "xavier"

      std: 0.2

    }

    bias_filler {

      type: "constant"

      value: 0.2

    }

  }

}

layers {

  bottom: "inception_5b/5x5_reduce-se3"

  top: "inception_5b/5x5_reduce-se3"

  name: "inception_5b/relu_5x5_reduce-se3"

  type: RELU

}

layers {

  bottom: "inception_5b/5x5_reduce-se3"

  top: "inception_5b/5x5-se3"

  name: "inception_5b/5x5-se3"

  type: CONVOLUTION

  blobs_lr: 1

  blobs_lr: 2

  weight_decay: 1

  weight_decay: 0

  convolution_param {

    num_output: 128

    pad: 2

    kernel_size: 5

    weight_filler {

      type: "xavier"

      std: 0.03

    }

    bias_filler {

      type: "constant"

      value: 0.2

    }

  }

}

layers {

  bottom: "inception_5b/5x5-se3"

  top: "inception_5b/5x5-se3"

  name: "inception_5b/relu_5x5-se3"

  type: RELU

}

layers {

  bottom: "inception_5a/output-se3"

  top: "inception_5b/pool-se3"

  name: "inception_5b/pool-se3"

  type: POOLING

  pooling_param {

    pool: MAX

    kernel_size: 3

    stride: 1

    pad: 1

  }

}

layers {

  bottom: "inception_5b/pool-se3"

  top: "inception_5b/pool_proj-se3"

  name: "inception_5b/pool_proj-se3"

  type: CONVOLUTION

  blobs_lr: 1

  blobs_lr: 2

  weight_decay: 1

  weight_decay: 0

  convolution_param {

    num_output: 128

    kernel_size: 1

    weight_filler {

      type: "xavier"

      std: 0.1

    }

    bias_filler {

      type: "constant"

      value: 0.2

    }

  }

}

layers {

  bottom: "inception_5b/pool_proj-se3"

  top: "inception_5b/pool_proj-se3"

  name: "inception_5b/relu_pool_proj-se3"

  type: RELU

}

layers {

  bottom: "inception_5b/1x1-se3"

  bottom: "inception_5b/3x3-se3"

  bottom: "inception_5b/5x5-se3"

  bottom: "inception_5b/pool_proj-se3"

  top: "inception_5b/output-se3"

  name: "inception_5b/output-se3"

  type: CONCAT

}

layers {

  bottom: "inception_5b/output-se3"

  top: "pool5/7x7_s1-se3"

  name: "pool5/7x7_s1-se3"

  type: POOLING

  pooling_param {

    pool: AVE

    kernel_size: 7

    stride: 1

  }

}

layers {

  bottom: "pool5/7x7_s1-se3"

  top: "pool5/7x7_s1-se3"

  name: "pool5/drop_7x7_s1-se3"

  type: DROPOUT

  dropout_param {

    dropout_ratio: 0.4

  }

}

layers {

  bottom: "pool5/7x7_s1-se3"

  top: "fc8-se3"

  name: "loss3/classifier-se3"

  type: INNER_PRODUCT

  blobs_lr: 1

  blobs_lr: 2

  weight_decay: 1

  weight_decay: 0

  inner_product_param {

    num_output: 500

    weight_filler {

      type: "xavier"

    }

    bias_filler {

      type: "constant"

      value: 0

    }

  }

}

layers {

  name: "prob_layer-se3"

  type: BNLL    

  bottom: "fc8-se3"

  top: "fc8-se3"

}







 
layers {

  bottom: "data"

  top: "conv1/7x7_s2-se4"

  name: "conv1/7x7_s2-se4"

  type: CONVOLUTION

  blobs_lr: 1

  blobs_lr: 2

  weight_decay: 1

  weight_decay: 0

  convolution_param {

    num_output: 64

    pad: 3

    kernel_size: 7

    stride: 2

    weight_filler {

      type: "xavier"

      std: 0.1

    }

    bias_filler {

      type: "constant"

      value: 0.2

    }

  }

}

layers {

  bottom: "conv1/7x7_s2-se4"

  top: "conv1/7x7_s2-se4"

  name: "conv1/relu_7x7-se4"

  type: RELU

}

layers {

  bottom: "conv1/7x7_s2-se4"

  top: "pool1/3x3_s2-se4"

  name: "pool1/3x3_s2-se4"

  type: POOLING

  pooling_param {

    pool: MAX

    kernel_size: 3

    stride: 2

  }

}

layers {

  bottom: "pool1/3x3_s2-se4"

  top: "pool1/norm1-se4"

  name: "pool1/norm1-se4"

  type: LRN

  lrn_param {

    local_size: 5

    alpha: 0.0001

    beta: 0.75

  }

}

layers {

  bottom: "pool1/norm1-se4"

  top: "conv2/3x3_reduce-se4"

  name: "conv2/3x3_reduce-se4"

  type: CONVOLUTION

  blobs_lr: 1

  blobs_lr: 2

  weight_decay: 1

  weight_decay: 0

  convolution_param {

    num_output: 64

    kernel_size: 1

    weight_filler {

      type: "xavier"

      std: 0.1

    }

    bias_filler {

      type: "constant"

      value: 0.2

    }

  }

}

layers {

  bottom: "conv2/3x3_reduce-se4"

  top: "conv2/3x3_reduce-se4"

  name: "conv2/relu_3x3_reduce-se4"

  type: RELU

}

layers {

  bottom: "conv2/3x3_reduce-se4"

  top: "conv2/3x3-se4"

  name: "conv2/3x3-se4"

  type: CONVOLUTION

  blobs_lr: 1

  blobs_lr: 2

  weight_decay: 1

  weight_decay: 0

  convolution_param {

    num_output: 192

    pad: 1

    kernel_size: 3

    weight_filler {

      type: "xavier"

      std: 0.03

    }

    bias_filler {

      type: "constant"

      value: 0.2

    }

  }

}

layers {

  bottom: "conv2/3x3-se4"

  top: "conv2/3x3-se4"

  name: "conv2/relu_3x3-se4"

  type: RELU

}

layers {

  bottom: "conv2/3x3-se4"

  top: "conv2/norm2-se4"

  name: "conv2/norm2-se4"

  type: LRN

  lrn_param {

    local_size: 5

    alpha: 0.0001

    beta: 0.75

  }

}

layers {

  bottom: "conv2/norm2-se4"

  top: "pool2/3x3_s2-se4"

  name: "pool2/3x3_s2-se4"

  type: POOLING

  pooling_param {

    pool: MAX

    kernel_size: 3

    stride: 2

  }

}

layers {

  bottom: "pool2/3x3_s2-se4"

  top: "inception_3a/1x1-se4"

  name: "inception_3a/1x1-se4"

  type: CONVOLUTION

  blobs_lr: 1

  blobs_lr: 2

  weight_decay: 1

  weight_decay: 0

  convolution_param {

    num_output: 64

    kernel_size: 1

    weight_filler {

      type: "xavier"

      std: 0.03

    }

    bias_filler {

      type: "constant"

      value: 0.2

    }

  }

}

layers {

  bottom: "inception_3a/1x1-se4"

  top: "inception_3a/1x1-se4"

  name: "inception_3a/relu_1x1-se4"

  type: RELU

}

layers {

  bottom: "pool2/3x3_s2-se4"

  top: "inception_3a/3x3_reduce-se4"

  name: "inception_3a/3x3_reduce-se4"

  type: CONVOLUTION

  blobs_lr: 1

  blobs_lr: 2

  weight_decay: 1

  weight_decay: 0

  convolution_param {

    num_output: 96

    kernel_size: 1

    weight_filler {

      type: "xavier"

      std: 0.09

    }

    bias_filler {

      type: "constant"

      value: 0.2

    }

  }

}

layers {

  bottom: "inception_3a/3x3_reduce-se4"

  top: "inception_3a/3x3_reduce-se4"

  name: "inception_3a/relu_3x3_reduce-se4"

  type: RELU

}

layers {

  bottom: "inception_3a/3x3_reduce-se4"

  top: "inception_3a/3x3-se4"

  name: "inception_3a/3x3-se4"

  type: CONVOLUTION

  blobs_lr: 1

  blobs_lr: 2

  weight_decay: 1

  weight_decay: 0

  convolution_param {

    num_output: 128

    pad: 1

    kernel_size: 3

    weight_filler {

      type: "xavier"

      std: 0.03

    }

    bias_filler {

      type: "constant"

      value: 0.2

    }

  }

}

layers {

  bottom: "inception_3a/3x3-se4"

  top: "inception_3a/3x3-se4"

  name: "inception_3a/relu_3x3-se4"

  type: RELU

}

layers {

  bottom: "pool2/3x3_s2-se4"

  top: "inception_3a/5x5_reduce-se4"

  name: "inception_3a/5x5_reduce-se4"

  type: CONVOLUTION

  blobs_lr: 1

  blobs_lr: 2

  weight_decay: 1

  weight_decay: 0

  convolution_param {

    num_output: 16

    kernel_size: 1

    weight_filler {

      type: "xavier"

      std: 0.2

    }

    bias_filler {

      type: "constant"

      value: 0.2

    }

  }

}

layers {

  bottom: "inception_3a/5x5_reduce-se4"

  top: "inception_3a/5x5_reduce-se4"

  name: "inception_3a/relu_5x5_reduce-se4"

  type: RELU

}

layers {

  bottom: "inception_3a/5x5_reduce-se4"

  top: "inception_3a/5x5-se4"

  name: "inception_3a/5x5-se4"

  type: CONVOLUTION

  blobs_lr: 1

  blobs_lr: 2

  weight_decay: 1

  weight_decay: 0

  convolution_param {

    num_output: 32

    pad: 2

    kernel_size: 5

    weight_filler {

      type: "xavier"

      std: 0.03

    }

    bias_filler {

      type: "constant"

      value: 0.2

    }

  }

}

layers {

  bottom: "inception_3a/5x5-se4"

  top: "inception_3a/5x5-se4"

  name: "inception_3a/relu_5x5-se4"

  type: RELU

}

layers {

  bottom: "pool2/3x3_s2-se4"

  top: "inception_3a/pool-se4"

  name: "inception_3a/pool-se4"

  type: POOLING

  pooling_param {

    pool: MAX

    kernel_size: 3

    stride: 1

    pad: 1

  }

}

layers {

  bottom: "inception_3a/pool-se4"

  top: "inception_3a/pool_proj-se4"

  name: "inception_3a/pool_proj-se4"

  type: CONVOLUTION

  blobs_lr: 1

  blobs_lr: 2

  weight_decay: 1

  weight_decay: 0

  convolution_param {

    num_output: 32

    kernel_size: 1

    weight_filler {

      type: "xavier"

      std: 0.1

    }

    bias_filler {

      type: "constant"

      value: 0.2

    }

  }

}

layers {

  bottom: "inception_3a/pool_proj-se4"

  top: "inception_3a/pool_proj-se4"

  name: "inception_3a/relu_pool_proj-se4"

  type: RELU

}

layers {

  bottom: "inception_3a/1x1-se4"

  bottom: "inception_3a/3x3-se4"

  bottom: "inception_3a/5x5-se4"

  bottom: "inception_3a/pool_proj-se4"

  top: "inception_3a/output-se4"

  name: "inception_3a/output-se4"

  type: CONCAT

}

layers {

  bottom: "inception_3a/output-se4"

  top: "inception_3b/1x1-se4"

  name: "inception_3b/1x1-se4"

  type: CONVOLUTION

  blobs_lr: 1

  blobs_lr: 2

  weight_decay: 1

  weight_decay: 0

  convolution_param {

    num_output: 128

    kernel_size: 1

    weight_filler {

      type: "xavier"

      std: 0.03

    }

    bias_filler {

      type: "constant"

      value: 0.2

    }

  }

}

layers {

  bottom: "inception_3b/1x1-se4"

  top: "inception_3b/1x1-se4"

  name: "inception_3b/relu_1x1-se4"

  type: RELU

}

layers {

  bottom: "inception_3a/output-se4"

  top: "inception_3b/3x3_reduce-se4"

  name: "inception_3b/3x3_reduce-se4"

  type: CONVOLUTION

  blobs_lr: 1

  blobs_lr: 2

  weight_decay: 1

  weight_decay: 0

  convolution_param {

    num_output: 128

    kernel_size: 1

    weight_filler {

      type: "xavier"

      std: 0.09

    }

    bias_filler {

      type: "constant"

      value: 0.2

    }

  }

}

layers {

  bottom: "inception_3b/3x3_reduce-se4"

  top: "inception_3b/3x3_reduce-se4"

  name: "inception_3b/relu_3x3_reduce-se4"

  type: RELU

}

layers {

  bottom: "inception_3b/3x3_reduce-se4"

  top: "inception_3b/3x3-se4"

  name: "inception_3b/3x3-se4"

  type: CONVOLUTION

  blobs_lr: 1

  blobs_lr: 2

  weight_decay: 1

  weight_decay: 0

  convolution_param {

    num_output: 192

    pad: 1

    kernel_size: 3

    weight_filler {

      type: "xavier"

      std: 0.03

    }

    bias_filler {

      type: "constant"

      value: 0.2

    }

  }

}

layers {

  bottom: "inception_3b/3x3-se4"

  top: "inception_3b/3x3-se4"

  name: "inception_3b/relu_3x3-se4"

  type: RELU

}

layers {

  bottom: "inception_3a/output-se4"

  top: "inception_3b/5x5_reduce-se4"

  name: "inception_3b/5x5_reduce-se4"

  type: CONVOLUTION

  blobs_lr: 1

  blobs_lr: 2

  weight_decay: 1

  weight_decay: 0

  convolution_param {

    num_output: 32

    kernel_size: 1

    weight_filler {

      type: "xavier"

      std: 0.2

    }

    bias_filler {

      type: "constant"

      value: 0.2

    }

  }

}

layers {

  bottom: "inception_3b/5x5_reduce-se4"

  top: "inception_3b/5x5_reduce-se4"

  name: "inception_3b/relu_5x5_reduce-se4"

  type: RELU

}

layers {

  bottom: "inception_3b/5x5_reduce-se4"

  top: "inception_3b/5x5-se4"

  name: "inception_3b/5x5-se4"

  type: CONVOLUTION

  blobs_lr: 1

  blobs_lr: 2

  weight_decay: 1

  weight_decay: 0

  convolution_param {

    num_output: 96

    pad: 2

    kernel_size: 5

    weight_filler {

      type: "xavier"

      std: 0.03

    }

    bias_filler {

      type: "constant"

      value: 0.2

    }

  }

}

layers {

  bottom: "inception_3b/5x5-se4"

  top: "inception_3b/5x5-se4"

  name: "inception_3b/relu_5x5-se4"

  type: RELU

}

layers {

  bottom: "inception_3a/output-se4"

  top: "inception_3b/pool-se4"

  name: "inception_3b/pool-se4"

  type: POOLING

  pooling_param {

    pool: MAX

    kernel_size: 3

    stride: 1

    pad: 1

  }

}

layers {

  bottom: "inception_3b/pool-se4"

  top: "inception_3b/pool_proj-se4"

  name: "inception_3b/pool_proj-se4"

  type: CONVOLUTION

  blobs_lr: 1

  blobs_lr: 2

  weight_decay: 1

  weight_decay: 0

  convolution_param {

    num_output: 64

    kernel_size: 1

    weight_filler {

      type: "xavier"

      std: 0.1

    }

    bias_filler {

      type: "constant"

      value: 0.2

    }

  }

}

layers {

  bottom: "inception_3b/pool_proj-se4"

  top: "inception_3b/pool_proj-se4"

  name: "inception_3b/relu_pool_proj-se4"

  type: RELU

}

layers {

  bottom: "inception_3b/1x1-se4"

  bottom: "inception_3b/3x3-se4"

  bottom: "inception_3b/5x5-se4"

  bottom: "inception_3b/pool_proj-se4"

  top: "inception_3b/output-se4"

  name: "inception_3b/output-se4"

  type: CONCAT

}

layers {

  bottom: "inception_3b/output-se4"

  top: "pool3/3x3_s2-se4"

  name: "pool3/3x3_s2-se4"

  type: POOLING

  pooling_param {

    pool: MAX

    kernel_size: 3

    stride: 2

  }

}

layers {

  bottom: "pool3/3x3_s2-se4"

  top: "inception_4a/1x1-se4"

  name: "inception_4a/1x1-se4"

  type: CONVOLUTION

  blobs_lr: 1

  blobs_lr: 2

  weight_decay: 1

  weight_decay: 0

  convolution_param {

    num_output: 192

    kernel_size: 1

    weight_filler {

      type: "xavier"

      std: 0.03

    }

    bias_filler {

      type: "constant"

      value: 0.2

    }

  }

}

layers {

  bottom: "inception_4a/1x1-se4"

  top: "inception_4a/1x1-se4"

  name: "inception_4a/relu_1x1-se4"

  type: RELU

}

layers {

  bottom: "pool3/3x3_s2-se4"

  top: "inception_4a/3x3_reduce-se4"

  name: "inception_4a/3x3_reduce-se4"

  type: CONVOLUTION

  blobs_lr: 1

  blobs_lr: 2

  weight_decay: 1

  weight_decay: 0

  convolution_param {

    num_output: 96

    kernel_size: 1

    weight_filler {

      type: "xavier"

      std: 0.09

    }

    bias_filler {

      type: "constant"

      value: 0.2

    }

  }

}

layers {

  bottom: "inception_4a/3x3_reduce-se4"

  top: "inception_4a/3x3_reduce-se4"

  name: "inception_4a/relu_3x3_reduce-se4"

  type: RELU

}

layers {

  bottom: "inception_4a/3x3_reduce-se4"

  top: "inception_4a/3x3-se4"

  name: "inception_4a/3x3-se4"

  type: CONVOLUTION

  blobs_lr: 1

  blobs_lr: 2

  weight_decay: 1

  weight_decay: 0

  convolution_param {

    num_output: 208

    pad: 1

    kernel_size: 3

    weight_filler {

      type: "xavier"

      std: 0.03

    }

    bias_filler {

      type: "constant"

      value: 0.2

    }

  }

}

layers {

  bottom: "inception_4a/3x3-se4"

  top: "inception_4a/3x3-se4"

  name: "inception_4a/relu_3x3-se4"

  type: RELU

}

layers {

  bottom: "pool3/3x3_s2-se4"

  top: "inception_4a/5x5_reduce-se4"

  name: "inception_4a/5x5_reduce-se4"

  type: CONVOLUTION

  blobs_lr: 1

  blobs_lr: 2

  weight_decay: 1

  weight_decay: 0

  convolution_param {

    num_output: 16

    kernel_size: 1

    weight_filler {

      type: "xavier"

      std: 0.2

    }

    bias_filler {

      type: "constant"

      value: 0.2

    }

  }

}

layers {

  bottom: "inception_4a/5x5_reduce-se4"

  top: "inception_4a/5x5_reduce-se4"

  name: "inception_4a/relu_5x5_reduce-se4"

  type: RELU

}

layers {

  bottom: "inception_4a/5x5_reduce-se4"

  top: "inception_4a/5x5-se4"

  name: "inception_4a/5x5-se4"

  type: CONVOLUTION

  blobs_lr: 1

  blobs_lr: 2

  weight_decay: 1

  weight_decay: 0

  convolution_param {

    num_output: 48

    pad: 2

    kernel_size: 5

    weight_filler {

      type: "xavier"

      std: 0.03

    }

    bias_filler {

      type: "constant"

      value: 0.2

    }

  }

}

layers {

  bottom: "inception_4a/5x5-se4"

  top: "inception_4a/5x5-se4"

  name: "inception_4a/relu_5x5-se4"

  type: RELU

}

layers {

  bottom: "pool3/3x3_s2-se4"

  top: "inception_4a/pool-se4"

  name: "inception_4a/pool-se4"

  type: POOLING

  pooling_param {

    pool: MAX

    kernel_size: 3

    stride: 1

    pad: 1

  }

}

layers {

  bottom: "inception_4a/pool-se4"

  top: "inception_4a/pool_proj-se4"

  name: "inception_4a/pool_proj-se4"

  type: CONVOLUTION

  blobs_lr: 1

  blobs_lr: 2

  weight_decay: 1

  weight_decay: 0

  convolution_param {

    num_output: 64

    kernel_size: 1

    weight_filler {

      type: "xavier"

      std: 0.1

    }

    bias_filler {

      type: "constant"

      value: 0.2

    }

  }

}

layers {

  bottom: "inception_4a/pool_proj-se4"

  top: "inception_4a/pool_proj-se4"

  name: "inception_4a/relu_pool_proj-se4"

  type: RELU

}

layers {

  bottom: "inception_4a/1x1-se4"

  bottom: "inception_4a/3x3-se4"

  bottom: "inception_4a/5x5-se4"

  bottom: "inception_4a/pool_proj-se4"

  top: "inception_4a/output-se4"

  name: "inception_4a/output-se4"

  type: CONCAT

}

layers {

  bottom: "inception_4a/output-se4"

  top: "loss1/ave_pool-se4"

  name: "loss1/ave_pool-se4"

  type: POOLING

  pooling_param {

    pool: AVE

    kernel_size: 5

    stride: 3

  }

}

layers {

  bottom: "loss1/ave_pool-se4"

  top: "loss1/conv-se4"

  name: "loss1/conv-se4"

  type: CONVOLUTION

  blobs_lr: 1

  blobs_lr: 2

  weight_decay: 1

  weight_decay: 0

  convolution_param {

    num_output: 128

    kernel_size: 1

    weight_filler {

      type: "xavier"

      std: 0.08

    }

    bias_filler {

      type: "constant"

      value: 0.2

    }

  }

}

layers {

  bottom: "loss1/conv-se4"

  top: "loss1/conv-se4"

  name: "loss1/relu_conv-se4"

  type: RELU

}

layers {

  bottom: "loss1/conv-se4"

  top: "loss1/fc-se4"

  name: "loss1/fc-se4"

  type: INNER_PRODUCT

  blobs_lr: 1

  blobs_lr: 2

  weight_decay: 1

  weight_decay: 0

  inner_product_param {

    num_output: 1024

    weight_filler {

      type: "xavier"

      std: 0.02

    }

    bias_filler {

      type: "constant"

      value: 0.2

    }

  }

}

layers {

  bottom: "loss1/fc-se4"

  top: "loss1/fc-se4"

  name: "loss1/relu_fc-se4"

  type: RELU

}

layers {

  bottom: "loss1/fc-se4"

  top: "loss1/fc-se4"

  name: "loss1/drop_fc-se4"

  type: DROPOUT

  dropout_param {

    dropout_ratio: 0.7

  }

}

layers {

  bottom: "loss1/fc-se4"

  top: "fc-1-se4"

  name: "loss1/classifier-se4"

  type: INNER_PRODUCT

  blobs_lr: 1

  blobs_lr: 2

  weight_decay: 1

  weight_decay: 0

  inner_product_param {

    num_output: 500

    weight_filler {

      type: "xavier"

      std: 0.0009765625

    }

    bias_filler { 

      type: "constant"

      value: 0

    }

  }

}

layers {

  name: "prob_layer-se4"

  type: BNLL    

  bottom: "fc-1-se4"

  top: "fc-1-se4"

}

layers {

  bottom: "inception_4a/output-se4"

  top: "inception_4b/1x1-se4"

  name: "inception_4b/1x1-se4"

  type: CONVOLUTION

  blobs_lr: 1

  blobs_lr: 2

  weight_decay: 1

  weight_decay: 0

  convolution_param {

    num_output: 160

    kernel_size: 1

    weight_filler {

      type: "xavier"

      std: 0.03

    }

    bias_filler {

      type: "constant"

      value: 0.2

    }

  }

}

layers {

  bottom: "inception_4b/1x1-se4"

  top: "inception_4b/1x1-se4"

  name: "inception_4b/relu_1x1-se4"

  type: RELU

}

layers {

  bottom: "inception_4a/output-se4"

  top: "inception_4b/3x3_reduce-se4"

  name: "inception_4b/3x3_reduce-se4"

  type: CONVOLUTION

  blobs_lr: 1

  blobs_lr: 2

  weight_decay: 1

  weight_decay: 0

  convolution_param {

    num_output: 112

    kernel_size: 1

    weight_filler {

      type: "xavier"

      std: 0.09

    }

    bias_filler {

      type: "constant"

      value: 0.2

    }

  }

}

layers {

  bottom: "inception_4b/3x3_reduce-se4"

  top: "inception_4b/3x3_reduce-se4"

  name: "inception_4b/relu_3x3_reduce-se4"

  type: RELU

}

layers {

  bottom: "inception_4b/3x3_reduce-se4"

  top: "inception_4b/3x3-se4"

  name: "inception_4b/3x3-se4"

  type: CONVOLUTION

  blobs_lr: 1

  blobs_lr: 2

  weight_decay: 1

  weight_decay: 0

  convolution_param {

    num_output: 224

    pad: 1

    kernel_size: 3

    weight_filler {

      type: "xavier"

      std: 0.03

    }

    bias_filler {

      type: "constant"

      value: 0.2

    }

  }

}

layers {

  bottom: "inception_4b/3x3-se4"

  top: "inception_4b/3x3-se4"

  name: "inception_4b/relu_3x3-se4"

  type: RELU

}

layers {

  bottom: "inception_4a/output-se4"

  top: "inception_4b/5x5_reduce-se4"

  name: "inception_4b/5x5_reduce-se4"

  type: CONVOLUTION

  blobs_lr: 1

  blobs_lr: 2

  weight_decay: 1

  weight_decay: 0

  convolution_param {

    num_output: 24

    kernel_size: 1

    weight_filler {

      type: "xavier"

      std: 0.2

    }

    bias_filler {

      type: "constant"

      value: 0.2

    }

  }

}

layers {

  bottom: "inception_4b/5x5_reduce-se4"

  top: "inception_4b/5x5_reduce-se4"

  name: "inception_4b/relu_5x5_reduce-se4"

  type: RELU

}

layers {

  bottom: "inception_4b/5x5_reduce-se4"

  top: "inception_4b/5x5-se4"

  name: "inception_4b/5x5-se4"

  type: CONVOLUTION

  blobs_lr: 1

  blobs_lr: 2

  weight_decay: 1

  weight_decay: 0

  convolution_param {

    num_output: 64

    pad: 2

    kernel_size: 5

    weight_filler {

      type: "xavier"

      std: 0.03

    }

    bias_filler {

      type: "constant"

      value: 0.2

    }

  }

}

layers {

  bottom: "inception_4b/5x5-se4"

  top: "inception_4b/5x5-se4"

  name: "inception_4b/relu_5x5-se4"

  type: RELU

}

layers {

  bottom: "inception_4a/output-se4"

  top: "inception_4b/pool-se4"

  name: "inception_4b/pool-se4"

  type: POOLING

  pooling_param {

    pool: MAX

    kernel_size: 3

    stride: 1

    pad: 1

  }

}

layers {

  bottom: "inception_4b/pool-se4"

  top: "inception_4b/pool_proj-se4"

  name: "inception_4b/pool_proj-se4"

  type: CONVOLUTION

  blobs_lr: 1

  blobs_lr: 2

  weight_decay: 1

  weight_decay: 0

  convolution_param {

    num_output: 64

    kernel_size: 1

    weight_filler {

      type: "xavier"

      std: 0.1

    }

    bias_filler {

      type: "constant"

      value: 0.2

    }

  }

}

layers {

  bottom: "inception_4b/pool_proj-se4"

  top: "inception_4b/pool_proj-se4"

  name: "inception_4b/relu_pool_proj-se4"

  type: RELU

}

layers {

  bottom: "inception_4b/1x1-se4"

  bottom: "inception_4b/3x3-se4"

  bottom: "inception_4b/5x5-se4"

  bottom: "inception_4b/pool_proj-se4"

  top: "inception_4b/output-se4"

  name: "inception_4b/output-se4"

  type: CONCAT

}

layers {

  bottom: "inception_4b/output-se4"

  top: "inception_4c/1x1-se4"

  name: "inception_4c/1x1-se4"

  type: CONVOLUTION

  blobs_lr: 1

  blobs_lr: 2

  weight_decay: 1

  weight_decay: 0

  convolution_param {

    num_output: 128

    kernel_size: 1

    weight_filler {

      type: "xavier"

      std: 0.03

    }

    bias_filler {

      type: "constant"

      value: 0.2

    }

  }

}

layers {

  bottom: "inception_4c/1x1-se4"

  top: "inception_4c/1x1-se4"

  name: "inception_4c/relu_1x1-se4"

  type: RELU

}

layers {

  bottom: "inception_4b/output-se4"

  top: "inception_4c/3x3_reduce-se4"

  name: "inception_4c/3x3_reduce-se4"

  type: CONVOLUTION

  blobs_lr: 1

  blobs_lr: 2

  weight_decay: 1

  weight_decay: 0

  convolution_param {

    num_output: 128

    kernel_size: 1

    weight_filler {

      type: "xavier"

      std: 0.09

    }

    bias_filler {

      type: "constant"

      value: 0.2

    }

  }

}

layers {

  bottom: "inception_4c/3x3_reduce-se4"

  top: "inception_4c/3x3_reduce-se4"

  name: "inception_4c/relu_3x3_reduce-se4"

  type: RELU

}

layers {

  bottom: "inception_4c/3x3_reduce-se4"

  top: "inception_4c/3x3-se4"

  name: "inception_4c/3x3-se4"

  type: CONVOLUTION

  blobs_lr: 1

  blobs_lr: 2

  weight_decay: 1

  weight_decay: 0

  convolution_param {

    num_output: 256

    pad: 1

    kernel_size: 3

    weight_filler {

      type: "xavier"

      std: 0.03

    }

    bias_filler {

      type: "constant"

      value: 0.2

    }

  }

}

layers {

  bottom: "inception_4c/3x3-se4"

  top: "inception_4c/3x3-se4"

  name: "inception_4c/relu_3x3-se4"

  type: RELU

}

layers {

  bottom: "inception_4b/output-se4"

  top: "inception_4c/5x5_reduce-se4"

  name: "inception_4c/5x5_reduce-se4"

  type: CONVOLUTION

  blobs_lr: 1

  blobs_lr: 2

  weight_decay: 1

  weight_decay: 0

  convolution_param {

    num_output: 24

    kernel_size: 1

    weight_filler {

      type: "xavier"

      std: 0.2

    }

    bias_filler {

      type: "constant"

      value: 0.2

    }

  }

}

layers {

  bottom: "inception_4c/5x5_reduce-se4"

  top: "inception_4c/5x5_reduce-se4"

  name: "inception_4c/relu_5x5_reduce-se4"

  type: RELU

}

layers {

  bottom: "inception_4c/5x5_reduce-se4"

  top: "inception_4c/5x5-se4"

  name: "inception_4c/5x5-se4"

  type: CONVOLUTION

  blobs_lr: 1

  blobs_lr: 2

  weight_decay: 1

  weight_decay: 0

  convolution_param {

    num_output: 64

    pad: 2

    kernel_size: 5

    weight_filler {

      type: "xavier"

      std: 0.03

    }

    bias_filler {

      type: "constant"

      value: 0.2

    }

  }

}

layers {

  bottom: "inception_4c/5x5-se4"

  top: "inception_4c/5x5-se4"

  name: "inception_4c/relu_5x5-se4"

  type: RELU

}

layers {

  bottom: "inception_4b/output-se4"

  top: "inception_4c/pool-se4"

  name: "inception_4c/pool-se4"

  type: POOLING

  pooling_param {

    pool: MAX

    kernel_size: 3

    stride: 1

    pad: 1

  }

}

layers {

  bottom: "inception_4c/pool-se4"

  top: "inception_4c/pool_proj-se4"

  name: "inception_4c/pool_proj-se4"

  type: CONVOLUTION

  blobs_lr: 1

  blobs_lr: 2

  weight_decay: 1

  weight_decay: 0

  convolution_param {

    num_output: 64

    kernel_size: 1

    weight_filler {

      type: "xavier"

      std: 0.1

    }

    bias_filler {

      type: "constant"

      value: 0.2

    }

  }

}

layers {

  bottom: "inception_4c/pool_proj-se4"

  top: "inception_4c/pool_proj-se4"

  name: "inception_4c/relu_pool_proj-se4"

  type: RELU

}

layers {

  bottom: "inception_4c/1x1-se4"

  bottom: "inception_4c/3x3-se4"

  bottom: "inception_4c/5x5-se4"

  bottom: "inception_4c/pool_proj-se4"

  top: "inception_4c/output-se4"

  name: "inception_4c/output-se4"

  type: CONCAT

}

layers {

  bottom: "inception_4c/output-se4"

  top: "inception_4d/1x1-se4"

  name: "inception_4d/1x1-se4"

  type: CONVOLUTION

  blobs_lr: 1

  blobs_lr: 2

  weight_decay: 1

  weight_decay: 0

  convolution_param {

    num_output: 112

    kernel_size: 1

    weight_filler {

      type: "xavier"

      std: 0.03

    }

    bias_filler {

      type: "constant"

      value: 0.2

    }

  }

}

layers {

  bottom: "inception_4d/1x1-se4"

  top: "inception_4d/1x1-se4"

  name: "inception_4d/relu_1x1-se4"

  type: RELU

}

layers {

  bottom: "inception_4c/output-se4"

  top: "inception_4d/3x3_reduce-se4"

  name: "inception_4d/3x3_reduce-se4"

  type: CONVOLUTION

  blobs_lr: 1

  blobs_lr: 2

  weight_decay: 1

  weight_decay: 0

  convolution_param {

    num_output: 144

    kernel_size: 1

    weight_filler {

      type: "xavier"

      std: 0.09

    }

    bias_filler {

      type: "constant"

      value: 0.2

    }

  }

}

layers {

  bottom: "inception_4d/3x3_reduce-se4"

  top: "inception_4d/3x3_reduce-se4"

  name: "inception_4d/relu_3x3_reduce-se4"

  type: RELU

}

layers {

  bottom: "inception_4d/3x3_reduce-se4"

  top: "inception_4d/3x3-se4"

  name: "inception_4d/3x3-se4"

  type: CONVOLUTION

  blobs_lr: 1

  blobs_lr: 2

  weight_decay: 1

  weight_decay: 0

  convolution_param {

    num_output: 288

    pad: 1

    kernel_size: 3

    weight_filler {

      type: "xavier"

      std: 0.03

    }

    bias_filler {

      type: "constant"

      value: 0.2

    }

  }

}

layers {

  bottom: "inception_4d/3x3-se4"

  top: "inception_4d/3x3-se4"

  name: "inception_4d/relu_3x3-se4"

  type: RELU

}

layers {

  bottom: "inception_4c/output-se4"

  top: "inception_4d/5x5_reduce-se4"

  name: "inception_4d/5x5_reduce-se4"

  type: CONVOLUTION

  blobs_lr: 1

  blobs_lr: 2

  weight_decay: 1

  weight_decay: 0

  convolution_param {

    num_output: 32

    kernel_size: 1

    weight_filler {

      type: "xavier"

      std: 0.2

    }

    bias_filler {

      type: "constant"

      value: 0.2

    }

  }

}

layers {

  bottom: "inception_4d/5x5_reduce-se4"

  top: "inception_4d/5x5_reduce-se4"

  name: "inception_4d/relu_5x5_reduce-se4"

  type: RELU

}

layers {

  bottom: "inception_4d/5x5_reduce-se4"

  top: "inception_4d/5x5-se4"

  name: "inception_4d/5x5-se4"

  type: CONVOLUTION

  blobs_lr: 1

  blobs_lr: 2

  weight_decay: 1

  weight_decay: 0

  convolution_param {

    num_output: 64

    pad: 2

    kernel_size: 5

    weight_filler {

…
  top: "slice-2-5-493"
  top: "slice-2-5-494"
  top: "slice-2-5-495"
  top: "slice-2-5-496"
  top: "slice-2-5-497"
  top: "slice-2-5-498"
  top: "slice-2-5-499"
  top: "slice-2-5-500"
}
layers {
  type:ELTWISE
  name:"max-fc-2-se5"
  top:"max-fc-2-se5"
  bottom: "slice-2-5-1"
  bottom: "slice-2-5-2"
  bottom: "slice-2-5-3"
  bottom: "slice-2-5-4"
  bottom: "slice-2-5-5"
  bottom: "slice-2-5-6"
  bottom: "slice-2-5-7"
  bottom: "slice-2-5-8"
  bottom: "slice-2-5-9"
  bottom: "slice-2-5-10"
  bottom: "slice-2-5-11"
  bottom: "slice-2-5-12"
  bottom: "slice-2-5-13"
  bottom: "slice-2-5-14"
  bottom: "slice-2-5-15"
  bottom: "slice-2-5-16"
  bottom: "slice-2-5-17"
  bottom: "slice-2-5-18"
  bottom: "slice-2-5-19"
  bottom: "slice-2-5-20"
  bottom: "slice-2-5-21"
  bottom: "slice-2-5-22"
  bottom: "slice-2-5-23"
  bottom: "slice-2-5-24"
  bottom: "slice-2-5-25"
  bottom: "slice-2-5-26"
  bottom: "slice-2-5-27"
  bottom: "slice-2-5-28"
  bottom: "slice-2-5-29"
  bottom: "slice-2-5-30"
  bottom: "slice-2-5-31"
  bottom: "slice-2-5-32"
  bottom: "slice-2-5-33"
  bottom: "slice-2-5-34"
  bottom: "slice-2-5-35"
  bottom: "slice-2-5-36"
  bottom: "slice-2-5-37"
  bottom: "slice-2-5-38"
  bottom: "slice-2-5-39"
  bottom: "slice-2-5-40"
  bottom: "slice-2-5-41"
  bottom: "slice-2-5-42"
  bottom: "slice-2-5-43"
  bottom: "slice-2-5-44"
  bottom: "slice-2-5-45"
  bottom: "slice-2-5-46"
  bottom: "slice-2-5-47"
  bottom: "slice-2-5-48"
  bottom: "slice-2-5-49"
  bottom: "slice-2-5-50"
  bottom: "slice-2-5-51"
  bottom: "slice-2-5-52"
  bottom: "slice-2-5-53"
  bottom: "slice-2-5-54"
  bottom: "slice-2-5-55"
  bottom: "slice-2-5-56"
  bottom: "slice-2-5-57"
  bottom: "slice-2-5-58"
  bottom: "slice-2-5-59"
  bottom: "slice-2-5-60"
  bottom: "slice-2-5-61"
  bottom: "slice-2-5-62"
  bottom: "slice-2-5-63"
  bottom: "slice-2-5-64"
  bottom: "slice-2-5-65"
  bottom: "slice-2-5-66"
  bottom: "slice-2-5-67"
  bottom: "slice-2-5-68"
  bottom: "slice-2-5-69"
  bottom: "slice-2-5-70"
  bottom: "slice-2-5-71"
  bottom: "slice-2-5-72"
  bottom: "slice-2-5-73"
  bottom: "slice-2-5-74"
  bottom: "slice-2-5-75"
  bottom: "slice-2-5-76"
  bottom: "slice-2-5-77"
  bottom: "slice-2-5-78"
  bottom: "slice-2-5-79"
  bottom: "slice-2-5-80"
  bottom: "slice-2-5-81"
  bottom: "slice-2-5-82"
  bottom: "slice-2-5-83"
  bottom: "slice-2-5-84"
  bottom: "slice-2-5-85"
  bottom: "slice-2-5-86"
  bottom: "slice-2-5-87"
  bottom: "slice-2-5-88"
  bottom: "slice-2-5-89"
  bottom: "slice-2-5-90"
  bottom: "slice-2-5-91"
  bottom: "slice-2-5-92"
  bottom: "slice-2-5-93"
  bottom: "slice-2-5-94"
  bottom: "slice-2-5-95"
  bottom: "slice-2-5-96"
  bottom: "slice-2-5-97"
  bottom: "slice-2-5-98"
  bottom: "slice-2-5-99"
  bottom: "slice-2-5-100"
  bottom: "slice-2-5-101"
  bottom: "slice-2-5-102"
  bottom: "slice-2-5-103"
  bottom: "slice-2-5-104"
  bottom: "slice-2-5-105"
  bottom: "slice-2-5-106"
  bottom: "slice-2-5-107"
  bottom: "slice-2-5-108"
  bottom: "slice-2-5-109"
  bottom: "slice-2-5-110"
  bottom: "slice-2-5-111"
  bottom: "slice-2-5-112"
  bottom: "slice-2-5-113"
  bottom: "slice-2-5-114"
  bottom: "slice-2-5-115"
  bottom: "slice-2-5-116"
  bottom: "slice-2-5-117"
  bottom: "slice-2-5-118"
  bottom: "slice-2-5-119"
  bottom: "slice-2-5-120"
  bottom: "slice-2-5-121"
  bottom: "slice-2-5-122"
  bottom: "slice-2-5-123"
  bottom: "slice-2-5-124"
  bottom: "slice-2-5-125"
  bottom: "slice-2-5-126"
  bottom: "slice-2-5-127"
  bottom: "slice-2-5-128"
  bottom: "slice-2-5-129"
  bottom: "slice-2-5-130"
  bottom: "slice-2-5-131"
  bottom: "slice-2-5-132"
  bottom: "slice-2-5-133"
  bottom: "slice-2-5-134"
  bottom: "slice-2-5-135"
  bottom: "slice-2-5-136"
  bottom: "slice-2-5-137"
  bottom: "slice-2-5-138"
  bottom: "slice-2-5-139"
  bottom: "slice-2-5-140"
  bottom: "slice-2-5-141"
  bottom: "slice-2-5-142"
  bottom: "slice-2-5-143"
  bottom: "slice-2-5-144"
  bottom: "slice-2-5-145"
  bottom: "slice-2-5-146"
  bottom: "slice-2-5-147"
  bottom: "slice-2-5-148"
  bottom: "slice-2-5-149"
  bottom: "slice-2-5-150"
  bottom: "slice-2-5-151"
  bottom: "slice-2-5-152"
  bottom: "slice-2-5-153"
  bottom: "slice-2-5-154"
  bottom: "slice-2-5-155"
  bottom: "slice-2-5-156"
  bottom: "slice-2-5-157"
  bottom: "slice-2-5-158"
  bottom: "slice-2-5-159"
  bottom: "slice-2-5-160"
  bottom: "slice-2-5-161"
  bottom: "slice-2-5-162"
  bottom: "slice-2-5-163"
  bottom: "slice-2-5-164"
  bottom: "slice-2-5-165"
  bottom: "slice-2-5-166"
  bottom: "slice-2-5-167"
  bottom: "slice-2-5-168"
  bottom: "slice-2-5-169"
  bottom: "slice-2-5-170"
  bottom: "slice-2-5-171"
  bottom: "slice-2-5-172"
  bottom: "slice-2-5-173"
  bottom: "slice-2-5-174"
  bottom: "slice-2-5-175"
  bottom: "slice-2-5-176"
  bottom: "slice-2-5-177"
  bottom: "slice-2-5-178"
  bottom: "slice-2-5-179"
  bottom: "slice-2-5-180"
  bottom: "slice-2-5-181"
  bottom: "slice-2-5-182"
  bottom: "slice-2-5-183"
  bottom: "slice-2-5-184"
  bottom: "slice-2-5-185"
  bottom: "slice-2-5-186"
  bottom: "slice-2-5-187"
  bottom: "slice-2-5-188"
  bottom: "slice-2-5-189"
  bottom: "slice-2-5-190"
  bottom: "slice-2-5-191"
  bottom: "slice-2-5-192"
  bottom: "slice-2-5-193"
  bottom: "slice-2-5-194"
  bottom: "slice-2-5-195"
  bottom: "slice-2-5-196"
  bottom: "slice-2-5-197"
  bottom: "slice-2-5-198"
  bottom: "slice-2-5-199"
  bottom: "slice-2-5-200"
  bottom: "slice-2-5-201"
  bottom: "slice-2-5-202"
  bottom: "slice-2-5-203"
  bottom: "slice-2-5-204"
  bottom: "slice-2-5-205"
  bottom: "slice-2-5-206"
  bottom: "slice-2-5-207"
  bottom: "slice-2-5-208"
  bottom: "slice-2-5-209"
  bottom: "slice-2-5-210"
  bottom: "slice-2-5-211"
  bottom: "slice-2-5-212"
  bottom: "slice-2-5-213"
  bottom: "slice-2-5-214"
  bottom: "slice-2-5-215"
  bottom: "slice-2-5-216"
  bottom: "slice-2-5-217"
  bottom: "slice-2-5-218"
  bottom: "slice-2-5-219"
  bottom: "slice-2-5-220"
  bottom: "slice-2-5-221"
  bottom: "slice-2-5-222"
  bottom: "slice-2-5-223"
  bottom: "slice-2-5-224"
  bottom: "slice-2-5-225"
  bottom: "slice-2-5-226"
  bottom: "slice-2-5-227"
  bottom: "slice-2-5-228"
  bottom: "slice-2-5-229"
  bottom: "slice-2-5-230"
  bottom: "slice-2-5-231"
  bottom: "slice-2-5-232"
  bottom: "slice-2-5-233"
  bottom: "slice-2-5-234"
  bottom: "slice-2-5-235"
  bottom: "slice-2-5-236"
  bottom: "slice-2-5-237"
  bottom: "slice-2-5-238"
  bottom: "slice-2-5-239"
  bottom: "slice-2-5-240"
  bottom: "slice-2-5-241"
  bottom: "slice-2-5-242"
  bottom: "slice-2-5-243"
  bottom: "slice-2-5-244"
  bottom: "slice-2-5-245"
  bottom: "slice-2-5-246"
  bottom: "slice-2-5-247"
  bottom: "slice-2-5-248"
  bottom: "slice-2-5-249"
  bottom: "slice-2-5-250"
  bottom: "slice-2-5-251"
  bottom: "slice-2-5-252"
  bottom: "slice-2-5-253"
  bottom: "slice-2-5-254"
  bottom: "slice-2-5-255"
  bottom: "slice-2-5-256"
  bottom: "slice-2-5-257"
  bottom: "slice-2-5-258"
  bottom: "slice-2-5-259"
  bottom: "slice-2-5-260"
  bottom: "slice-2-5-261"
  bottom: "slice-2-5-262"
  bottom: "slice-2-5-263"
  bottom: "slice-2-5-264"
  bottom: "slice-2-5-265"
  bottom: "slice-2-5-266"
  bottom: "slice-2-5-267"
  bottom: "slice-2-5-268"
  bottom: "slice-2-5-269"
  bottom: "slice-2-5-270"
  bottom: "slice-2-5-271"
  bottom: "slice-2-5-272"
  bottom: "slice-2-5-273"
  bottom: "slice-2-5-274"
  bottom: "slice-2-5-275"
  bottom: "slice-2-5-276"
  bottom: "slice-2-5-277"
  bottom: "slice-2-5-278"
  bottom: "slice-2-5-279"
  bottom: "slice-2-5-280"
  bottom: "slice-2-5-281"
  bottom: "slice-2-5-282"
  bottom: "slice-2-5-283"
  bottom: "slice-2-5-284"
  bottom: "slice-2-5-285"
  bottom: "slice-2-5-286"
  bottom: "slice-2-5-287"
  bottom: "slice-2-5-288"
  bottom: "slice-2-5-289"
  bottom: "slice-2-5-290"
  bottom: "slice-2-5-291"
  bottom: "slice-2-5-292"
  bottom: "slice-2-5-293"
  bottom: "slice-2-5-294"
  bottom: "slice-2-5-295"
  bottom: "slice-2-5-296"
  bottom: "slice-2-5-297"
  bottom: "slice-2-5-298"
  bottom: "slice-2-5-299"
  bottom: "slice-2-5-300"
  bottom: "slice-2-5-301"
  bottom: "slice-2-5-302"
  bottom: "slice-2-5-303"
  bottom: "slice-2-5-304"
  bottom: "slice-2-5-305"
  bottom: "slice-2-5-306"
  bottom: "slice-2-5-307"
  bottom: "slice-2-5-308"
  bottom: "slice-2-5-309"
  bottom: "slice-2-5-310"
  bottom: "slice-2-5-311"
  bottom: "slice-2-5-312"
  bottom: "slice-2-5-313"
  bottom: "slice-2-5-314"
  bottom: "slice-2-5-315"
  bottom: "slice-2-5-316"
  bottom: "slice-2-5-317"
  bottom: "slice-2-5-318"
  bottom: "slice-2-5-319"
  bottom: "slice-2-5-320"
  bottom: "slice-2-5-321"
  bottom: "slice-2-5-322"
  bottom: "slice-2-5-323"
  bottom: "slice-2-5-324"
  bottom: "slice-2-5-325"
  bottom: "slice-2-5-326"
  bottom: "slice-2-5-327"
  bottom: "slice-2-5-328"
  bottom: "slice-2-5-329"
  bottom: "slice-2-5-330"
  bottom: "slice-2-5-331"
  bottom: "slice-2-5-332"
  bottom: "slice-2-5-333"
  bottom: "slice-2-5-334"
  bottom: "slice-2-5-335"
  bottom: "slice-2-5-336"
  bottom: "slice-2-5-337"
  bottom: "slice-2-5-338"
  bottom: "slice-2-5-339"
  bottom: "slice-2-5-340"
  bottom: "slice-2-5-341"
  bottom: "slice-2-5-342"
  bottom: "slice-2-5-343"
  bottom: "slice-2-5-344"
  bottom: "slice-2-5-345"
  bottom: "slice-2-5-346"
  bottom: "slice-2-5-347"
  bottom: "slice-2-5-348"
  bottom: "slice-2-5-349"
  bottom: "slice-2-5-350"
  bottom: "slice-2-5-351"
  bottom: "slice-2-5-352"
  bottom: "slice-2-5-353"
  bottom: "slice-2-5-354"
  bottom: "slice-2-5-355"
  bottom: "slice-2-5-356"
  bottom: "slice-2-5-357"
  bottom: "slice-2-5-358"
  bottom: "slice-2-5-359"
  bottom: "slice-2-5-360"
  bottom: "slice-2-5-361"
  bottom: "slice-2-5-362"
  bottom: "slice-2-5-363"
  bottom: "slice-2-5-364"
  bottom: "slice-2-5-365"
  bottom: "slice-2-5-366"
  bottom: "slice-2-5-367"
  bottom: "slice-2-5-368"
  bottom: "slice-2-5-369"
  bottom: "slice-2-5-370"
  bottom: "slice-2-5-371"
  bottom: "slice-2-5-372"
  bottom: "slice-2-5-373"
  bottom: "slice-2-5-374"
  bottom: "slice-2-5-375"
  bottom: "slice-2-5-376"
  bottom: "slice-2-5-377"
  bottom: "slice-2-5-378"
  bottom: "slice-2-5-379"
  bottom: "slice-2-5-380"
  bottom: "slice-2-5-381"
  bottom: "slice-2-5-382"
  bottom: "slice-2-5-383"
  bottom: "slice-2-5-384"
  bottom: "slice-2-5-385"
  bottom: "slice-2-5-386"
  bottom: "slice-2-5-387"
  bottom: "slice-2-5-388"
  bottom: "slice-2-5-389"
  bottom: "slice-2-5-390"
  bottom: "slice-2-5-391"
  bottom: "slice-2-5-392"
  bottom: "slice-2-5-393"
  bottom: "slice-2-5-394"
  bottom: "slice-2-5-395"
  bottom: "slice-2-5-396"
  bottom: "slice-2-5-397"
  bottom: "slice-2-5-398"
  bottom: "slice-2-5-399"
  bottom: "slice-2-5-400"
  bottom: "slice-2-5-401"
  bottom: "slice-2-5-402"
  bottom: "slice-2-5-403"
  bottom: "slice-2-5-404"
  bottom: "slice-2-5-405"
  bottom: "slice-2-5-406"
  bottom: "slice-2-5-407"
  bottom: "slice-2-5-408"
  bottom: "slice-2-5-409"
  bottom: "slice-2-5-410"
  bottom: "slice-2-5-411"
  bottom: "slice-2-5-412"
  bottom: "slice-2-5-413"
  bottom: "slice-2-5-414"
  bottom: "slice-2-5-415"
  bottom: "slice-2-5-416"
  bottom: "slice-2-5-417"
  bottom: "slice-2-5-418"
  bottom: "slice-2-5-419"
  bottom: "slice-2-5-420"
  bottom: "slice-2-5-421"
  bottom: "slice-2-5-422"
  bottom: "slice-2-5-423"
  bottom: "slice-2-5-424"
  bottom: "slice-2-5-425"
  bottom: "slice-2-5-426"
  bottom: "slice-2-5-427"
  bottom: "slice-2-5-428"
  bottom: "slice-2-5-429"
  bottom: "slice-2-5-430"
  bottom: "slice-2-5-431"
  bottom: "slice-2-5-432"
  bottom: "slice-2-5-433"
  bottom: "slice-2-5-434"
  bottom: "slice-2-5-435"
  bottom: "slice-2-5-436"
  bottom: "slice-2-5-437"
  bottom: "slice-2-5-438"
  bottom: "slice-2-5-439"
  bottom: "slice-2-5-440"
  bottom: "slice-2-5-441"
  bottom: "slice-2-5-442"
  bottom: "slice-2-5-443"
  bottom: "slice-2-5-444"
  bottom: "slice-2-5-445"
  bottom: "slice-2-5-446"
  bottom: "slice-2-5-447"
  bottom: "slice-2-5-448"
  bottom: "slice-2-5-449"
  bottom: "slice-2-5-450"
  bottom: "slice-2-5-451"
  bottom: "slice-2-5-452"
  bottom: "slice-2-5-453"
  bottom: "slice-2-5-454"
  bottom: "slice-2-5-455"
  bottom: "slice-2-5-456"
  bottom: "slice-2-5-457"
  bottom: "slice-2-5-458"
  bottom: "slice-2-5-459"
  bottom: "slice-2-5-460"
  bottom: "slice-2-5-461"
  bottom: "slice-2-5-462"
  bottom: "slice-2-5-463"
  bottom: "slice-2-5-464"
  bottom: "slice-2-5-465"
  bottom: "slice-2-5-466"
  bottom: "slice-2-5-467"
  bottom: "slice-2-5-468"
  bottom: "slice-2-5-469"
  bottom: "slice-2-5-470"
  bottom: "slice-2-5-471"
  bottom: "slice-2-5-472"
  bottom: "slice-2-5-473"
  bottom: "slice-2-5-474"
  bottom: "slice-2-5-475"
  bottom: "slice-2-5-476"
  bottom: "slice-2-5-477"
  bottom: "slice-2-5-478"
  bottom: "slice-2-5-479"
  bottom: "slice-2-5-480"
  bottom: "slice-2-5-481"
  bottom: "slice-2-5-482"
  bottom: "slice-2-5-483"
  bottom: "slice-2-5-484"
  bottom: "slice-2-5-485"
  bottom: "slice-2-5-486"
  bottom: "slice-2-5-487"
  bottom: "slice-2-5-488"
  bottom: "slice-2-5-489"
  bottom: "slice-2-5-490"
  bottom: "slice-2-5-491"
  bottom: "slice-2-5-492"
  bottom: "slice-2-5-493"
  bottom: "slice-2-5-494"
  bottom: "slice-2-5-495"
  bottom: "slice-2-5-496"
  bottom: "slice-2-5-497"
  bottom: "slice-2-5-498"
  bottom: "slice-2-5-499"
  bottom: "slice-2-5-500"
  eltwise_param{
    operation:MAX
  }
}
layers {
  type:SLICE
  name:"slice-fc-2-se6"
  bottom:"fc-2-se6"
  top: "slice-2-6-1"
  top: "slice-2-6-2"
  top: "slice-2-6-3"
  top: "slice-2-6-4"
  top: "slice-2-6-5"
  top: "slice-2-6-6"
  top: "slice-2-6-7"
  top: "slice-2-6-8"
  top: "slice-2-6-9"
  top: "slice-2-6-10"
  top: "slice-2-6-11"
  top: "slice-2-6-12"
  top: "slice-2-6-13"
  top: "slice-2-6-14"
  top: "slice-2-6-15"
  top: "slice-2-6-16"
  top: "slice-2-6-17"
  top: "slice-2-6-18"
  top: "slice-2-6-19"
  top: "slice-2-6-20"
  top: "slice-2-6-21"
  top: "slice-2-6-22"
  top: "slice-2-6-23"
  top: "slice-2-6-24"
  top: "slice-2-6-25"
  top: "slice-2-6-26"
  top: "slice-2-6-27"
  top: "slice-2-6-28"
  top: "slice-2-6-29"
  top: "slice-2-6-30"
  top: "slice-2-6-31"
  top: "slice-2-6-32"
  top: "slice-2-6-33"
  top: "slice-2-6-34"
  top: "slice-2-6-35"
  top: "slice-2-6-36"
  top: "slice-2-6-37"
  top: "slice-2-6-38"
  top: "slice-2-6-39"
  top: "slice-2-6-40"
  top: "slice-2-6-41"
  top: "slice-2-6-42"
  top: "slice-2-6-43"
  top: "slice-2-6-44"
  top: "slice-2-6-45"
  top: "slice-2-6-46"
  top: "slice-2-6-47"
  top: "slice-2-6-48"
  top: "slice-2-6-49"
  top: "slice-2-6-50"
  top: "slice-2-6-51"
  top: "slice-2-6-52"
  top: "slice-2-6-53"
  top: "slice-2-6-54"
  top: "slice-2-6-55"
  top: "slice-2-6-56"
  top: "slice-2-6-57"
  top: "slice-2-6-58"
  top: "slice-2-6-59"
  top: "slice-2-6-60"
  top: "slice-2-6-61"
  top: "slice-2-6-62"
  top: "slice-2-6-63"
  top: "slice-2-6-64"
  top: "slice-2-6-65"
  top: "slice-2-6-66"
  top: "slice-2-6-67"
  top: "slice-2-6-68"
  top: "slice-2-6-69"
  top: "slice-2-6-70"
  top: "slice-2-6-71"
  top: "slice-2-6-72"
  top: "slice-2-6-73"
  top: "slice-2-6-74"
  top: "slice-2-6-75"
  top: "slice-2-6-76"
  top: "slice-2-6-77"
  top: "slice-2-6-78"
  top: "slice-2-6-79"
  top: "slice-2-6-80"
  top: "slice-2-6-81"
  top: "slice-2-6-82"
  top: "slice-2-6-83"
  top: "slice-2-6-84"
  top: "slice-2-6-85"
  top: "slice-2-6-86"
  top: "slice-2-6-87"
  top: "slice-2-6-88"
  top: "slice-2-6-89"
  top: "slice-2-6-90"
  top: "slice-2-6-91"
  top: "slice-2-6-92"
  top: "slice-2-6-93"
  top: "slice-2-6-94"
  top: "slice-2-6-95"
  top: "slice-2-6-96"
  top: "slice-2-6-97"
  top: "slice-2-6-98"
  top: "slice-2-6-99"
  top: "slice-2-6-100"
  top: "slice-2-6-101"
  top: "slice-2-6-102"
  top: "slice-2-6-103"
  top: "slice-2-6-104"
  top: "slice-2-6-105"
  top: "slice-2-6-106"
  top: "slice-2-6-107"
  top: "slice-2-6-108"
  top: "slice-2-6-109"
  top: "slice-2-6-110"
  top: "slice-2-6-111"
  top: "slice-2-6-112"
  top: "slice-2-6-113"
  top: "slice-2-6-114"
  top: "slice-2-6-115"
  top: "slice-2-6-116"
  top: "slice-2-6-117"
  top: "slice-2-6-118"
  top: "slice-2-6-119"
  top: "slice-2-6-120"
  top: "slice-2-6-121"
  top: "slice-2-6-122"
  top: "slice-2-6-123"
  top: "slice-2-6-124"
  top: "slice-2-6-125"
  top: "slice-2-6-126"
  top: "slice-2-6-127"
  top: "slice-2-6-128"
  top: "slice-2-6-129"
  top: "slice-2-6-130"
  top: "slice-2-6-131"
  top: "slice-2-6-132"
  top: "slice-2-6-133"
  top: "slice-2-6-134"
  top: "slice-2-6-135"
  top: "slice-2-6-136"
  top: "slice-2-6-137"
  top: "slice-2-6-138"
  top: "slice-2-6-139"
  top: "slice-2-6-140"
  top: "slice-2-6-141"
  top: "slice-2-6-142"
  top: "slice-2-6-143"
  top: "slice-2-6-144"
  top: "slice-2-6-145"
  top: "slice-2-6-146"
  top: "slice-2-6-147"
  top: "slice-2-6-148"
  top: "slice-2-6-149"
  top: "slice-2-6-150"
  top: "slice-2-6-151"
  top: "slice-2-6-152"
  top: "slice-2-6-153"
  top: "slice-2-6-154"
  top: "slice-2-6-155"
  top: "slice-2-6-156"
  top: "slice-2-6-157"
  top: "slice-2-6-158"
  top: "slice-2-6-159"
  top: "slice-2-6-160"
  top: "slice-2-6-161"
  top: "slice-2-6-162"
  top: "slice-2-6-163"
  top: "slice-2-6-164"
  top: "slice-2-6-165"
  top: "slice-2-6-166"
  top: "slice-2-6-167"
  top: "slice-2-6-168"
  top: "slice-2-6-169"
  top: "slice-2-6-170"
  top: "slice-2-6-171"
  top: "slice-2-6-172"
  top: "slice-2-6-173"
  top: "slice-2-6-174"
  top: "slice-2-6-175"
  top: "slice-2-6-176"
  top: "slice-2-6-177"
  top: "slice-2-6-178"
  top: "slice-2-6-179"
  top: "slice-2-6-180"
  top: "slice-2-6-181"
  top: "slice-2-6-182"
  top: "slice-2-6-183"
  top: "slice-2-6-184"
  top: "slice-2-6-185"
  top: "slice-2-6-186"
  top: "slice-2-6-187"
  top: "slice-2-6-188"
  top: "slice-2-6-189"
  top: "slice-2-6-190"
  top: "slice-2-6-191"
  top: "slice-2-6-192"
  top: "slice-2-6-193"
  top: "slice-2-6-194"
  top: "slice-2-6-195"
  top: "slice-2-6-196"
  top: "slice-2-6-197"
  top: "slice-2-6-198"
  top: "slice-2-6-199"
  top: "slice-2-6-200"
  top: "slice-2-6-201"
  top: "slice-2-6-202"
  top: "slice-2-6-203"
  top: "slice-2-6-204"
  top: "slice-2-6-205"
  top: "slice-2-6-206"
  top: "slice-2-6-207"
  top: "slice-2-6-208"
  top: "slice-2-6-209"
  top: "slice-2-6-210"
  top: "slice-2-6-211"
  top: "slice-2-6-212"
  top: "slice-2-6-213"
  top: "slice-2-6-214"
  top: "slice-2-6-215"
  top: "slice-2-6-216"
  top: "slice-2-6-217"
  top: "slice-2-6-218"
  top: "slice-2-6-219"
  top: "slice-2-6-220"
  top: "slice-2-6-221"
  top: "slice-2-6-222"
  top: "slice-2-6-223"
  top: "slice-2-6-224"
  top: "slice-2-6-225"
  top: "slice-2-6-226"
  top: "slice-2-6-227"
  top: "slice-2-6-228"
  top: "slice-2-6-229"
  top: "slice-2-6-230"
  top: "slice-2-6-231"
  top: "slice-2-6-232"
  top: "slice-2-6-233"
  top: "slice-2-6-234"
  top: "slice-2-6-235"
  top: "slice-2-6-236"
  top: "slice-2-6-237"
  top: "slice-2-6-238"
  top: "slice-2-6-239"
  top: "slice-2-6-240"
  top: "slice-2-6-241"
  top: "slice-2-6-242"
  top: "slice-2-6-243"
  top: "slice-2-6-244"
  top: "slice-2-6-245"
  top: "slice-2-6-246"
  top: "slice-2-6-247"
  top: "slice-2-6-248"
  top: "slice-2-6-249"
  top: "slice-2-6-250"
  top: "slice-2-6-251"
  top: "slice-2-6-252"
  top: "slice-2-6-253"
  top: "slice-2-6-254"
  top: "slice-2-6-255"
  top: "slice-2-6-256"
  top: "slice-2-6-257"
  top: "slice-2-6-258"
  top: "slice-2-6-259"
  top: "slice-2-6-260"
  top: "slice-2-6-261"
  top: "slice-2-6-262"
  top: "slice-2-6-263"
  top: "slice-2-6-264"
  top: "slice-2-6-265"
  top: "slice-2-6-266"
  top: "slice-2-6-267"
  top: "slice-2-6-268"
  top: "slice-2-6-269"
  top: "slice-2-6-270"
  top: "slice-2-6-271"
  top: "slice-2-6-272"
  top: "slice-2-6-273"
  top: "slice-2-6-274"
  top: "slice-2-6-275"
  top: "slice-2-6-276"
  top: "slice-2-6-277"
  top: "slice-2-6-278"
  top: "slice-2-6-279"
  top: "slice-2-6-280"
  top: "slice-2-6-281"
  top: "slice-2-6-282"
  top: "slice-2-6-283"
  top: "slice-2-6-284"
  top: "slice-2-6-285"
  top: "slice-2-6-286"
  top: "slice-2-6-287"
  top: "slice-2-6-288"
  top: "slice-2-6-289"
  top: "slice-2-6-290"
  top: "slice-2-6-291"
  top: "slice-2-6-292"
  top: "slice-2-6-293"
  top: "slice-2-6-294"
  top: "slice-2-6-295"
  top: "slice-2-6-296"
  top: "slice-2-6-297"
  top: "slice-2-6-298"
  top: "slice-2-6-299"
  top: "slice-2-6-300"
  top: "slice-2-6-301"
  top: "slice-2-6-302"
  top: "slice-2-6-303"
  top: "slice-2-6-304"
  top: "slice-2-6-305"
  top: "slice-2-6-306"
  top: "slice-2-6-307"
  top: "slice-2-6-308"
  top: "slice-2-6-309"
  top: "slice-2-6-310"
  top: "slice-2-6-311"
  top: "slice-2-6-312"
  top: "slice-2-6-313"
  top: "slice-2-6-314"
  top: "slice-2-6-315"
  top: "slice-2-6-316"
  top: "slice-2-6-317"
  top: "slice-2-6-318"
  top: "slice-2-6-319"
  top: "slice-2-6-320"
  top: "slice-2-6-321"
  top: "slice-2-6-322"
  top: "slice-2-6-323"
  top: "slice-2-6-324"
  top: "slice-2-6-325"
  top: "slice-2-6-326"
  top: "slice-2-6-327"
  top: "slice-2-6-328"
  top: "slice-2-6-329"
  top: "slice-2-6-330"
  top: "slice-2-6-331"
  top: "slice-2-6-332"
  top: "slice-2-6-333"
  top: "slice-2-6-334"
  top: "slice-2-6-335"
  top: "slice-2-6-336"
  top: "slice-2-6-337"
  top: "slice-2-6-338"
  top: "slice-2-6-339"
  top: "slice-2-6-340"
  top: "slice-2-6-341"
  top: "slice-2-6-342"
  top: "slice-2-6-343"
  top: "slice-2-6-344"
  top: "slice-2-6-345"
  top: "slice-2-6-346"
  top: "slice-2-6-347"
  top: "slice-2-6-348"
  top: "slice-2-6-349"
  top: "slice-2-6-350"
  top: "slice-2-6-351"
  top: "slice-2-6-352"
  top: "slice-2-6-353"
  top: "slice-2-6-354"
  top: "slice-2-6-355"
  top: "slice-2-6-356"
  top: "slice-2-6-357"
  top: "slice-2-6-358"
  top: "slice-2-6-359"
  top: "slice-2-6-360"
  top: "slice-2-6-361"
  top: "slice-2-6-362"
  top: "slice-2-6-363"
  top: "slice-2-6-364"
  top: "slice-2-6-365"
  top: "slice-2-6-366"
  top: "slice-2-6-367"
  top: "slice-2-6-368"
  top: "slice-2-6-369"
  top: "slice-2-6-370"
  top: "slice-2-6-371"
  top: "slice-2-6-372"
  top: "slice-2-6-373"
  top: "slice-2-6-374"
  top: "slice-2-6-375"
  top: "slice-2-6-376"
  top: "slice-2-6-377"
  top: "slice-2-6-378"
  top: "slice-2-6-379"
  top: "slice-2-6-380"
  top: "slice-2-6-381"
  top: "slice-2-6-382"
  top: "slice-2-6-383"
  top: "slice-2-6-384"
  top: "slice-2-6-385"
  top: "slice-2-6-386"
  top: "slice-2-6-387"
  top: "slice-2-6-388"
  top: "slice-2-6-389"
  top: "slice-2-6-390"
  top: "slice-2-6-391"
  top: "slice-2-6-392"
  top: "slice-2-6-393"
  top: "slice-2-6-394"
  top: "slice-2-6-395"
  top: "slice-2-6-396"
  top: "slice-2-6-397"
  top: "slice-2-6-398"
  top: "slice-2-6-399"
  top: "slice-2-6-400"
  top: "slice-2-6-401"
  top: "slice-2-6-402"
  top: "slice-2-6-403"
  top: "slice-2-6-404"
  top: "slice-2-6-405"
  top: "slice-2-6-406"
  top: "slice-2-6-407"
  top: "slice-2-6-408"
  top: "slice-2-6-409"
  top: "slice-2-6-410"
  top: "slice-2-6-411"
  top: "slice-2-6-412"
  top: "slice-2-6-413"
  top: "slice-2-6-414"
  top: "slice-2-6-415"
  top: "slice-2-6-416"
  top: "slice-2-6-417"
  top: "slice-2-6-418"
  top: "slice-2-6-419"
  top: "slice-2-6-420"
  top: "slice-2-6-421"
  top: "slice-2-6-422"
  top: "slice-2-6-423"
  top: "slice-2-6-424"
  top: "slice-2-6-425"
  top: "slice-2-6-426"
  top: "slice-2-6-427"
  top: "slice-2-6-428"
  top: "slice-2-6-429"
  top: "slice-2-6-430"
  top: "slice-2-6-431"
  top: "slice-2-6-432"
  top: "slice-2-6-433"
  top: "slice-2-6-434"
  top: "slice-2-6-435"
  top: "slice-2-6-436"
  top: "slice-2-6-437"
  top: "slice-2-6-438"
  top: "slice-2-6-439"
  top: "slice-2-6-440"
  top: "slice-2-6-441"
  top: "slice-2-6-442"
  top: "slice-2-6-443"
  top: "slice-2-6-444"
  top: "slice-2-6-445"
  top: "slice-2-6-446"
  top: "slice-2-6-447"
  top: "slice-2-6-448"
  top: "slice-2-6-449"
  top: "slice-2-6-450"
  top: "slice-2-6-451"
  top: "slice-2-6-452"
  top: "slice-2-6-453"
  top: "slice-2-6-454"
  top: "slice-2-6-455"
  top: "slice-2-6-456"
  top: "slice-2-6-457"
  top: "slice-2-6-458"
  top: "slice-2-6-459"
  top: "slice-2-6-460"
  top: "slice-2-6-461"
  top: "slice-2-6-462"
  top: "slice-2-6-463"
  top: "slice-2-6-464"
  top: "slice-2-6-465"
  top: "slice-2-6-466"
  top: "slice-2-6-467"
  top: "slice-2-6-468"
  top: "slice-2-6-469"
  top: "slice-2-6-470"
  top: "slice-2-6-471"
  top: "slice-2-6-472"
  top: "slice-2-6-473"
  top: "slice-2-6-474"
  top: "slice-2-6-475"
  top: "slice-2-6-476"
  top: "slice-2-6-477"
  top: "slice-2-6-478"
  top: "slice-2-6-479"
  top: "slice-2-6-480"
  top: "slice-2-6-481"
  top: "slice-2-6-482"
  top: "slice-2-6-483"
  top: "slice-2-6-484"
  top: "slice-2-6-485"
  top: "slice-2-6-486"
  top: "slice-2-6-487"
  top: "slice-2-6-488"
  top: "slice-2-6-489"
  top: "slice-2-6-490"
  top: "slice-2-6-491"
  top: "slice-2-6-492"
  top: "slice-2-6-493"
  top: "slice-2-6-494"
  top: "slice-2-6-495"
  top: "slice-2-6-496"
  top: "slice-2-6-497"
  top: "slice-2-6-498"
  top: "slice-2-6-499"
  top: "slice-2-6-500"
}
layers {
  type:ELTWISE
  name:"max-fc-2-se6"
  top:"max-fc-2-se6"
  bottom: "slice-2-6-1"
  bottom: "slice-2-6-2"
  bottom: "slice-2-6-3"
  bottom: "slice-2-6-4"
  bottom: "slice-2-6-5"
  bottom: "slice-2-6-6"
  bottom: "slice-2-6-7"
  bottom: "slice-2-6-8"
  bottom: "slice-2-6-9"
  bottom: "slice-2-6-10"
  bottom: "slice-2-6-11"
  bottom: "slice-2-6-12"
  bottom: "slice-2-6-13"
  bottom: "slice-2-6-14"
  bottom: "slice-2-6-15"
  bottom: "slice-2-6-16"
  bottom: "slice-2-6-17"
  bottom: "slice-2-6-18"
  bottom: "slice-2-6-19"
  bottom: "slice-2-6-20"
  bottom: "slice-2-6-21"
  bottom: "slice-2-6-22"
  bottom: "slice-2-6-23"
  bottom: "slice-2-6-24"
  bottom: "slice-2-6-25"
  bottom: "slice-2-6-26"
  bottom: "slice-2-6-27"
  bottom: "slice-2-6-28"
  bottom: "slice-2-6-29"
  bottom: "slice-2-6-30"
  bottom: "slice-2-6-31"
  bottom: "slice-2-6-32"
  bottom: "slice-2-6-33"
  bottom: "slice-2-6-34"
  bottom: "slice-2-6-35"
  bottom: "slice-2-6-36"
  bottom: "slice-2-6-37"
  bottom: "slice-2-6-38"
  bottom: "slice-2-6-39"
  bottom: "slice-2-6-40"
  bottom: "slice-2-6-41"
  bottom: "slice-2-6-42"
  bottom: "slice-2-6-43"
  bottom: "slice-2-6-44"
  bottom: "slice-2-6-45"
  bottom: "slice-2-6-46"
  bottom: "slice-2-6-47"
  bottom: "slice-2-6-48"
  bottom: "slice-2-6-49"
  bottom: "slice-2-6-50"
  bottom: "slice-2-6-51"
  bottom: "slice-2-6-52"
  bottom: "slice-2-6-53"
  bottom: "slice-2-6-54"
  bottom: "slice-2-6-55"
  bottom: "slice-2-6-56"
  bottom: "slice-2-6-57"
  bottom: "slice-2-6-58"
  bottom: "slice-2-6-59"
  bottom: "slice-2-6-60"
  bottom: "slice-2-6-61"
  bottom: "slice-2-6-62"
  bottom: "slice-2-6-63"
  bottom: "slice-2-6-64"
  bottom: "slice-2-6-65"
  bottom: "slice-2-6-66"
  bottom: "slice-2-6-67"
  bottom: "slice-2-6-68"
  bottom: "slice-2-6-69"
  bottom: "slice-2-6-70"
  bottom: "slice-2-6-71"
  bottom: "slice-2-6-72"
  bottom: "slice-2-6-73"
  bottom: "slice-2-6-74"
  bottom: "slice-2-6-75"
  bottom: "slice-2-6-76"
  bottom: "slice-2-6-77"
  bottom: "slice-2-6-78"
  bottom: "slice-2-6-79"
  bottom: "slice-2-6-80"
  bottom: "slice-2-6-81"
  bottom: "slice-2-6-82"
  bottom: "slice-2-6-83"
  bottom: "slice-2-6-84"
  bottom: "slice-2-6-85"
  bottom: "slice-2-6-86"
  bottom: "slice-2-6-87"
  bottom: "slice-2-6-88"
  bottom: "slice-2-6-89"
  bottom: "slice-2-6-90"
  bottom: "slice-2-6-91"
  bottom: "slice-2-6-92"
  bottom: "slice-2-6-93"
  bottom: "slice-2-6-94"
  bottom: "slice-2-6-95"
  bottom: "slice-2-6-96"
  bottom: "slice-2-6-97"
  bottom: "slice-2-6-98"
  bottom: "slice-2-6-99"
  bottom: "slice-2-6-100"
  bottom: "slice-2-6-101"
  bottom: "slice-2-6-102"
  bottom: "slice-2-6-103"
  bottom: "slice-2-6-104"
  bottom: "slice-2-6-105"
  bottom: "slice-2-6-106"
  bottom: "slice-2-6-107"
  bottom: "slice-2-6-108"
  bottom: "slice-2-6-109"
  bottom: "slice-2-6-110"
  bottom: "slice-2-6-111"
  bottom: "slice-2-6-112"
  bottom: "slice-2-6-113"
  bottom: "slice-2-6-114"
  bottom: "slice-2-6-115"
  bottom: "slice-2-6-116"
  bottom: "slice-2-6-117"
  bottom: "slice-2-6-118"
  bottom: "slice-2-6-119"
  bottom: "slice-2-6-120"
  bottom: "slice-2-6-121"
  bottom: "slice-2-6-122"
  bottom: "slice-2-6-123"
  bottom: "slice-2-6-124"
  bottom: "slice-2-6-125"
  bottom: "slice-2-6-126"
  bottom: "slice-2-6-127"
  bottom: "slice-2-6-128"
  bottom: "slice-2-6-129"
  bottom: "slice-2-6-130"
  bottom: "slice-2-6-131"
  bottom: "slice-2-6-132"
  bottom: "slice-2-6-133"
  bottom: "slice-2-6-134"
  bottom: "slice-2-6-135"
  bottom: "slice-2-6-136"
  bottom: "slice-2-6-137"
  bottom: "slice-2-6-138"
  bottom: "slice-2-6-139"
  bottom: "slice-2-6-140"
  bottom: "slice-2-6-141"
  bottom: "slice-2-6-142"
  bottom: "slice-2-6-143"
  bottom: "slice-2-6-144"
  bottom: "slice-2-6-145"
  bottom: "slice-2-6-146"
  bottom: "slice-2-6-147"
  bottom: "slice-2-6-148"
  bottom: "slice-2-6-149"
  bottom: "slice-2-6-150"
  bottom: "slice-2-6-151"
  bottom: "slice-2-6-152"
  bottom: "slice-2-6-153"
  bottom: "slice-2-6-154"
  bottom: "slice-2-6-155"
  bottom: "slice-2-6-156"
  bottom: "slice-2-6-157"
  bottom: "slice-2-6-158"
  bottom: "slice-2-6-159"
  bottom: "slice-2-6-160"
  bottom: "slice-2-6-161"
  bottom: "slice-2-6-162"
  bottom: "slice-2-6-163"
  bottom: "slice-2-6-164"
  bottom: "slice-2-6-165"
  bottom: "slice-2-6-166"
  bottom: "slice-2-6-167"
  bottom: "slice-2-6-168"
  bottom: "slice-2-6-169"
  bottom: "slice-2-6-170"
  bottom: "slice-2-6-171"
  bottom: "slice-2-6-172"
  bottom: "slice-2-6-173"
  bottom: "slice-2-6-174"
  bottom: "slice-2-6-175"
  bottom: "slice-2-6-176"
  bottom: "slice-2-6-177"
  bottom: "slice-2-6-178"
  bottom: "slice-2-6-179"
  bottom: "slice-2-6-180"
  bottom: "slice-2-6-181"
  bottom: "slice-2-6-182"
  bottom: "slice-2-6-183"
  bottom: "slice-2-6-184"
  bottom: "slice-2-6-185"
  bottom: "slice-2-6-186"
  bottom: "slice-2-6-187"
  bottom: "slice-2-6-188"
  bottom: "slice-2-6-189"
  bottom: "slice-2-6-190"
  bottom: "slice-2-6-191"
  bottom: "slice-2-6-192"
  bottom: "slice-2-6-193"
  bottom: "slice-2-6-194"
  bottom: "slice-2-6-195"
  bottom: "slice-2-6-196"
  bottom: "slice-2-6-197"
  bottom: "slice-2-6-198"
  bottom: "slice-2-6-199"
  bottom: "slice-2-6-200"
  bottom: "slice-2-6-201"
  bottom: "slice-2-6-202"
  bottom: "slice-2-6-203"
  bottom: "slice-2-6-204"
  bottom: "slice-2-6-205"
  bottom: "slice-2-6-206"
  bottom: "slice-2-6-207"
  bottom: "slice-2-6-208"
  bottom: "slice-2-6-209"
  bottom: "slice-2-6-210"
  bottom: "slice-2-6-211"
  bottom: "slice-2-6-212"
  bottom: "slice-2-6-213"
  bottom: "slice-2-6-214"
  bottom: "slice-2-6-215"
  bottom: "slice-2-6-216"
  bottom: "slice-2-6-217"
  bottom: "slice-2-6-218"
  bottom: "slice-2-6-219"
  bottom: "slice-2-6-220"
  bottom: "slice-2-6-221"
  bottom: "slice-2-6-222"
  bottom: "slice-2-6-223"
  bottom: "slice-2-6-224"
  bottom: "slice-2-6-225"
  bottom: "slice-2-6-226"
  bottom: "slice-2-6-227"
  bottom: "slice-2-6-228"
  bottom: "slice-2-6-229"
  bottom: "slice-2-6-230"
  bottom: "slice-2-6-231"
  bottom: "slice-2-6-232"
  bottom: "slice-2-6-233"
  bottom: "slice-2-6-234"
  bottom: "slice-2-6-235"
  bottom: "slice-2-6-236"
  bottom: "slice-2-6-237"
  bottom: "slice-2-6-238"
  bottom: "slice-2-6-239"
  bottom: "slice-2-6-240"
  bottom: "slice-2-6-241"
  bottom: "slice-2-6-242"
  bottom: "slice-2-6-243"
  bottom: "slice-2-6-244"
  bottom: "slice-2-6-245"
  bottom: "slice-2-6-246"
  bottom: "slice-2-6-247"
  bottom: "slice-2-6-248"
  bottom: "slice-2-6-249"
  bottom: "slice-2-6-250"
  bottom: "slice-2-6-251"
  bottom: "slice-2-6-252"
  bottom: "slice-2-6-253"
  bottom: "slice-2-6-254"
  bottom: "slice-2-6-255"
  bottom: "slice-2-6-256"
  bottom: "slice-2-6-257"
  bottom: "slice-2-6-258"
  bottom: "slice-2-6-259"
  bottom: "slice-2-6-260"
  bottom: "slice-2-6-261"
  bottom: "slice-2-6-262"
  bottom: "slice-2-6-263"
  bottom: "slice-2-6-264"
  bottom: "slice-2-6-265"
  bottom: "slice-2-6-266"
  bottom: "slice-2-6-267"
  bottom: "slice-2-6-268"
  bottom: "slice-2-6-269"
  bottom: "slice-2-6-270"
  bottom: "slice-2-6-271"
  bottom: "slice-2-6-272"
  bottom: "slice-2-6-273"
  bottom: "slice-2-6-274"
  bottom: "slice-2-6-275"
  bottom: "slice-2-6-276"
  bottom: "slice-2-6-277"
  bottom: "slice-2-6-278"
  bottom: "slice-2-6-279"
  bottom: "slice-2-6-280"
  bottom: "slice-2-6-281"
  bottom: "slice-2-6-282"
  bottom: "slice-2-6-283"
  bottom: "slice-2-6-284"
  bottom: "slice-2-6-285"
  bottom: "slice-2-6-286"
  bottom: "slice-2-6-287"
  bottom: "slice-2-6-288"
  bottom: "slice-2-6-289"
  bottom: "slice-2-6-290"
  bottom: "slice-2-6-291"
  bottom: "slice-2-6-292"
  bottom: "slice-2-6-293"
  bottom: "slice-2-6-294"
  bottom: "slice-2-6-295"
  bottom: "slice-2-6-296"
  bottom: "slice-2-6-297"
  bottom: "slice-2-6-298"
  bottom: "slice-2-6-299"
  bottom: "slice-2-6-300"
  bottom: "slice-2-6-301"
  bottom: "slice-2-6-302"
  bottom: "slice-2-6-303"
  bottom: "slice-2-6-304"
  bottom: "slice-2-6-305"
  bottom: "slice-2-6-306"
  bottom: "slice-2-6-307"
  bottom: "slice-2-6-308"
  bottom: "slice-2-6-309"
  bottom: "slice-2-6-310"
  bottom: "slice-2-6-311"
  bottom: "slice-2-6-312"
  bottom: "slice-2-6-313"
  bottom: "slice-2-6-314"
  bottom: "slice-2-6-315"
  bottom: "slice-2-6-316"
  bottom: "slice-2-6-317"
  bottom: "slice-2-6-318"
  bottom: "slice-2-6-319"
  bottom: "slice-2-6-320"
  bottom: "slice-2-6-321"
  bottom: "slice-2-6-322"
  bottom: "slice-2-6-323"
  bottom: "slice-2-6-324"
  bottom: "slice-2-6-325"
  bottom: "slice-2-6-326"
  bottom: "slice-2-6-327"
  bottom: "slice-2-6-328"
  bottom: "slice-2-6-329"
  bottom: "slice-2-6-330"
  bottom: "slice-2-6-331"
  bottom: "slice-2-6-332"
  bottom: "slice-2-6-333"
  bottom: "slice-2-6-334"
  bottom: "slice-2-6-335"
  bottom: "slice-2-6-336"
  bottom: "slice-2-6-337"
  bottom: "slice-2-6-338"
  bottom: "slice-2-6-339"
  bottom: "slice-2-6-340"
  bottom: "slice-2-6-341"
  bottom: "slice-2-6-342"
  bottom: "slice-2-6-343"
  bottom: "slice-2-6-344"
  bottom: "slice-2-6-345"
  bottom: "slice-2-6-346"
  bottom: "slice-2-6-347"
  bottom: "slice-2-6-348"
  bottom: "slice-2-6-349"
  bottom: "slice-2-6-350"
  bottom: "slice-2-6-351"
  bottom: "slice-2-6-352"
  bottom: "slice-2-6-353"
  bottom: "slice-2-6-354"
  bottom: "slice-2-6-355"
  bottom: "slice-2-6-356"
  bottom: "slice-2-6-357"
  bottom: "slice-2-6-358"
  bottom: "slice-2-6-359"
  bottom: "slice-2-6-360"
  bottom: "slice-2-6-361"
  bottom: "slice-2-6-362"
  bottom: "slice-2-6-363"
  bottom: "slice-2-6-364"
  bottom: "slice-2-6-365"
  bottom: "slice-2-6-366"
  bottom: "slice-2-6-367"
  bottom: "slice-2-6-368"
  bottom: "slice-2-6-369"
  bottom: "slice-2-6-370"
  bottom: "slice-2-6-371"
  bottom: "slice-2-6-372"
  bottom: "slice-2-6-373"
  bottom: "slice-2-6-374"
  bottom: "slice-2-6-375"
  bottom: "slice-2-6-376"
  bottom: "slice-2-6-377"
  bottom: "slice-2-6-378"
  bottom: "slice-2-6-379"
  bottom: "slice-2-6-380"
  bottom: "slice-2-6-381"
  bottom: "slice-2-6-382"
  bottom: "slice-2-6-383"
  bottom: "slice-2-6-384"
  bottom: "slice-2-6-385"
  bottom: "slice-2-6-386"
  bottom: "slice-2-6-387"
  bottom: "slice-2-6-388"
  bottom: "slice-2-6-389"
  bottom: "slice-2-6-390"
  bottom: "slice-2-6-391"
  bottom: "slice-2-6-392"
  bottom: "slice-2-6-393"
  bottom: "slice-2-6-394"
  bottom: "slice-2-6-395"
  bottom: "slice-2-6-396"
  bottom: "slice-2-6-397"
  bottom: "slice-2-6-398"
  bottom: "slice-2-6-399"
  bottom: "slice-2-6-400"
  bottom: "slice-2-6-401"
  bottom: "slice-2-6-402"
  bottom: "slice-2-6-403"
  bottom: "slice-2-6-404"
  bottom: "slice-2-6-405"
  bottom: "slice-2-6-406"
  bottom: "slice-2-6-407"
  bottom: "slice-2-6-408"
  bottom: "slice-2-6-409"
  bottom: "slice-2-6-410"
  bottom: "slice-2-6-411"
  bottom: "slice-2-6-412"
  bottom: "slice-2-6-413"
  bottom: "slice-2-6-414"
  bottom: "slice-2-6-415"
  bottom: "slice-2-6-416"
  bottom: "slice-2-6-417"
  bottom: "slice-2-6-418"
  bottom: "slice-2-6-419"
  bottom: "slice-2-6-420"
  bottom: "slice-2-6-421"
  bottom: "slice-2-6-422"
  bottom: "slice-2-6-423"
  bottom: "slice-2-6-424"
  bottom: "slice-2-6-425"
  bottom: "slice-2-6-426"
  bottom: "slice-2-6-427"
  bottom: "slice-2-6-428"
  bottom: "slice-2-6-429"
  bottom: "slice-2-6-430"
  bottom: "slice-2-6-431"
  bottom: "slice-2-6-432"
  bottom: "slice-2-6-433"
  bottom: "slice-2-6-434"
  bottom: "slice-2-6-435"
  bottom: "slice-2-6-436"
  bottom: "slice-2-6-437"
  bottom: "slice-2-6-438"
  bottom: "slice-2-6-439"
  bottom: "slice-2-6-440"
  bottom: "slice-2-6-441"
  bottom: "slice-2-6-442"
  bottom: "slice-2-6-443"
  bottom: "slice-2-6-444"
  bottom: "slice-2-6-445"
  bottom: "slice-2-6-446"
  bottom: "slice-2-6-447"
  bottom: "slice-2-6-448"
  bottom: "slice-2-6-449"
  bottom: "slice-2-6-450"
  bottom: "slice-2-6-451"
  bottom: "slice-2-6-452"
  bottom: "slice-2-6-453"
  bottom: "slice-2-6-454"
  bottom: "slice-2-6-455"
  bottom: "slice-2-6-456"
  bottom: "slice-2-6-457"
  bottom: "slice-2-6-458"
  bottom: "slice-2-6-459"
  bottom: "slice-2-6-460"
  bottom: "slice-2-6-461"
  bottom: "slice-2-6-462"
  bottom: "slice-2-6-463"
  bottom: "slice-2-6-464"
  bottom: "slice-2-6-465"
  bottom: "slice-2-6-466"
  bottom: "slice-2-6-467"
  bottom: "slice-2-6-468"
  bottom: "slice-2-6-469"
  bottom: "slice-2-6-470"
  bottom: "slice-2-6-471"
  bottom: "slice-2-6-472"
  bottom: "slice-2-6-473"
  bottom: "slice-2-6-474"
  bottom: "slice-2-6-475"
  bottom: "slice-2-6-476"
  bottom: "slice-2-6-477"
  bottom: "slice-2-6-478"
  bottom: "slice-2-6-479"
  bottom: "slice-2-6-480"
  bottom: "slice-2-6-481"
  bottom: "slice-2-6-482"
  bottom: "slice-2-6-483"
  bottom: "slice-2-6-484"
  bottom: "slice-2-6-485"
  bottom: "slice-2-6-486"
  bottom: "slice-2-6-487"
  bottom: "slice-2-6-488"
  bottom: "slice-2-6-489"
  bottom: "slice-2-6-490"
  bottom: "slice-2-6-491"
  bottom: "slice-2-6-492"
  bottom: "slice-2-6-493"
  bottom: "slice-2-6-494"
  bottom: "slice-2-6-495"
  bottom: "slice-2-6-496"
  bottom: "slice-2-6-497"
  bottom: "slice-2-6-498"
  bottom: "slice-2-6-499"
  bottom: "slice-2-6-500"
  eltwise_param{
    operation:MAX
  }
}
layers {
  name: "concat"

  bottom: "max-fc8-se1"
  bottom: "max-fc8-se2"
  bottom: "max-fc8-se3"
  bottom: "max-fc8-se4"
  bottom: "max-fc8-se5"
  bottom: "max-fc8-se6"
  top: "conf-ss"
  type: CONCAT
  concat_param {
    concat_dim: 1
  }
}
layers {
  name: "prob-ss"
  type: SOFTMAX
  bottom: "conf-ss"
  top: "prob-ss"
}
layers {
  name: "slice-prob-ss"
  type: SLICE
  bottom: "prob-ss"
  top: "prob-sw1"
  top: "prob-sw2"
  top: "prob-sw3"
  top: "prob-sw4"
  top: "prob-sw5"
  top: "prob-sw6"
}
layers {
  name: "concat-1"

  bottom: "max-fc-1-se1"
  bottom: "max-fc-1-se2"
  bottom: "max-fc-1-se3"
  bottom: "max-fc-1-se4"
  bottom: "max-fc-1-se5"
  bottom: "max-fc-1-se6"
  top: "conf-ss-1"
  type: CONCAT
  concat_param {
    concat_dim: 1
  }
}
layers {
  name: "prob-ss-1"
  type: SOFTMAX
  bottom: "conf-ss-1"
  top: "prob-ss-1"
}
layers {
  name: "slice-prob-ss-1"
  type: SLICE
  bottom: "prob-ss-1"
  top: "prob-1-sw1"
  top: "prob-1-sw2"
  top: "prob-1-sw3"
  top: "prob-1-sw4"
  top: "prob-1-sw5"
  top: "prob-1-sw6"
}
layers {
  name: "concat-2"

  bottom: "max-fc-2-se1"
  bottom: "max-fc-2-se2"
  bottom: "max-fc-2-se3"
  bottom: "max-fc-2-se4"
  bottom: "max-fc-2-se5"
  bottom: "max-fc-2-se6"
  top: "conf-ss-2"
  type: CONCAT
  concat_param {
    concat_dim: 1
  }
}
layers {
  name: "prob-ss-2"
  type: SOFTMAX
  bottom: "conf-ss-2"
  top: "prob-ss-2"
}
layers {
  name: "slice-prob-ss-2"
  type: SLICE
  bottom: "prob-ss-2"
  top: "prob-2-sw1"
  top: "prob-2-sw2"
  top: "prob-2-sw3"
  top: "prob-2-sw4"
  top: "prob-2-sw5"
  top: "prob-2-sw6"
}
layers {
  name: "repmat-sw1"
  type: INNER_PRODUCT
  bottom: "prob-sw1"
  top: "repmat-sw1"
  blobs_lr: 0
  blobs_lr: 0
  weight_decay: 0
  weight_decay: 0
  inner_product_param {
    num_output: 500
    weight_filler {
      type: "constant"
      value: 1
    }
    bias_filler {
      type: "constant"
      value: 0
    }
  }
}
layers {
  type: ELTWISE
  name: "weighted-prob-ss1"
  bottom: "fc8-se1"
  bottom: "repmat-sw1"
  top: "weighted-prob-ss1"
  eltwise_param {
    operation: PROD
  }
}
layers {
  name: "repmat-sw2"
  type: INNER_PRODUCT
  bottom: "prob-sw2"
  top: "repmat-sw2"
  blobs_lr: 0
  blobs_lr: 0
  weight_decay: 0
  weight_decay: 0
  inner_product_param {
    num_output: 500
    weight_filler {
      type: "constant"
      value: 1
    }
    bias_filler {
      type: "constant"
      value: 0
    }
  }
}
layers {
  type: ELTWISE
  name: "weighted-prob-ss2"
  bottom: "fc8-se2"
  bottom: "repmat-sw2"
  top: "weighted-prob-ss2"
  eltwise_param {
    operation: PROD
  }
}
layers {
  name: "repmat-sw3"
  type: INNER_PRODUCT
  bottom: "prob-sw3"
  top: "repmat-sw3"
  blobs_lr: 0
  blobs_lr: 0
  weight_decay: 0
  weight_decay: 0
  inner_product_param {
    num_output: 500
    weight_filler {
      type: "constant"
      value: 1
    }
    bias_filler {
      type: "constant"
      value: 0
    }
  }
}
layers {
  type: ELTWISE
  name: "weighted-prob-ss3"
  bottom: "fc8-se3"
  bottom: "repmat-sw3"
  top: "weighted-prob-ss3"
  eltwise_param {
    operation: PROD
  }
}
layers {
  name: "repmat-sw4"
  type: INNER_PRODUCT
  bottom: "prob-sw4"
  top: "repmat-sw4"
  blobs_lr: 0
  blobs_lr: 0
  weight_decay: 0
  weight_decay: 0
  inner_product_param {
    num_output: 500
    weight_filler {
      type: "constant"
      value: 1
    }
    bias_filler {
      type: "constant"
      value: 0
    }
  }
}
layers {
  type: ELTWISE
  name: "weighted-prob-ss4"
  bottom: "fc8-se4"
  bottom: "repmat-sw4"
  top: "weighted-prob-ss4"
  eltwise_param {
    operation: PROD
  }
}
layers {
  name: "repmat-sw5"
  type: INNER_PRODUCT
  bottom: "prob-sw5"
  top: "repmat-sw5"
  blobs_lr: 0
  blobs_lr: 0
  weight_decay: 0
  weight_decay: 0
  inner_product_param {
    num_output: 500
    weight_filler {
      type: "constant"
      value: 1
    }
    bias_filler {
      type: "constant"
      value: 0
    }
  }
}
layers {
  type: ELTWISE
  name: "weighted-prob-ss5"
  bottom: "fc8-se5"
  bottom: "repmat-sw5"
  top: "weighted-prob-ss5"
  eltwise_param {
    operation: PROD
  }
}
layers {
  name: "repmat-sw6"
  type: INNER_PRODUCT
  bottom: "prob-sw6"
  top: "repmat-sw6"
  blobs_lr: 0
  blobs_lr: 0
  weight_decay: 0
  weight_decay: 0
  inner_product_param {
    num_output: 500
    weight_filler {
      type: "constant"
      value: 1
    }
    bias_filler {
      type: "constant"
      value: 0
    }
  }
}
layers {
  type: ELTWISE
  name: "weighted-prob-ss6"
  bottom: "fc8-se6"
  bottom: "repmat-sw6"
  top: "weighted-prob-ss6"
  eltwise_param {
    operation: PROD
  }
}
layers {
  name: "sum-weighted-prob"
  type: ELTWISE
  bottom: "weighted-prob-ss1"
  bottom: "weighted-prob-ss2"
  bottom: "weighted-prob-ss3"
  bottom: "weighted-prob-ss4"
  bottom: "weighted-prob-ss5"
  bottom: "weighted-prob-ss6"
  top: "prob"
  eltwise_param {
    operation: SUM
  }
}
layers {
  bottom: "prob"
  bottom: "label"
  top: "loss"
  name: "loss"
  type: SOFTMAX_LOSS
  loss_weight: 1
}
layers {
  name: "accuracy"
  type: ACCURACY
  bottom: "prob"
  bottom: "label"
  top: "accuracy"
  include: { phase: TEST }
}
layers {
  name: "repmat-1-sw1"
  type: INNER_PRODUCT
  bottom: "prob-1-sw1"
  top: "repmat-1-sw1"
  blobs_lr: 0
  blobs_lr: 0
  weight_decay: 0
  weight_decay: 0
  inner_product_param {
    num_output: 500
    weight_filler {
      type: "constant"
      value: 1
    }
    bias_filler {
      type: "constant"
      value: 0
    }
  }
}
layers {
  type: ELTWISE
  name: "weighted-prob-1-ss1"
  bottom: "fc-1-se1"
  bottom: "repmat-1-sw1"
  top: "weighted-prob-1-ss1"
  eltwise_param {
    operation: PROD
  }
}
layers {
  name: "repmat-1-sw2"
  type: INNER_PRODUCT
  bottom: "prob-1-sw2"
  top: "repmat-1-sw2"
  blobs_lr: 0
  blobs_lr: 0
  weight_decay: 0
  weight_decay: 0
  inner_product_param {
    num_output: 500
    weight_filler {
      type: "constant"
      value: 1
    }
    bias_filler {
      type: "constant"
      value: 0
    }
  }
}
layers {
  type: ELTWISE
  name: "weighted-prob-1-ss2"
  bottom: "fc-1-se2"
  bottom: "repmat-1-sw2"
  top: "weighted-prob-1-ss2"
  eltwise_param {
    operation: PROD
  }
}
layers {
  name: "repmat-1-sw3"
  type: INNER_PRODUCT
  bottom: "prob-1-sw3"
  top: "repmat-1-sw3"
  blobs_lr: 0
  blobs_lr: 0
  weight_decay: 0
  weight_decay: 0
  inner_product_param {
    num_output: 500
    weight_filler {
      type: "constant"
      value: 1
    }
    bias_filler {
      type: "constant"
      value: 0
    }
  }
}
layers {
  type: ELTWISE
  name: "weighted-prob-1-ss3"
  bottom: "fc-1-se3"
  bottom: "repmat-1-sw3"
  top: "weighted-prob-1-ss3"
  eltwise_param {
    operation: PROD
  }
}
layers {
  name: "repmat-1-sw4"
  type: INNER_PRODUCT
  bottom: "prob-1-sw4"
  top: "repmat-1-sw4"
  blobs_lr: 0
  blobs_lr: 0
  weight_decay: 0
  weight_decay: 0
  inner_product_param {
    num_output: 500
    weight_filler {
      type: "constant"
      value: 1
    }
    bias_filler {
      type: "constant"
      value: 0
    }
  }
}
layers {
  type: ELTWISE
  name: "weighted-prob-1-ss4"
  bottom: "fc-1-se4"
  bottom: "repmat-1-sw4"
  top: "weighted-prob-1-ss4"
  eltwise_param {
    operation: PROD
  }
}
layers {
  name: "repmat-1-sw5"
  type: INNER_PRODUCT
  bottom: "prob-1-sw5"
  top: "repmat-1-sw5"
  blobs_lr: 0
  blobs_lr: 0
  weight_decay: 0
  weight_decay: 0
  inner_product_param {
    num_output: 500
    weight_filler {
      type: "constant"
      value: 1
    }
    bias_filler {
      type: "constant"
      value: 0
    }
  }
}
layers {
  type: ELTWISE
  name: "weighted-prob-1-ss5"
  bottom: "fc-1-se5"
  bottom: "repmat-1-sw5"
  top: "weighted-prob-1-ss5"
  eltwise_param {
    operation: PROD
  }
}
layers {
  name: "repmat-1-sw6"
  type: INNER_PRODUCT
  bottom: "prob-1-sw6"
  top: "repmat-1-sw6"
  blobs_lr: 0
  blobs_lr: 0
  weight_decay: 0
  weight_decay: 0
  inner_product_param {
    num_output: 500
    weight_filler {
      type: "constant"
      value: 1
    }
    bias_filler {
      type: "constant"
      value: 0
    }
  }
}
layers {
  type: ELTWISE
  name: "weighted-prob-1-ss6"
  bottom: "fc-1-se6"
  bottom: "repmat-1-sw6"
  top: "weighted-prob-1-ss6"
  eltwise_param {
    operation: PROD
  }
}
layers {
  name: "sum-weighted-prob-1"
  type: ELTWISE
  bottom: "weighted-prob-1-ss1"
  bottom: "weighted-prob-1-ss2"
  bottom: "weighted-prob-1-ss3"
  bottom: "weighted-prob-1-ss4"
  bottom: "weighted-prob-1-ss5"
  bottom: "weighted-prob-1-ss6"
  top: "prob-1"
  eltwise_param {
    operation: SUM
  }
}
layers {
  bottom: "prob-1"
  bottom: "label"
  top: "loss-1"
  name: "loss-1"
  type: SOFTMAX_LOSS
  loss_weight: 1
}
layers {
  name: "accuracy-1"
  type: ACCURACY
  bottom: "prob-1"
  bottom: "label"
  top: "accuracy-1"
  include: { phase: TEST }
}
layers {
  name: "repmat-2-sw1"
  type: INNER_PRODUCT
  bottom: "prob-2-sw1"
  top: "repmat-2-sw1"
  blobs_lr: 0
  blobs_lr: 0
  weight_decay: 0
  weight_decay: 0
  inner_product_param {
    num_output: 500
    weight_filler {
      type: "constant"
      value: 1
    }
    bias_filler {
      type: "constant"
      value: 0
    }
  }
}
layers {
  type: ELTWISE
  name: "weighted-prob-2-ss1"
  bottom: "fc-2-se1"
  bottom: "repmat-2-sw1"
  top: "weighted-prob-2-ss1"
  eltwise_param {
    operation: PROD
  }
}
layers {
  name: "repmat-2-sw2"
  type: INNER_PRODUCT
  bottom: "prob-2-sw2"
  top: "repmat-2-sw2"
  blobs_lr: 0
  blobs_lr: 0
  weight_decay: 0
  weight_decay: 0
  inner_product_param {
    num_output: 500
    weight_filler {
      type: "constant"
      value: 1
    }
    bias_filler {
      type: "constant"
      value: 0
    }
  }
}
layers {
  type: ELTWISE
  name: "weighted-prob-2-ss2"
  bottom: "fc-2-se2"
  bottom: "repmat-2-sw2"
  top: "weighted-prob-2-ss2"
  eltwise_param {
    operation: PROD
  }
}
layers {
  name: "repmat-2-sw3"
  type: INNER_PRODUCT
  bottom: "prob-2-sw3"
  top: "repmat-2-sw3"
  blobs_lr: 0
  blobs_lr: 0
  weight_decay: 0
  weight_decay: 0
  inner_product_param {
    num_output: 500
    weight_filler {
      type: "constant"
      value: 1
    }
    bias_filler {
      type: "constant"
      value: 0
    }
  }
}
layers {
  type: ELTWISE
  name: "weighted-prob-2-ss3"
  bottom: "fc-2-se3"
  bottom: "repmat-2-sw3"
  top: "weighted-prob-2-ss3"
  eltwise_param {
    operation: PROD
  }
}
layers {
  name: "repmat-2-sw4"
  type: INNER_PRODUCT
  bottom: "prob-2-sw4"
  top: "repmat-2-sw4"
  blobs_lr: 0
  blobs_lr: 0
  weight_decay: 0
  weight_decay: 0
  inner_product_param {
    num_output: 500
    weight_filler {
      type: "constant"
      value: 1
    }
    bias_filler {
      type: "constant"
      value: 0
    }
  }
}
layers {
  type: ELTWISE
  name: "weighted-prob-2-ss4"
  bottom: "fc-2-se4"
  bottom: "repmat-2-sw4"
  top: "weighted-prob-2-ss4"
  eltwise_param {
    operation: PROD
  }
}
layers {
  name: "repmat-2-sw5"
  type: INNER_PRODUCT
  bottom: "prob-2-sw5"
  top: "repmat-2-sw5"
  blobs_lr: 0
  blobs_lr: 0
  weight_decay: 0
  weight_decay: 0
  inner_product_param {
    num_output: 500
    weight_filler {
      type: "constant"
      value: 1
    }
    bias_filler {
      type: "constant"
      value: 0
    }
  }
}
layers {
  type: ELTWISE
  name: "weighted-prob-2-ss5"
  bottom: "fc-2-se5"
  bottom: "repmat-2-sw5"
  top: "weighted-prob-2-ss5"
  eltwise_param {
    operation: PROD
  }
}
layers {
  name: "repmat-2-sw6"
  type: INNER_PRODUCT
  bottom: "prob-2-sw6"
  top: "repmat-2-sw6"
  blobs_lr: 0
  blobs_lr: 0
  weight_decay: 0
  weight_decay: 0
  inner_product_param {
    num_output: 500
    weight_filler {
      type: "constant"
      value: 1
    }
    bias_filler {
      type: "constant"
      value: 0
    }
  }
}
layers {
  type: ELTWISE
  name: "weighted-prob-2-ss6"
  bottom: "fc-2-se6"
  bottom: "repmat-2-sw6"
  top: "weighted-prob-2-ss6"
  eltwise_param {
    operation: PROD
  }
}
layers {
  name: "sum-weighted-prob-2"
  type: ELTWISE
  bottom: "weighted-prob-2-ss1"
  bottom: "weighted-prob-2-ss2"
  bottom: "weighted-prob-2-ss3"
  bottom: "weighted-prob-2-ss4"
  bottom: "weighted-prob-2-ss5"
  bottom: "weighted-prob-2-ss6"
  top: "prob-2"
  eltwise_param {
    operation: SUM
  }
}
layers {
  bottom: "prob-2"
  bottom: "label"
  top: "loss-2"
  name: "loss-2"
  type: SOFTMAX_LOSS
  loss_weight: 1
}
layers {
  name: "accuracy-2"
  type: ACCURACY
  bottom: "prob-2"
  bottom: "label"
  top: "accuracy-2"
  include: { phase: TEST }
}
